tudui_6.pth (torch, 588600 bytes, 10 tensors)

weight f4 [32, 3, 5, 5]
000000 85 9c 97 bd 51 9d d0 3d f3 00 62 3d 10 5e b1 3d
       -0.074029006 0.10186256 0.055176686 0.08660519
000010 09 8b 79 3b 06 a9 81 3c 17 da cb 3c be 8d 85 bd
       0.0038077256 0.015827667 0.024884267 -0.06521176
000020 56 d9 fd 3d 90 de 82 bd 9e 48 a1 3d 1d 45 a7 3d
       0.12394969 -0.06390107 0.07875179 0.08167479
000030 df cc e5 3d 85 60 81 bd e8 64 3a 3d 79 9c 35 bb
       0.11220717 -0.06317238 0.045506388 -0.0027711673
000040 bf 43 cb bd 1a 44 c9 3d 69 2d a7 3d 88 92 bd bd
       -0.09925031 0.098274425 0.08162958 -0.09256464
000050 e0 b8 8f bd 4c e8 16 be 09 03 18 be 89 5a 95 3c
       -0.07017684 -0.14737052 -0.14844908 0.018231647
000060 8c 00 03 be cb 9a ba 3d 4f 35 34 bd a6 be 05 3e
       -0.12793177 0.09111556 -0.04399615 0.13061008
000070 2e c1 18 3e 37 82 10 bd 98 40 4f bd f2 08 8a 3b
       0.14917442 -0.035280433 -0.05059871 0.004212492
000080 04 41 b5 3d 70 53 a6 bd 8c 6a 41 3c 08 eb 8f bd
       0.08850291 -0.08121383 0.011805188 -0.070272505
000090 a4 b8 43 bc 0b 24 b4 3d f9 ee 20 bd cd eb 4c bd
       -0.011945877 0.08795937 -0.039290402 -0.050029565
0000a0 70 1d 88 bd 37 cb 44 3d a4 7d 01 be 3e 34 59 3d
       -0.0664624 0.048045363 -0.12645584 0.053028338
0000b0 d4 80 b5 bc 8d dd 3c bd a4 fa 9d bc b5 e6 54 3d
       -0.022156157 -0.046109725 -0.019284554 0.051977832
0000c0 ea fd c7 bd 80 95 99 bb 35 58 1a 3d c5 76 81 3d
       -0.09765227 -0.0046870112 0.037681777 0.063214816
0000d0 75 6c 05 3e 63 25 8e 3d 9d 34 06 3e 63 6a 7f bd
       0.13029654 0.06940725 0.13106008 -0.062357318
0000e0 66 f6 2e bd 0a 14 a5 bd 06 ff fa 3d 6a 98 cf 3c
       -0.042715453 -0.08060463 0.12255673 0.025341231
0000f0 3b 33 de bd a3 2a e1 bc 53 d4 1f 3d d0 31 c9 3c
       -0.10849615 -0.027486151 0.039020848 0.024559885
000100 54 fe 92 3d d6 b4 d9 3d 50 b3 b4 bd 77 6b e4 bd
       0.071774155 0.10630195 -0.08823264 -0.1115331
000110 7e 1b a9 3d 20 26 03 3d b7 7f 3d bd 1c 4b f9 bd
       0.08257197 0.03201878 -0.046264376 -0.12172529
000120 93 f4 4d 3c 94 aa fd bd d2 cd a5 bd c8 5d 44 bd
       0.012570518 -0.12386051 -0.08095898 -0.047941
000130 5c 61 b3 3d 0b 63 05 3e 42 a8 87 3d 85 d8 44 3d
       0.08758804 0.13026063 0.066238895 0.04805805
000140 1c fb 29 3d a0 12 50 3e d4 b1 0c 3e 72 c1 2d 3e
       0.041499242 0.20319605 0.13739711 0.16968325
000150 3c 01 1c 3e 6d 79 35 3c 5b 1a 33 3e af 61 f9 3d
       0.15234846 0.011076313 0.17490523 0.12176835
000160 96 d4 d7 3d 55 a0 df 3d 5d 39 d7 3c 8f 3d 16 3d
       0.105385944 0.10919253 0.02627247 0.0366798
000170 1a 2e 1a 3d e2 d4 cc bd 61 ca 69 bd 22 9f 2f 3a
       0.037641622 -0.10001542 -0.05707777 0.0006699433
000180 c2 72 0a bd d2 03 93 bd 14 f3 a0 bd 65 31 df bd
       -0.033800848 -0.07178463 -0.078588635 -0.10898093
000190 36 ff c1 bd 88 fc b4 bd 70 69 b3 bd 9f a7 00 be
       -0.09472506 -0.08837229 -0.08760345 -0.12563942
0001a0 80 3e 85 bd 0f 06 7f bd dd 35 23 bd fe d4 71 3d
       -0.065060616 -0.062261637 -0.03984629 0.059041016
0001b0 a7 d1 c6 3d ad d9 e2 3d 6c 7c be 3d 7d 2f 40 3d
       0.09707957 0.110766746 0.09301075 0.04692029
0001c0 7d c5 95 3d c9 61 87 bb ed bd c3 3d c9 b1 f9 bd
       0.073130585 -0.00413153 0.0955771 -0.12192113
0001d0 30 fa 34 be fa 86 ab 3b 4b 4f c4 bd e4 a5 67 bc
       -0.17673564 0.0052345963 -0.095854364 -0.0141386725
0001e0 d6 87 57 bc e5 d6 38 be a1 6c e7 bd f8 f1 9f bd
       -0.013154944 -0.18050726 -0.11300016 -0.07809824
0001f0 06 02 09 be 94 39 0e bd 7f 67 0e bd 00 17 05 be
       -0.13379678 -0.03472288 -0.03476667 -0.12997055
000200 6c 07 17 3a f7 1e 1b be a0 77 f0 bc 0c 6b a6 3d
       0.0005761299 -0.15148531 -0.029353917 0.08125886
000210 b9 9d a0 bd 1c dd 92 3d bc e9 f6 3d ea 1b d3 ba
       -0.07842583 0.071710795 0.120563 -0.0016106341
000220 53 d2 00 3e fb 75 06 3e 70 ff 46 3c 9c 31 04 3e
       0.12580232 0.13130943 0.012145862 0.1290955
000230 49 0a 0d be f5 1d 13 be 32 6e e3 bd f2 9f 87 bd
       -0.13773455 -0.14366896 -0.111050025 -0.06622304
000240 3a d2 a8 bd d0 49 d5 bc a9 59 e0 bd 50 2e 81 bc
       -0.082432225 -0.026036173 -0.10954601 -0.015769154
000250 fd d2 17 bd 16 94 08 3c e7 75 a7 3d d7 d3 50 bd
       -0.03706645 0.008336088 0.08176785 -0.050983276
000260 36 db c2 3d 2c 95 37 3d 8e 49 0f bd a3 c1 d8 bd
       0.095144674 0.044819996 -0.034982257 -0.10583808
000270 bc 9e 8f bd 3f f4 84 bd 12 89 92 3d 9a 97 3e 3d
       -0.07012698 -0.06491899 0.0715505 0.046531297
000280 32 63 56 bc 6a 57 6a 3d 10 28 e0 bd 5e 88 03 be
       -0.013085173 0.05721227 -0.10945141 -0.12844989
000290 ac b2 4d bd fa 64 07 be c6 d3 1f 3d 11 71 9d bd
       -0.050219223 -0.13222113 0.039020322 -0.07687581
0002a0 41 a0 94 bd 28 be 97 3c 0a 45 d4 bd c6 fc db bc
       -0.072571285 0.01852329 -0.10364731 -0.02685393
0002b0 4d 19 09 3d fc bd 96 3d af 3b ec 3c 2f e3 21 3b
       0.033471394 0.073604554 0.028837053 0.0024702062
0002c0 59 29 07 bd ad 72 86 3d a0 6c 0f 3b b2 ff 74 bd
       -0.032998417 0.065648414 0.0021884814 -0.059814163
0002d0 90 46 85 3d cd 04 89 3c b5 a3 a1 bd 00 23 96 3c
       0.06507599 0.016725922 -0.07892553 0.018327236
0002e0 76 4a fa 3c e5 f2 60 3c d4 72 44 3d cc 49 24 bd
       0.030553084 0.013729786 0.04796107 -0.04010944
0002f0 84 f3 95 3c a1 ca d6 bd bf a9 78 3d cd 59 7f 3c
       0.018304594 -0.10487867 0.060708757 0.015585375
000300 57 b2 06 bd 20 49 33 3b 11 e9 0c be 7d ad ad bd
       -0.032884922 0.0027356818 -0.13760783 -0.08480356
000310 89 7b f6 bd 23 b7 1d be d1 7f d7 bc 9c 73 de bd
       -0.12035281 -0.15401892 -0.026306065 -0.108618945
000320 ee 71 86 3d 82 93 e3 bc 6c c8 84 bb df 72 e8 3d
       0.06564699 -0.027780298 -0.0040522125 0.11350035
000330 e5 7a 21 3e df 1d eb 3d 52 b1 28 3e 0b c4 35 3e
       0.15769537 0.11480307 0.16473892 0.17750566
000340 f8 74 1d 3d c2 b4 b6 3c d9 f5 71 bd 8c 88 d9 3d
       0.03844163 0.022302989 -0.05907235 0.106217474
000350 ad f3 b1 3d 3f 78 70 3d bc 3c a4 bd 97 a1 be 3d
       0.086890556 0.058708426 -0.08019397 0.093081646
000360 06 d6 6c 3d a8 b0 8f 3d b4 7c fa 3d 7d 6e f5 3d
       0.057821296 0.070161164 0.122308165 0.119839646
000370 5c b3 97 bc 00 fc 7c 3c 1b 61 68 bd 87 b2 65 3c
       -0.018518142 0.015440941 -0.056733232 0.014019615
000380 2b 42 8d 3d 2a 52 56 bd 2d 54 f3 3c 2f df 1b 3e
       0.06897386 -0.05232445 0.029703224 0.15221857
000390 9a 08 df 3c 66 b2 80 3c 44 9d 28 3c f2 9c a2 3d
       0.027225781 0.015710067 0.010291401 0.07940091
0003a0 44 27 c1 bd f3 45 1b 3d c0 51 92 bd 62 c1 09 be
       -0.094313174 0.037908506 -0.07144499 -0.13452676
0003b0 25 2a 8d bc 18 f0 f0 bd 1d 35 82 3d 6c 1a 1a bd
       -0.01723201 -0.11764544 0.06357787 -0.037622854
0003c0 3c 50 df bd 04 55 b8 bd 12 69 94 bd 87 f8 96 3c
       -0.10903975 -0.090005904 -0.07246603 0.018429054
0003d0 f3 49 0e bc 59 d5 13 bc 02 90 99 bd 15 13 74 bd
       -0.008684623 -0.009023034 -0.074981704 -0.05958851
0003e0 ef 64 1c be b4 d8 16 be 88 7c 6d 3d e8 53 2a 3d
       -0.15272878 -0.14731103 0.05798009 0.041583925
0003f0 82 ed 81 bd 22 0d 62 bc 58 7c 8d 3d d1 c4 28 bd
       -0.06344129 -0.013797076 0.06908482 -0.041203324

bias f4 [32]
000000 61 b6 ce bd 55 d2 dc bc 1f 50 dd bd af 37 67 3d
       -0.1009338 -0.026955763 -0.108062975 0.05644959
000010 90 0d b6 bd 75 0a 51 3e c4 a5 0f 3e 49 3c 7c be
       -0.088893056 0.20414145 0.14028078 -0.24632372
000020 b5 9c c8 3d 07 b6 39 3c 3c a9 c6 3c 47 7f e8 3d
       0.097955145 0.011334903 0.02425062 0.11352401
000030 be a7 c5 be 05 97 61 3e a7 f7 d3 bd a1 a3 ad be
       -0.3860454 0.22030266 -0.1034997 -0.339139
000040 80 1b 84 bb c6 a3 95 bd a4 d3 6e 3e b7 19 6e 3c
       -0.0040315986 -0.07306628 0.23322922 0.014532498
000050 77 ca a5 bd f5 8f 35 be 61 df e4 bb f4 29 b4 3c
       -0.08095258 -0.17730696 -0.0069846367 0.021992661
000060 45 e9 14 3d b7 9d 76 bc 14 e0 19 bd 41 0c 77 bc
       0.036355276 -0.015052251 -0.037567213 -0.015078605
000070 e0 aa 28 3e 5e 8f 6a bd c0 a0 ed bd d4 d0 80 bc
       0.16471434 -0.05726563 -0.11602926 -0.015724577

weight f4 [32, 32, 5, 5]
000000 af 6e e3 3c 8e 63 f7 bb 0e c8 19 3b 4b 95 c3 bc
       0.027762739 -0.0075497096 0.002346519 -0.0238749
000010 b1 27 c8 3c 9a 0d 0c 3d 51 ca 08 bd e1 f9 01 bd
       0.024432989 0.03419266 -0.03339607 -0.031732444
000020 6d 86 de bc 38 67 a8 bb c5 f7 de bc 15 35 0e 3c
       -0.027163709 -0.0051392578 -0.027217755 0.008679648
000030 79 8f f5 bc c9 8b 75 3c 05 8a 82 bc 85 c4 b3 bc
       -0.02997564 0.014986941 -0.015934953 -0.021944294
000040 39 91 9e ba 51 98 fb 3c fd a5 ad bc fb 05 d5 bc
       -0.0012097723 0.030712279 -0.021197313 -0.026003828
000050 6b db d7 3c c3 b1 b8 bc 70 cc 04 3d 69 81 19 bc
       0.026349744 -0.0225457 0.03242153 -0.009369233
000060 11 ea 86 bc 8e 84 0e bd e1 fa 04 bd 0d 67 e0 3b
       -0.016469033 -0.034794383 -0.03246582 0.006848222
000070 17 72 80 3c b6 65 cc 3c 52 d1 e0 bc 6c c0 cb 3c
       0.015679402 0.024950843 -0.027443562 0.024872027
000080 b0 79 07 3c 16 9b ba 3c 11 50 07 bd 65 eb 3d 3c
       0.008268759 0.022779029 -0.03303534 0.011591767
000090 9a df dd bc 05 88 21 bb 50 7e c8 3c d5 dd f8 bc
       -0.02708416 -0.0024647724 0.024474293 -0.030379215
0000a0 5c 1e 6a bc 43 32 40 3c 53 f5 dc 3c 6a 27 a8 3c
       -0.014289465 0.011730733 0.026972448 0.020526607
0000b0 1c b7 f7 3c e8 b1 51 3c a4 d6 3d bc ed 88 e9 bb
       0.03023868 0.012798764 -0.011586819 -0.0071269185
0000c0 ae f4 52 3c 79 8e 29 3a c2 13 f6 bc 64 59 c1 bc
       0.012875719 0.00064680685 -0.030038718 -0.023602195
0000d0 05 ae 87 bc 05 7d 40 3a b4 d3 c5 3b 68 17 d0 bc
       -0.016562471 0.0007342848 0.0060372 -0.025401786
0000e0 78 3f dd bc f1 e1 32 3c b7 b1 e2 bc 6e 63 2f 3b
       -0.027007803 0.010918126 -0.027672632 0.0026762146
0000f0 e9 f4 89 bc ec 93 9b bc f3 81 21 bd 35 bb 3a bd
       -0.016840415 -0.018991433 -0.03943057 -0.04558869
000100 43 53 14 bd 74 29 26 bd c2 7d 26 bd 9d 35 b4 bb
       -0.036212217 -0.040566877 -0.040647276 -0.0054995553
000110 82 a2 3d bb 0c 34 0d bd 17 cb 83 bc 17 fd f1 ba
       -0.0028935974 -0.034473464 -0.016088052 -0.0018462267
000120 96 1f c5 3a 37 04 8d 3c 48 a3 02 3d 48 be 85 3c
       0.001503932 0.017213924 0.031894 0.016326085
000130 e2 4a 33 3b 9c c5 f1 bc ec 86 bc bc c6 81 f9 bc
       0.0027357866 -0.029513173 -0.023013555 -0.030457389
000140 dd 07 fc bc 7c 93 b0 3c e5 e2 1d 3c 80 ed 9f bc
       -0.030765468 0.021554701 0.009636615 -0.019522429
000150 da 96 f2 bc 37 e4 72 bc 2e 9d ce bc 3f 7e 98 bc
       -0.029612947 -0.0148249185 -0.025221433 -0.018614886
000160 6f 9d 35 bd 7e 7e 01 bd f0 34 f4 bc 24 ac 26 bd
       -0.044339593 -0.031614773 -0.029810399 -0.04069151
000170 ac 75 b8 3b af 1c 12 3c e0 30 36 3a 78 c9 4f bc
       0.005629262 0.0089179715 0.0006950032 -0.012682311
000180 64 e5 d4 3c 0e b1 7f bc 1a a7 b4 bc 89 09 db 3b
       0.025988288 -0.015606178 -0.022052336 0.0066844863
000190 59 9b d7 bb d0 ba 06 3d b3 e1 bc bc 2b 47 db bc
       -0.006579798 0.032893002 -0.02305684 -0.026767334
0001a0 33 d4 ea 3c f3 c5 28 3c 28 f6 c5 3b 88 1a 9c 3c
       0.028665638 0.010301101 0.006041307 0.01905562
0001b0 d5 c9 0f bc 00 91 5c 3c 47 f0 a2 ba 07 04 43 bc
       -0.008776148 0.013462305 -0.0012431227 -0.011902816
0001c0 7b b6 b9 bc 0f a0 aa 3c cb 34 b1 bb cd ac 5e 3c
       -0.022670021 0.020828275 -0.0054079047 0.013591004
0001d0 ec 42 01 3d ac 03 86 3b bd 51 04 bd 79 b7 a8 3c
       0.031557962 0.004089793 -0.032304514 0.0205953
0001e0 3d 24 25 3d 04 08 ab bc de 56 01 3d 60 e9 0c 3d
       0.040317763 -0.020877846 0.031576984 0.03440225
0001f0 39 7a d8 3c 12 64 04 3c 71 9d a8 bc ec 20 15 bd
       0.026425468 0.008080499 -0.020582886 -0.03640835
000200 45 28 82 bc 95 ba 42 3c 7e d8 b9 3c 90 bd ea bc
       -0.015888343 0.011885305 0.02268624 -0.028654844
000210 f8 8b 83 bb 12 a2 3f bc 70 22 7b 3a 0c 46 10 bd
       -0.0040144883 -0.011696355 0.0009580022 -0.035223052
000220 24 9e a9 3c e3 d9 03 bc cd 7d 1c bc d7 95 1a 3c
       0.02070529 -0.008047554 -0.009551478 0.009435139
000230 c2 a1 e4 bc 4a e7 26 3c a1 f5 bf 3c 05 de 42 3c
       -0.027909163 0.01018698 0.023432555 0.011893754
000240 7b 15 5c bc 0a dc ff 3c 76 95 d1 3c 24 e6 4b 3d
       -0.013432856 0.031232852 0.025583964 0.049780026
000250 eb 6a 24 3c 65 ef e9 3b 2e 1a 6e bc 04 5b ca bc
       0.010035257 0.0071391338 -0.014532609 -0.024701603
000260 16 d5 b5 3c 5b 98 1e ba 6c 43 b1 3c 36 c6 8e 3c
       0.022196334 -0.00060499244 0.021638595 0.017428499
000270 b8 d7 16 bd 52 f0 82 3c d0 fa 08 bd 87 0d de bc
       -0.03682682 0.015983734 -0.03344232 -0.02710606
000280 ee ee ac 3c f7 6f 36 bd 7b eb f2 bc bc d8 be 3c
       0.021110024 -0.04454037 -0.029653301 0.023296706
000290 b5 f5 3c bb d1 38 67 bc 73 0a b9 bc a7 f7 42 bd
       -0.0028832976 -0.014112667 -0.02258799 -0.04759946
0002a0 c9 52 5a bc 48 91 86 3b 9d 77 b9 bc bb fb e9 bb
       -0.013325402 0.0041066743 -0.022640044 -0.0071406043
0002b0 dd 9f 25 bd c6 07 eb 3b 64 17 f8 bc 46 8e 41 b9
       -0.04043566 0.0071725575 -0.030284591 -0.00018458915
0002c0 91 68 59 bc 85 fe e5 bc 5a 47 d2 3c 64 8d e3 3c
       -0.0132695595 -0.028075466 0.025668789 0.027777381
0002d0 9a dd a7 bc f9 33 22 bc 49 dc fe 3c 6d 1e 64 3c
       -0.02049141 -0.009900087 0.0311109 0.01392327
0002e0 fd b4 91 bb 60 74 bf bc e5 c7 af bc 04 52 b1 bc
       -0.0044466243 -0.023370922 -0.021457622 -0.021645553
0002f0 7e e3 12 3c b2 d6 09 3d 62 4a 05 bd d4 ac 1d bd
       0.008965371 0.033652015 -0.03254164 -0.0384949
000300 21 0f d5 3c c9 25 b8 bc a0 64 cc 3c 8d 51 0a bd
       0.02600819 -0.022478955 0.024950325 -0.03376918
000310 0f f3 18 bd e6 22 3b 3c dd 73 4d bc f3 05 b4 3c
       -0.037341174 0.011421895 -0.012539831 0.021975493
000320 d0 5a 50 3c 8d 33 7a ba 9e b0 d2 3b 2a 68 f6 bc
       0.012716964 -0.0009544425 0.006429746 -0.030078966
000330 1f 1b e6 bc b9 f3 b1 bc 8c 79 b5 bb 09 94 b3 3c
       -0.028089104 -0.021722661 -0.005538171 0.021921175
000340 54 1c 9b 3c 6f ff af bc d8 5d ae bc 30 ee fe 37
       0.018934406 -0.021484105 -0.021284983 3.0390074e-05
000350 10 5e 7d 3a 75 b2 cb bc 6e e3 d5 bc 11 fa 8e 3c
       0.00096652005 -0.024865368 -0.026109423 0.017453225
000360 57 1a 44 3c cc 9d be bb 18 46 01 bd cd e4 86 3b
       0.0119691705 -0.0058171507 -0.031560987 0.0041166306
000370 f8 68 af 3c 8d e3 d1 3c 3e 77 c9 bc b0 30 0a bc
       0.021412358 0.0256212 -0.024592992 -0.00843446
000380 f9 a2 f4 3c 73 55 69 bc 33 55 d8 3c 82 56 35 3c
       0.029862868 -0.014241564 0.026407814 0.011067988
000390 52 92 86 bc 38 15 a1 bc b0 3a 57 bc 54 0a 94 bb
       -0.016427193 -0.019663438 -0.013136551 -0.004517833
0003a0 19 8d ad bc 4d 76 89 bc fe 5c 4e bc df b9 f3 bc
       -0.021185445 -0.016780043 -0.012595413 -0.029751716
0003b0 47 a8 80 bc 3a e0 af ba 95 90 3f bd fa 58 8c bc
       -0.01570524 -0.0013418265 -0.046768744 -0.017132271
0003c0 2d c0 d3 bc 10 03 76 bc d7 be 2d 3b 89 8a 42 3c
       -0.025848472 -0.015015379 0.0026511454 0.01187385
0003d0 06 be bc bc 49 2c aa ba 45 7e eb b9 3f 93 8c 3c
       -0.023039829 -0.0012983169 -0.0004491677 0.017160056
0003e0 cd bb 87 3c f8 36 c2 3a 3b ed ae bc 88 d6 03 bd
       0.016569043 0.0014817407 -0.021353355 -0.032187015
0003f0 af f8 8a 3c 9a bc 25 bd 0a 70 65 bc 3e f3 f9 bc
       0.016964285 -0.040463068 -0.014003763 -0.030511495

bias f4 [32]
000000 c1 6d 8b bd 65 d5 1f bd b6 82 83 3d a2 bb 86 bd
       -0.06808043 -0.03902187 0.064214155 -0.06578757
000010 ed 78 88 3d 55 85 45 3d b8 99 91 3a 5d e9 a7 3c
       0.0666369 0.04822286 0.0011108434 0.020497018
000020 31 ef 9f 3c 79 e6 87 bd 17 a7 a2 bd 4f 95 9a bd
       0.019523235 -0.06635756 -0.07942026 -0.075480096
000030 da 45 29 bd 47 d3 8f bd a4 3f 33 3c fb 1a b8 bd
       -0.04132638 -0.0702272 0.010940466 -0.08989521
000040 42 95 01 bc 9a 59 7c bd 4f 15 6e 3d 15 ea 2e bd
       -0.007909121 -0.06160889 0.05812579 -0.042703707
000050 73 55 1b bd d5 1e 52 bd 88 7d dc bd b2 84 b4 3d
       -0.037923288 -0.051298935 -0.10766131 0.08814372
000060 9e 2e 16 3c 5d 13 f2 bc 59 90 18 bd f4 a0 0a bd
       0.009166388 -0.029550249 -0.037247036 -0.033844903
000070 82 cc 43 bd ca 17 4c 3d 49 95 ab bc 65 6a 8b bc
       -0.047802456 0.049827375 -0.020945208 -0.017018506

weight f4 [64, 32, 5, 5]
000000 3d a7 a5 bc 07 97 b3 3c de 03 0a bc ed ca 22 bc
       -0.020221347 0.021922601 -0.008423774 -0.009936077
000010 ad 74 88 3b 64 67 6e bc c9 23 db 3b d0 56 af bc
       0.0041642995 -0.014551017 0.0066876155 -0.0214037
000020 cf 16 a9 ba 12 7f be 3c d0 9d 11 3d d7 c1 9e 3c
       -0.0012900474 0.023253951 0.035550892 0.01937954
000030 7b bc 08 bc ba cb 11 3d 72 cc 19 3d cb 54 f6 bc
       -0.0083457185 0.03559468 0.03754849 -0.03006973
000040 fb cb 0c 3d 95 e4 0a bb 76 80 eb bc d4 87 e5 bc
       0.03437422 -0.0021193374 -0.028747778 -0.02801887
000050 4f eb 8b bc 08 d9 17 bd 43 bf 6e bc 34 f9 b7 bc
       -0.017079977 -0.03707221 -0.014571968 -0.022457696
000060 4d e5 d5 3b 51 2c 31 3c 68 ef b1 bb d9 b0 46 3b
       0.006527579 0.0108137885 -0.005430151 0.0030317812
000070 71 6b 97 bb 6d 13 f7 3c 09 61 ef bc 7e c1 e7 bc
       -0.0046209623 0.03016063 -0.029221075 -0.028290506
000080 29 34 85 3c e9 4e 34 bc e1 ca 49 3d 87 c9 7a bc
       0.016260223 -0.011005142 0.049265746 -0.015306837
000090 42 3c 1a 3c d0 a5 03 3d 09 3a 40 3d 0b 48 49 bb
       0.009413781 0.032140553 0.046930347 -0.0030713107
0000a0 67 0f 76 bb 1f 5d 50 3d 13 7e 91 bc 9b 40 9b 3c
       -0.0037545802 0.050870057 -0.017760312 0.018951705
0000b0 7f 74 25 3b 6e 87 b7 3c f0 45 26 bc 96 7e 7a bc
       0.002524644 0.022403445 -0.01014851 -0.0152889695
0000c0 ee 9e 8f bc 3e b4 71 3c 4b e3 79 3c 36 36 17 bd
       -0.017531838 0.014752446 0.015251945 -0.036916934
0000d0 1f 68 d9 bc ba 6a 1a 3c 20 99 30 3d de b2 28 3d
       -0.026538907 0.00942486 0.04311478 0.041186206
0000e0 cf 69 0b bc b4 89 cd 3b c1 08 38 3d 84 d2 3e 3d
       -0.008509113 0.006272519 0.044930223 0.046587482
0000f0 f8 97 ca 3c 17 bc cf 3c 88 87 19 3d bc a6 12 3d
       0.024730667 0.025358243 0.03748277 0.03580354
000100 8c ff 51 bd ea 61 82 3c 24 1d ef bc d5 c7 4d bd
       -0.0512691 0.01591583 -0.0291887 -0.050239403
000110 d8 c4 d4 bb b2 09 02 bd c8 36 08 3d 2f 20 69 bc
       -0.006493192 -0.031747527 0.03325537 -0.014228865
000120 b2 32 c1 bc 4c e3 31 3d 29 0d 1e 3b 57 2d f4 bc
       -0.023583744 0.043429658 0.002411673 -0.029806776
000130 85 9b 74 3c ee 69 60 3c 94 cb ad bc b3 23 8b bc
       0.014929657 0.013697131 -0.021215238 -0.016984796
000140 60 e6 7c 3c 41 1b 29 bd 8a 7d 40 3c 0b 49 2f 3c
       0.015435785 -0.041285757 0.011748681 0.010698567
000150 5f a8 03 bc ac 3b 02 bd d2 ea 2e 3a 1a cb 83 3c
       -0.008035748 -0.03179519 0.0006672564 0.016088057
000160 24 82 ab 3c 76 2d 2e bc 0a ed 92 3c 33 ca df bc
       0.02093608 -0.010630956 0.017935295 -0.027318096
000170 a3 1a 88 bc a9 e3 5e bb 87 d1 fc 3c 39 e5 91 bc
       -0.016614264 -0.0034010208 0.03086163 -0.017809497
000180 62 05 5a 3a dd 38 16 3d d5 0f d8 3c 21 be c7 bc
       0.0008316842 0.036675323 0.026374737 -0.024382653
000190 92 9f 96 bc a5 17 82 bc 3c 0a 72 3b 6b 0e 46 3c
       -0.018386636 -0.015880415 0.003693237 0.012088398
0001a0 9b 38 90 3c 78 c4 e0 bc eb 6d 04 bd 19 a1 1f bd
       0.017605117 -0.027437434 -0.03233139 -0.038971994
0001b0 2a 3a 19 3c c2 35 6d 3d a8 ca 67 bc a3 43 44 bb
       0.009352246 0.057912596 -0.014147438 -0.0029947541
0001c0 92 f2 1d 3d 37 29 8f 3c d5 46 8c 3c c6 d8 8e 39
       0.03856141 0.017475707 0.01712362 0.0002724586
0001d0 17 fb 89 3c ab e4 05 3c 00 f3 13 bd 0a 30 bf bc
       0.016843362 0.0081721945 -0.036120415 -0.023338336
0001e0 51 d1 03 bb 52 a4 57 bc 88 9c b1 bc 5d 73 19 3c
       -0.0020113776 -0.013161736 -0.021681085 0.009365884
0001f0 85 47 24 3d 48 11 c7 3b 2a b7 c3 3c 7b ef 84 3c
       0.04010727 0.006075058 0.02389105 0.016227474
000200 6b 12 54 3c c3 a6 a6 bb 2e 72 66 3c 79 2c ee 3c
       0.012943844 -0.0050857975 0.0140653085 0.02907394
000210 84 28 ee 3c d2 80 13 3c 63 03 dd bc 11 cb d6 3c
       0.029072054 0.009002881 -0.026979154 0.026219876
000220 91 0b cb 3c 3a a6 8c bc 6a de ba bc 60 1d 12 bd
       0.024785789 -0.017169107 -0.022811133 -0.035672545
000230 0a c1 fa bb d7 10 e9 bc c1 af 89 bc fc a0 a6 bc
       -0.0076524066 -0.028450413 -0.016807439 -0.020340435
000240 af 25 ff ba 5e 56 1c 3d d4 93 59 bc 74 dc 40 3d
       -0.0019466187 0.038168304 -0.013279874 0.04708524
000250 51 b0 aa 3c 4b dd c7 3c f1 ec f6 bb ce 1f bf 3c
       0.020836027 0.024397513 -0.00753557 0.023330595
000260 37 54 04 3d a5 7e cb bc c9 fe 02 bc fb fc ea 3c
       0.032306876 -0.024840662 -0.007995316 0.028685084
000270 24 5e a5 bb 48 9b b8 3c 66 68 67 bc a3 bd bc bc
       -0.005046623 0.022534981 -0.014124012 -0.023039645
000280 a0 be 68 3c d5 b2 13 3c 5b c1 ad bb 38 a3 d5 bc
       0.014205605 0.009014805 -0.005302591 -0.026078805
000290 30 05 db bb 9c 25 22 3b b9 26 1e bd 28 fd be bc
       -0.006683968 0.0024741655 -0.038611148 -0.023314074
0002a0 21 3f 04 3c 10 7f bd bc 37 97 97 3c d8 3c a7 bc
       0.008071692 -0.023131877 0.018504722 -0.020414755
0002b0 a4 f8 27 3c 61 32 c4 bc f3 72 45 3b 06 da 04 b9
       0.010252152 -0.023949804 0.003012833 -0.00012669721
0002c0 99 2a f6 3c 04 ae 84 bc ec 81 ba bc a5 0b 27 3d
       0.030049609 -0.016196258 -0.02276703 0.04078259
0002d0 1a ae a1 3c 4e 81 4b 3d ac 93 d6 3c ae b5 18 3c
       0.019736338 0.04968386 0.026193462 0.00932066
0002e0 f5 db 00 3d b0 72 0b 3d 60 9b 28 3d 4f 11 22 3d
       0.031459767 0.03404492 0.041163802 0.039567288
0002f0 85 2e 00 3d e1 0d a3 3b cb 48 e5 bc 43 46 68 bd
       0.031294364 0.0049760197 -0.027988812 -0.05670763
000300 63 2e 93 3b 19 ab ec bc b2 ec 2f bd 58 6f 15 bd
       0.0044916137 -0.02889018 -0.04295034 -0.03648314
000310 22 02 49 bd cb eb 0c bd d6 e1 05 3d ed 98 86 3c
       -0.0490743 -0.034404557 0.032686077 0.016430343
000320 36 b2 b7 3c fe 4b 60 ba ab 00 8e bc 8a 67 1c 3c
       0.022423845 -0.00085562456 -0.017334303 0.00954617
000330 3b 3a e4 bb f2 1c 83 3c c7 de da bc 99 e0 06 3d
       -0.0069649494 0.016005013 -0.026717557 0.032929037
000340 e3 98 ce 3c ed 88 76 bc 7f a2 09 bd 1d 7c ae bc
       0.025219386 -0.015047294 -0.033602234 -0.021299416
000350 12 d1 e6 bc 8b c8 05 3c 3a 95 fb bc 0a 66 31 bd
       -0.028175864 0.008165489 -0.030710805 -0.043310203
000360 aa 1b 5a 3c b8 d3 d4 3c da 3d 65 ba 1d e4 0b bd
       0.01331226 0.025979862 -0.00087448733 -0.034153093
000370 00 b6 02 bd 89 e6 14 bd 7c 34 34 3d 44 96 ec 3c
       -0.03191185 -0.036352668 0.043995366 0.028880246
000380 95 0b 2b 3d 3e ed f4 bc c4 a4 2f 3c 30 b1 a1 bb
       0.041759092 -0.029898282 0.0107204355 -0.0049344525
000390 f2 9e 9d 3c 99 8f ba bc 0b 33 62 bb 39 f7 10 3c
       0.01924083 -0.02277355 -0.0034515287 0.008848005
0003a0 1c ff 61 3d f2 77 92 bc e2 4e e8 bc dc c0 b7 3c
       0.055174932 -0.01787946 -0.028357927 0.02243083
0003b0 b2 96 8a 3c 31 4c d6 3b 10 17 c3 bc 6a c7 af 3a
       0.01691756 0.0065398444 -0.023814708 0.001341087
0003c0 b1 4a 0a bd 78 b0 8e 3c 90 6b 75 3c a3 e5 5e 3a
       -0.033762638 0.017418131 0.014979258 0.00085028465
0003d0 a2 30 c0 3c c1 6c 13 bd b6 64 e3 bb fe bb e7 bc
       0.02346069 -0.035992388 -0.006939496 -0.028287884
0003e0 7c 64 0d bd c0 66 01 bd 27 88 e4 ba f0 36 9e 3c
       -0.034519657 -0.03159213 -0.0017435596 0.019313306
0003f0 b2 24 96 3c d8 7a 24 3c f8 09 1b 3c e9 18 6c bc
       0.018328045 0.010039054 0.009462826 -0.014410236

bias f4 [64]
000000 a5 93 0c 3c 95 91 96 bb 34 a0 9f bc 9e 67 b0 bc
       0.008580123 -0.0045949914 -0.01948557 -0.021533784
000010 f5 51 7c 3c f6 6c 37 bd c6 41 92 bd 07 c5 b2 3a
       0.015400399 -0.044781648 -0.071414515 0.0013639041
000020 83 d4 a1 3c 59 ae 8c bc f5 11 2c bc 40 fe 16 bc
       0.019754654 -0.01717298 -0.010502328 -0.009215891
000030 58 92 c8 bb 63 5b 2c bd 11 e1 8d bc 7f 6b 28 bd
       -0.006120961 -0.04207934 -0.017319234 -0.04111814
000040 da 19 95 bd 23 d6 ae 3c e8 78 1c bc 42 e0 7c 3c
       -0.072803214 0.021342343 -0.009550311 0.015434327
000050 f5 59 44 bd 70 93 93 bd 11 3f 89 bc a2 dd 95 bc
       -0.047937352 -0.07205856 -0.016753705 -0.01829416
000060 35 cf 0c bd 43 5d 46 bd e7 d0 c1 bc c6 79 4b bd
       -0.034377296 -0.048428785 -0.023659183 -0.04967668
000070 39 c6 eb bc 86 49 8a bc 53 fa e6 3c 52 bc 4c bb
       -0.028781043 -0.016880762 0.028195536 -0.0031240177
000080 ef 04 d7 bc a4 4a b2 3c eb 51 14 3d ce 44 d2 bb
       -0.02624747 0.021764107 0.036210936 -0.0064168936
000090 11 df 94 bd 18 6f 6a 3c 8d b9 85 3a d4 6c 94 3c
       -0.07269109 0.014308713 0.0010202393 0.0181183
0000a0 d4 e4 75 bc 61 73 28 bd fd d8 24 bd f6 16 3e 3c
       -0.01500817 -0.04112566 -0.040246 0.011602154
0000b0 d2 fd 7a bc 80 4c 0f bd a3 56 a6 bd 5a 1b 85 bc
       -0.015319305 -0.034985065 -0.081219934 -0.016248394
0000c0 62 80 83 bd 7d a1 80 bd 09 26 43 3c 95 e6 31 39
       -0.064209715 -0.062808014 0.011910924 0.00016965934
0000d0 b1 0b 47 bd c0 d8 95 bc 4a 97 a0 3c 6f f5 43 3c
       -0.048595134 -0.018291831 0.01960339 0.011960371
0000e0 0d 45 5f bd ac 45 b4 3b 44 8b 0a bd 21 f9 ab bc
       -0.05450921 0.0055014696 -0.03382422 -0.020992817
0000f0 77 ba 8e bd 0f f2 21 bd b3 ab 75 ba 15 85 64 bd
       -0.06969159 -0.039537486 -0.00093715935 -0.05579098

weight f4 [64, 1024]
000000 f8 6d ca 3c 0a 5b 6d bb 22 7b 68 bc 92 29 87 bc
       0.02471064 -0.0036217594 -0.014189513 -0.016499314
000010 b4 25 35 3c 78 53 48 bc 50 6f 1f 3d 21 10 50 3c
       0.011056352 -0.012226932 0.038924515 0.012699158
000020 56 37 a9 3c 67 a5 77 bc 5b f8 d1 bb e2 8d 33 3c
       0.020656269 -0.015115119 -0.00640778 0.0109591205
000030 38 af 22 bd 57 42 30 bc 2f 62 a2 bc cf 25 d3 bc
       -0.039717883 -0.010758004 -0.019822208 -0.025774864
000040 23 e3 c3 3c c6 6a 49 bc 27 6a bb bb f8 b0 db bc
       0.023912018 -0.012293523 -0.0057194415 -0.026817784
000050 49 ee 2d bc 09 92 f9 bb ff 37 0a 3c df b4 af bc
       -0.010615894 -0.0076162857 0.008436202 -0.02144855
000060 7e 0e 14 bd f8 ba 51 3c b5 f1 93 3c a8 66 13 bd
       -0.036146633 0.0128009245 0.01805959 -0.035986573
000070 08 5c 7c bb 18 3a aa bb 05 f3 c0 3b 96 86 68 3c
       -0.0038507003 -0.0051949136 0.005888345 0.014192244
000080 05 b8 96 bc 4a 1e 10 bc cb 06 22 bb dd 54 8b bc
       -0.018398294 -0.008796284 -0.0024723287 -0.01700824
000090 6e 33 fc bb 20 e1 ce 3b f4 d1 00 bb 07 2c 3b bd
       -0.0076965606 0.006313458 -0.0019656392 -0.045696285
0000a0 02 fd b9 3c 9a 45 dd bb a2 7d c7 3c cd 6c ba bc
       0.022703651 -0.006752682 0.024351899 -0.022756958
0000b0 8d 46 c3 3b f3 70 2c bc 7c 96 64 3c 4d b8 df bc
       0.005959338 -0.010524976 0.013951894 -0.027309561
0000c0 33 26 99 bb 78 f0 c3 bc a0 53 ab 3b 63 aa 2e 3c
       -0.004673743 -0.023918375 0.0052284747 0.010660741
0000d0 21 b3 90 3b f6 b0 d3 3c 40 f4 8d bc 04 f8 13 3c
       0.004415885 0.025841217 -0.017328382 0.0090312995
0000e0 91 0a 44 3d 95 66 20 3c b1 05 56 bb 7e 31 c7 3c
       0.04786164 0.009790082 -0.00326572 0.024315592
0000f0 85 1d 61 bc a7 78 a6 bc 57 48 bf bc 51 9e e2 3c
       -0.013739948 -0.020321203 -0.023349924 0.027663382
000100 60 5c aa 39 ae 10 15 3d ca 32 ac 3c 39 7b c6 bc
       0.00032493751 0.03639286 0.021020312 -0.024228679
000110 62 4d ea 3c 8d c1 4f bc c5 08 6b bb 58 ae be 3b
       0.028601352 -0.012680423 -0.0035863381 0.0058191232
000120 8e af 98 3b 59 47 ad 3b 01 b1 52 3c d1 df 86 3b
       0.0046595996 0.0052880463 0.012859584 0.0041160365
000130 36 5e a6 3c 7e 34 06 bd 15 c1 00 bd 37 ef 21 bc
       0.020308595 -0.032764904 -0.031434137 -0.009883693
000140 dc 18 79 3c 4c 1f b6 38 f0 79 97 3c ee 69 b5 3c
       0.015203681 8.684266e-05 0.018490762 0.022145238
000150 95 d1 0c bd 6d 28 ee bc b7 b2 55 3b 5c c9 2f 3c
       -0.03437956 -0.02907201 0.0032607743 0.01072916
000160 99 75 b4 bc 05 7e 70 ba c4 36 93 3c 89 e3 62 39
       -0.022028731 -0.0009174052 0.01797045 0.00021637803
000170 04 77 8e 3c 20 45 06 3d 84 43 a4 3c bc 7c 57 bc
       0.017390735 0.032780766 0.020051725 -0.013152298
000180 7f a3 04 bd 3b f3 a1 bc c1 4a cf 3b 51 a9 18 bd
       -0.032382485 -0.019769302 0.00632605 -0.037270848
000190 ad 92 1a 3c f5 32 b6 bb 66 ee b6 bb 0d d5 37 bd
       0.009434384 -0.005560274 -0.0055826185 -0.044880915
0001a0 21 b0 a8 3a 6e 49 29 3a c2 af dd 3a 90 f0 25 bb
       0.0012869873 0.000645778 0.0016913342 -0.0025320388
0001b0 eb 91 8d 3c ba c2 85 3c ab ad 56 bc 6d da bd 3c
       0.017281493 0.016328204 -0.013102929 0.023175443
0001c0 25 79 fc bc db 06 14 3d 43 2e da 3c 30 ab 78 3c
       -0.030819485 0.03613935 0.026633387 0.015177533
0001d0 2e 60 1f bd 2a 5d 8d bc a7 fb 95 3c 85 c0 0f bd
       -0.038910083 -0.017256338 0.018308474 -0.03509571
0001e0 8e 72 45 bd 19 fa 1b 3c 8f f4 51 bd e0 1d 5d bd
       -0.04820495 0.009520077 -0.05125862 -0.05398357
0001f0 ef 5f 75 bc 6b 68 df 3b 95 53 c9 bb 01 ad 02 3b
       -0.014976486 0.0068178675 -0.006143997 0.0019939544
000200 6f 0c 5a 3c ac d5 5e 3c ab 8e 5b 3c 9a 7c b1 3c
       0.013308628 0.013600748 0.013400714 0.02166586
000210 d8 35 93 3c 44 b3 62 bc e3 af 16 bc 5e 41 9a 3c
       0.01797001 -0.013836686 -0.009197208 0.018829998
000220 65 fd a7 bc d1 83 bb 3c 40 65 19 bd 15 ae 97 bb
       -0.02050657 0.022890003 -0.037450075 -0.0046289065
000230 9a 6e cf bc 24 4b 26 bd 58 34 24 bd 7d be 55 bc
       -0.025321294 -0.040599003 -0.04008898 -0.013045904
000240 8e b4 cf 3c 47 45 a4 bc 31 42 5a bb 7d 96 86 bc
       0.02535465 -0.020052565 -0.0033303613 -0.01642918
000250 96 14 86 bc 69 3e 3f 3c 5b 3b 01 bb dc 57 dd bc
       -0.016367238 0.011672595 -0.0019719217 -0.027019434
000260 9e b2 1d bd 9d ea cb bc a6 4f f4 bc 80 26 df 3c
       -0.03850042 -0.024892146 -0.029823136 0.027240038
000270 81 41 03 3d 96 89 c6 bb d1 f0 47 bc d6 f5 eb 3c
       0.03204489 -0.006058882 -0.012203411 0.028803747
000280 03 e4 ad 3c 93 9e 83 3c 50 6d a2 bc ae ee e6 3c
       0.021226889 0.016066825 -0.019827515 0.028189983
000290 94 32 c1 3c c1 75 03 3d ca f8 17 3d 2a 0e 05 bc
       0.023583688 0.03209472 0.037102498 -0.008121053
0002a0 ae 20 34 bb e6 91 df bc 08 d6 c4 bc f6 be 93 3c
       -0.00274853 -0.02729125 -0.02402784 0.018035393
0002b0 1c 6c 63 3c 31 d6 02 bb fd 17 7d 3b 69 21 34 3c
       0.013880756 -0.0019964094 0.0038619034 0.010994294
0002c0 1b b2 fc bc d2 49 f7 3a 29 1a ba bc b9 84 95 3b
       -0.030846646 0.0018866605 -0.022717552 0.004562941
0002d0 f2 cf 79 3c 22 a1 f5 3c c7 35 35 bb 18 20 ba bc
       0.015247332 0.02998406 -0.0027650462 -0.022720382
0002e0 94 4f ec bb 26 8c 0b 3b 3a 20 04 3c d6 00 ad 3c
       -0.007211635 0.0021293252 0.008064324 0.021118563
0002f0 a9 2a 72 3c 1e 73 9d 3c a6 00 36 3b 9c 3a 09 3d
       0.014780679 0.019219931 0.0027771383 0.03350316
000300 11 77 cc 3c ab 46 f3 bb b8 ea 29 3c 2a b3 9c 3c
       0.024959119 -0.0074241958 0.010370903 0.0191284
000310 79 1a e2 3c 9c e0 3a 3d b6 1d b2 3c 4b 22 c8 bc
       0.027600514 0.04562436 0.021742683 -0.024430415
000320 a8 4f 3c bc 2d fd e0 3c 7e 4a 0d bc 54 00 dd bc
       -0.011493601 0.027464474 -0.008623717 -0.026977696
000330 19 db c4 bb 9b 92 69 3c 98 25 75 3b de f9 d0 bc
       -0.006007564 0.014256145 0.003740644 -0.025509771
000340 4a bb 51 3b c9 c0 22 bc f0 75 ab 3c e6 ad c0 bc
       0.0032002502 -0.009933659 0.02093026 -0.023520421
000350 e0 20 89 bc 7a fb d7 3c af f0 cd 3b ad b3 4c 3c
       -0.016739309 0.02636503 0.0062847952 0.01249401
000360 b4 ed 85 3c 3a 4e 48 bc 60 22 3f 3c 92 8c 97 bc
       0.016348697 -0.012225682 0.0116659105 -0.018499646
000370 03 4d 91 bb aa 94 fc bc e1 c2 32 bc 50 ad 08 3b
       -0.0044342293 -0.030832607 -0.010910721 0.0020855255
000380 33 ce 4d 3c 67 c3 52 3c 31 cd ea 3c 26 2c 98 3c
       0.012561369 0.01286397 0.028662296 0.01857574
000390 36 68 77 bc 97 9b e2 3c f9 8a f5 b9 9e e4 4d bb
       -0.015100529 0.027662082 -0.00046833584 -0.0031416784
0003a0 ff ef c1 bc b2 ce cd bb 27 12 bf 39 7f 18 fb 3c
       -0.02367401 -0.0062807435 0.00036443883 0.03065133
0003b0 f9 b4 58 3c d8 1e ed bc 70 1d dc bc 6e 30 a1 bc
       0.013226741 -0.028945372 -0.026869506 -0.019676413
0003c0 1a e4 99 3c e2 eb 2a 3c b1 8e eb bc 0e 06 8f bc
       0.018785525 0.010432215 -0.028754564 -0.017458942
0003d0 d2 00 de bc ec b8 a8 3c b2 7e 31 3c 98 61 42 3c
       -0.0271 0.02059599 0.010833429 0.0118640885
0003e0 da 1d 3d 3b 48 91 19 3a 57 f3 aa bc 03 ec bb bc
       0.0028856904 0.00058581354 -0.020867987 -0.022939688
0003f0 18 e4 03 3d e7 7d 92 bc bd c3 18 3d c9 a8 0c 3c
       0.03219995 -0.0178823 0.037296046 0.008585163

bias f4 [64]
000000 a5 5e fb 3c c2 99 32 3b 41 ae 29 3c a8 7d 76 3c
       0.030684778 0.0027252291 0.010356487 0.015044607
000010 97 71 1d 3d f7 24 a9 bc cd d7 65 3a af 7f 53 bc
       0.038438406 -0.020647509 0.00087678136 -0.01290886
000020 8e 40 ff bc 18 b8 87 3b 1f 1a 9e 3c d8 76 bc 3c
       -0.031158712 0.0041418187 0.019299565 0.023005888
000030 61 8f f8 3c d4 21 e9 bb f0 15 93 bc a5 b2 63 bd
       0.030341806 -0.0071146283 -0.017954797 -0.05559029
000040 5b 2e 01 bd c9 78 36 3d 07 c2 d9 3b 3b 42 71 bc
       -0.03153835 0.044548783 0.0066454443 -0.014725263
000050 7f 3e 2c bc 1d 62 55 bc e5 a7 a2 3c b7 ed 99 bc
       -0.010512947 -0.01302388 0.019855449 -0.01879011
000060 23 91 21 bb 7b f3 4e 3d de f5 31 bd 53 75 05 bd
       -0.0024653159 0.05052517 -0.043447368 -0.032582592
000070 e3 2f fc bc 02 79 0a 3d 13 d4 98 bc 74 99 98 bd
       -0.030784553 0.03380681 -0.018655812 -0.07451144
000080 44 6e 8e bc 5b 9e 2a bd 2f 65 85 bb e7 cf 8c bc
       -0.017386563 -0.041654926 -0.0040709 -0.01718898
000090 22 7f 7d bd 1a 5a b6 bb 86 c1 00 3d 6d 1b 24 ba
       -0.06188882 -0.00556494 0.03143456 -0.000626019
0000a0 a3 8f 3b 3c 79 f3 ed bc 92 6e 20 bd a2 22 15 3d
       0.01144782 -0.02904676 -0.039167948 0.03640998
0000b0 d1 86 22 bc 72 4e e4 bc 44 f1 ec bc 08 cd ae bc
       -0.009919838 -0.027869437 -0.028923638 -0.021338
0000c0 23 5f 13 3d f9 00 8e 3b 36 80 2b 3c 5f 12 7e 3b
       0.0359794 0.004333612 0.01046758 0.0038768274
0000d0 22 b6 f0 3c 3c 0c 54 bb fe b9 21 3d 39 f3 b0 3c
       0.029383723 -0.0032355925 0.039484017 0.021600353
0000e0 d6 43 6e 3d cf 07 3b bc af 8d 13 3c f2 73 b8 bb
       0.058170162 -0.011415436 0.009005948 -0.005629056
0000f0 3c 3f 4e bc c7 fe ea bc 7f 4a 81 bc 39 4b e4 3c
       -0.012588318 -0.02868594 -0.015782593 0.0278679

weight f4 [10, 64]
000000 eb 04 81 bd 29 e4 0c 3e a6 9c 63 bd 24 81 5c 3d
       -0.06299766 0.13758911 -0.055569313 0.053834096
000010 cc d1 71 3d 53 6c 06 bd 54 13 cf 3d f3 ad ec 3d
       0.05903797 -0.03281815 0.101111084 0.11556616
000020 42 92 87 3d 32 e2 91 3d 0a 69 61 be 4b c3 0d 3e
       0.06619693 0.071232215 -0.22012725 0.1384403
000030 7e 8a fa bc 61 ae 1a 3e ad b6 fd 3a 2d 40 ae bd
       -0.030583616 0.15105583 0.001935681 -0.08508334
000040 c3 89 da bd 1a 7e 51 bd 69 67 67 bd ad b5 f6 3d
       -0.10670807 -0.05114565 -0.056495104 0.12046371
000050 a4 4d ea 3d 1f 3f 26 3e 8b 1f c4 3b 9f 84 a8 3d
       0.1144059 0.16235016 0.0059852055 0.082284205
000060 af d3 26 bd aa d0 94 bd 78 83 ef 3d 2c 91 8c 3d
       -0.04072922 -0.07266362 0.116949975 0.06863627
000070 d5 01 0a 3e 15 71 c6 bb 25 78 bc 3d 68 f4 14 3e
       0.13477261 -0.006055961 0.09202603 0.14546359
000080 cc e9 87 3d bc f1 43 3e 67 a3 90 3d 48 ab 48 3d
       0.0663639 0.19135183 0.070624165 0.04899147
000090 1d a7 c7 3d 54 ed f9 bd 60 e9 4b be ea 74 51 be
       0.09748671 -0.1220347 -0.19913244 -0.20454755
0000a0 bf 04 9e 3d 6b 79 68 3c 9d 81 70 bd af a0 cd bd
       0.07715749 0.014189105 -0.05871736 -0.100404136
0000b0 5b 0b ed bc a5 62 eb 3d 2a ab fe 3d 7f c6 10 3e
       -0.028936079 0.11493424 0.12434991 0.1413822
0000c0 3b 81 e2 bd 55 1c 1e be a2 f3 db bd a1 a1 8f 3d
       -0.11059805 -0.15440495 -0.10739829 0.0701325
0000d0 67 08 e9 bd 59 31 0f be 63 6c 93 bc 84 33 1f be
       -0.11378556 -0.13983668 -0.017996019 -0.15546995
0000e0 f5 80 77 bd 60 df 49 3e b9 23 93 3c 9b 26 ca bd
       -0.060425717 0.19714117 0.01796137 -0.09870645
0000f0 1c f2 0b be 53 ba d6 3d f5 84 74 3d 42 e7 ff bd
       -0.13666576 0.10484757 0.05969711 -0.12495281
000100 61 ae 46 bd b8 27 ed bb b1 17 0e bc 18 f5 60 be
       -0.048506144 -0.007237401 -0.008672641 -0.21968496
000110 8c be 98 3d 0b 6a 8f 3d d1 27 3d bd a7 09 b8 3d
       0.07458219 0.07002648 -0.04618055 0.08986216
000120 29 ef 3d be 38 6c 1d be 96 9c 91 bd 87 89 3a be
       -0.18548264 -0.15373313 -0.071099445 -0.18216525
000130 43 45 b6 bd 65 1d 34 3d 72 f7 9d bc 6c 61 dd 3a
       -0.088999294 0.043973345 -0.01928303 0.0016889996
000140 86 2c 47 be 88 7d 75 bd 27 08 11 be be c8 a5 3d
       -0.19450578 -0.05993417 -0.14163266 0.08094929
000150 b1 a0 89 3e 99 57 ae 3a 51 62 9a bd 2d e3 65 3e
       0.2688041 0.0013301253 -0.075382836 0.22449942
000160 6d 4d 18 bd fc 2b 21 3e 20 cd 38 be 1a 3b 40 be
       -0.037183214 0.15739435 -0.18046999 -0.18772545
000170 bb 2e 81 3e 67 2e 64 bd fb c8 8a bd db 0e 33 be
       0.25230965 -0.055708315 -0.06776615 -0.17486136
000180 2a 8b 0d be 74 12 d6 bd 84 46 dc bd 8c 59 0f be
       -0.13822618 -0.104527384 -0.10755637 -0.13999003
000190 aa 0b 86 bd 17 62 e5 bd 32 bb f8 bd 8f a8 3b be
       -0.065451935 -0.1120035 -0.1214508 -0.18326019
0001a0 0f 9c f8 bd 53 46 7d bd 64 db 57 be 83 df 56 bd
       -0.12139141 -0.061834645 -0.21079785 -0.05245925
0001b0 13 00 22 be 14 61 88 3e 03 05 a2 bd c6 45 9a bd
       -0.15820341 0.26636565 -0.07911112 -0.075328395
0001c0 22 35 03 3d 35 f9 41 3e 02 2d 11 be 81 ca 9f bd
       0.032033093 0.18942721 -0.14177325 -0.078022964
0001d0 45 36 62 be 3f 61 60 3e f7 cc 40 be e0 c6 5a bd
       -0.22091015 0.21912096 -0.18828188 -0.05341232
0001e0 f9 92 1b 3e 64 ba 2d 3d d9 04 ed 3c c6 b1 3a 3e
       0.15192784 0.042414084 0.028932976 0.18231878
0001f0 63 a5 2c 3e 4e de 0e be fa a5 19 be 1a 02 b3 bc
       0.16859965 -0.1395199 -0.15004721 -0.021851588
000200 1b 5b c5 3d 30 fc 19 be 93 42 c4 3d e7 8d 16 ba
       0.096365176 -0.15037608 0.095830105 -0.0005743191
000210 9f e7 cd 3d 78 58 c7 3d 9d 70 4a be 96 ed 40 bd
       0.10053944 0.09733671 -0.19769521 -0.04710158
000220 c3 d1 1d 3e 37 be ce 3d 28 b2 14 3d 49 98 48 3c
       0.15412049 0.10094874 0.036302716 0.012243339
000230 71 5f 69 bd 09 61 21 3e 90 72 0d be b7 e3 0b be
       -0.056975786 0.15759672 -0.13813233 -0.13661085
000240 7f 1d 89 bd 71 e2 ad 3d c9 93 c8 3d 3b f7 dd bd
       -0.06695079 0.08490456 0.09793813 -0.10838171
000250 51 ca 46 3d d9 df 63 bd 66 d3 ee 3d c4 c3 f9 3d
       0.048532788 -0.0556334 0.11661415 0.121955425
000260 72 1c ac 3d 26 f9 a5 bd 47 ce 2d be f4 73 6d 3d
       0.08403863 -0.08104162 -0.1697322 0.05797191
000270 d4 85 0c 3d 8f f2 12 3c c0 31 39 3e da c2 2f 3d
       0.034307316 0.008968963 0.18085384 0.042910434
000280 c8 da 14 3e 52 b7 1c bd 13 be 9b bd 37 a5 6b 3b
       0.14536583 -0.038260765 -0.07604613 0.003595663
000290 cf f3 bf 3d 3c 3c e3 bd 26 74 db 3d 2f da 01 3e
       0.09372675 -0.11095473 0.10715513 0.12680887
0002a0 df e8 af bd 1c 09 01 be 72 ca aa 3d ef 6e c2 bd
       -0.085893385 -0.12601131 0.08339395 -0.09493815
0002b0 ee 6e 2f be 19 0b 12 3d 60 56 e0 bc 4a 5e 9c 3d
       -0.1713216 0.035655115 -0.027384937 0.07635172
0002c0 17 b8 fb 3d 2c 60 24 be a6 f0 00 3d 8f dd 47 3c
       0.12290972 -0.16052312 0.0314795 0.01219882
0002d0 2e 40 7e 3c fa 5c 84 be 93 e4 e3 3d 1c 4f b2 bd
       0.015518231 -0.25852185 0.111275814 -0.08706495
0002e0 02 9d 68 3d 12 ee ac 3d a0 71 dd bc 71 6c e9 bd
       0.05679036 0.08443846 -0.02703172 -0.11397637
0002f0 9e b7 b4 bd c3 7a ff bb b7 6f d4 3d 44 be 9d 3d
       -0.08824085 -0.0077966168 0.103728704 0.07702306
000300 aa bc 48 3d 0d b7 01 be ce fe 1c be 02 56 05 3e
       0.04900805 -0.12667485 -0.15331575 0.1302109
000310 45 62 04 3e 17 fb e7 3d 36 e4 32 be 09 dc d1 bd
       0.12928112 0.113271885 -0.17469868 -0.102470465
000320 01 3b 4b 3e ce 09 34 3e e0 77 24 bd 31 d2 87 bc
       0.19846727 0.17581865 -0.040153384 -0.01657972
000330 65 69 17 3d 25 b4 04 3d 2e 79 c2 bd 3b d4 21 bd
       0.036965746 0.03239836 -0.094957694 -0.03950904
000340 2e 44 05 3d 03 af 3f bb 6b 2d 2e 3d 8b 13 12 be
       0.032535724 -0.0029248602 0.042523783 -0.14265268
000350 27 da 8a 3c fb 83 4d ba c9 61 c9 bd 5c d7 0c be
       0.016949726 -0.0007839796 -0.09833104 -0.13754028
000360 d1 6b 8b bd 2e ed 08 be 70 de 2a bd 69 0e 3e bd
       -0.06807674 -0.13371727 -0.04171604 -0.04640046
000370 64 26 19 be 22 47 06 3d f1 b3 28 bd 5d a9 d1 bd
       -0.14956051 0.03278268 -0.04118723 -0.102373816
000380 c2 b2 22 be 79 40 c1 bd 69 c7 c9 3d d6 d0 c8 bd
       -0.15888503 -0.09436125 0.098524876 -0.09805457
000390 c3 6f cd bd 42 9c c9 3d e8 ca bb 3c 35 cc 94 bd
       -0.100310825 0.09844257 0.022923902 -0.07265512
0003a0 3a 5b b4 3d b3 4c b5 3c 07 a5 ac bd 6d be d1 3d
       0.088064626 0.0221313 -0.08429914 0.10241399
0003b0 c0 f6 b6 bd 4a 68 6e bc fe 6c 0b be bb d4 f4 3a
       -0.089337826 -0.014551232 -0.13615796 0.0018679121
0003c0 6e 39 18 3e f4 77 22 3d 60 37 ea 3d d4 09 50 3d
       0.14865658 0.039665177 0.11436343 0.050790623
0003d0 37 20 60 3d 53 44 e9 bd 47 2d 41 bd d5 0f 8b 3d
       0.054718222 -0.11389985 -0.04716232 0.06790129
0003e0 26 f6 19 3d c3 07 53 3b ea 83 aa 3d 6b d0 fa 3d
       0.03758826 0.0032200671 0.08325942 0.12246784
0003f0 42 69 9b 3c 41 1f 4e 3d 51 95 eb 3d 59 1b 6f 3d
       0.01897109 0.050322775 0.11503089 0.05837569

bias f4 [10]
000000 ad ab 3c be 98 da c3 bd 40 07 e4 bb 43 a5 5b bd
       -0.18424864 -0.09563178 -0.006958872 -0.053624403
000010 83 18 90 ba 3a e5 03 be 3e e1 e6 3c c2 3c e5 bd
       -0.0010993633 -0.12880412 0.028183576 -0.11193229
000020 9b 9e 35 bd 52 45 9f bc
       -0.04434071 -0.019442234
