tudui_4.pth (torch, 588600 bytes, 10 tensors)

weight f4 [32, 3, 5, 5]
0	0xbd96ee74	-0.073697
1	0x3dc99a49	0.09843881
2	0x3d4677f6	0.048454247
3	0x3da15791	0.0787803
4	0x3b258e8c	0.0025261967
5	0x3c942126	0.018082213
6	0x3cc12d4f	0.023581175
7	0xbd8b8010	-0.06811535
8	0x3df6584a	0.120285586
9	0xbd82be84	-0.06383994
10	0x3da2c472	0.07947625
11	0x3da2b71f	0.07945084
12	0x3dde4deb	0.108547054
13	0xbd84158c	-0.06449422
14	0x3d37b3c4	0.044849172
15	0xbb69daa1	-0.0035683291
16	0xbdc27290	-0.09494507
17	0x3dcde0d9	0.10052652
18	0x3da5839d	0.08081744
19	0xbdbaed23	-0.091272615
20	0xbd82abad	-0.06380401
21	0xbe09ddbb	-0.1346349
22	0xbe0c9925	-0.13730295
23	0x3ce622a4	0.02809269
24	0xbdf4f667	-0.1196106
25	0x3db324a2	0.087472215
26	0xbd51c6ad	-0.051214863
27	0x3df419bc	0.11918971
28	0x3e0b6b02	0.13615039
29	0xbd2cba2f	-0.042169746
30	0xbd4feaee	-0.050761156
31	0x39eae930	0.00044805696
32	0x3da85d00	0.08220863
33	0xbdb5b9f5	-0.08873359
34	0x3be7e059	0.007076305
35	0xbd92f077	-0.07174771
36	0xbc8753d4	-0.016519465
37	0x3da6eed2	0.0815102
38	0xbd34878a	-0.044074573
39	0xbd638fb2	-0.05555696
40	0xbd9125b7	-0.07087272
41	0x3d46f21d	0.04857074
42	0xbe02c480	-0.12770271
43	0x3d455c0b	0.048183482
44	0xbcd6b2d5	-0.02620832
45	0xbd340b01	-0.043955807
46	0xbc3d8e2c	-0.011569541
47	0x3d6f0edb	0.058363777
48	0xbdbd2621	-0.09235788
49	0xbad2b5de	-0.0016075929
50	0x3d19b621	0.037527207
51	0x3d766254	0.060152367
52	0x3dfd5a9c	0.12370798
53	0x3d787061	0.060654048
54	0x3e01cc38	0.1267556
55	0xbd73e710	-0.05954653
56	0xbd2f5588	-0.04280618
57	0xbda987af	-0.08277833
58	0x3df21b26	0.118215844
59	0x3cb75f90	0.022384435
60	0xbddcf269	-0.107884236
61	0xbcf14b7f	-0.029454945
62	0x3d114a2c	0.035471126
63	0x3cb0c32d	0.021577442
64	0x3d894f08	0.06704527
65	0x3dd1010f	0.1020528
66	0xbdb372eb	-0.08762153
67	0xbde553f5	-0.11197654
68	0x3da0576d	0.07829175
69	0x3ce3eb9d	0.02782231
70	0xbd3910ca	-0.045182027
71	0xbdec8835	-0.11549417
72	0x3c967924	0.018368311
73	0xbdf3d9a5	-0.11906747
74	0xbda13416	-0.07871263
75	0xbd39915e	-0.04530465
76	0x3db88011	0.09008802
77	0x3e08d811	0.13363673
78	0x3d91b51b	0.07114621
79	0x3d5ad9e6	0.05343046
80	0x3d0bba74	0.034113362
81	0x3e400bec	0.18754548
82	0x3df6ef5e	0.120573744
83	0x3e1b084a	0.15139881
84	0x3e0c8388	0.1372205
85	0xbb2799db	-0.0025573883
86	0x3e1b117b	0.15143387
87	0x3dcc91ee	0.099887714
88	0x3db46980	0.08809185
89	0x3dc06430	0.09394109
90	0x3cd6bb2f	0.026212303
91	0x3d266d7b	0.040631752
92	0x3d3b82f4	0.045779184
93	0xbdb3baa5	-0.08775834
94	0xbd407f0c	-0.04699616
95	0xba9e2305	-0.001206488
96	0xbcd3f27d	-0.025872463
97	0xbd6724f8	-0.05643174
98	0xbd83c6ac	-0.06434378
99	0xbdcc9aa9	-0.099904366
100	0xbdb4db51	-0.08830894
101	0xbda361b3	-0.07977619
102	0xbd9dc2a6	-0.07703142
103	0xbdec2c13	-0.11531844
104	0xbd682ff8	-0.05668637
105	0xbd830b40	-0.0639863
106	0xbd436f55	-0.047713596
107	0x3d4ea1b8	0.050447196
108	0x3dad21a9	0.08453686
109	0x3dc9f3fd	0.0986099
110	0x3dab225d	0.08356164
111	0x3cf04493	0.029329574
112	0x3d6b3167	0.05742016
113	0xbc9124df	-0.017717777
114	0x3da72fdc	0.08163425
115	0xbdf110c7	-0.11770778
116	0xbe2b2a11	-0.16715266
117	0x3c965dc4	0.018355258
118	0xbda672bf	-0.08127355
119	0xbb5a0974	-0.0033269795
120	0xbc4787fd	-0.012178418
121	0xbe2d5277	-0.16925989
122	0xbdc2b18e	-0.09506522
123	0xbd829365	-0.063757695
124	0xbe006dc4	-0.12541872
125	0xbcbb0348	-0.022828713
126	0xbc96f4a0	-0.018427193
127	0xbde0f08e	-0.10983382
128	0x3ca860f9	0.020554053
129	0xbe09a371	-0.13441254
130	0xbcd62c2c	-0.02614411
131	0x3da65f9e	0.08123706
132	0xbd9d9bc4	-0.076957256
133	0x3d8ed010	0.069732785
134	0x3df121fd	0.11774061
135	0xbc0a3888	-0.00843633
136	0x3de64e4f	0.11245405
137	0x3df78925	0.12086705
138	0x3b815018	0.0039463155
139	0x3df62360	0.12018466
140	0xbe0a9dee	-0.13536808
141	0xbe0bb63f	-0.1364374
142	0xbdcd6786	-0.10029511
143	0xbd5ea1d6	-0.054353558
144	0xbd974574	-0.07386294
145	0xbcebafab	-0.028770288
146	0xbdd45d35	-0.1036934
147	0xbb64e964	-0.003492915
148	0xbce5c66b	-0.028048715
149	0x3c41aa38	0.0118203685
150	0x3daa6b7f	0.083212845
151	0xbd545573	-0.051839303
152	0x3dbce6bd	0.09223697
153	0x3d33f492	0.043934412
154	0xbd1d811a	-0.0384532
155	0xbdd300aa	-0.10302861
156	0xbd8b4d74	-0.068018824
157	0xbd827dd8	-0.06371659
158	0x3d9b28e0	0.07576156
159	0x3d457af1	0.04821295
160	0xbc29312e	-0.010326667
161	0x3d808b66	0.06276588
162	0xbdd0bf4e	-0.101927385
163	0xbded7b38	-0.11595768
164	0xbd25e691	-0.04050309
165	0xbe0403dd	-0.12892099
166	0x3d405b4a	0.04696206
167	0xbd8e04d1	-0.069345124
168	0xbd8462e3	-0.06464174
169	0x3cc42880	0.023945093
170	0xbdc6a539	-0.096994825
171	0xbc8d4564	-0.017245002
172	0x3d215c5d	0.039394725
173	0x3d9ccca1	0.07656217
174	0x3ce9c927	0.0285383
175	0xba6a6e76	-0.00089428516
176	0xbd20c5f0	-0.039251268
177	0x3d6b8672	0.057501264
178	0xbb81399c	-0.003943635
179	0xbd8a8a7d	-0.06764696
180	0x3d735c0e	0.059413962
181	0x3c145a6b	0.00905476
182	0xbdb2361e	-0.08701728
183	0x3c6bf8c4	0.014402572
184	0x3cd9a8a1	0.026569666
185	0x3c04a6df	0.008096426
186	0x3d32fac7	0.04369619
187	0xbd2d1e5f	-0.042265292
188	0x3cb8b3fa	0.022546757
189	0xbdcc9431	-0.09989203
190	0x3d6abb68	0.05730763
191	0x3c86416a	0.016388614
192	0xbd029dcc	-0.031888768
193	0x3ba07c13	0.0048976033
194	0xbe0a6222	-0.13513997
195	0xbda51319	-0.08060283
196	0xbde71fe9	-0.11285383
197	0xbe18ed9d	-0.14934392
198	0xbcc65038	-0.024208173
199	0xbdde3630	-0.10850179
200	0x3d8380e1	0.06421066
201	0xbd0af0f6	-0.033921205
202	0xbc3e739d	-0.011624244
203	0x3ddce942	0.10786678
204	0x3e1b59f8	0.15171039
205	0x3dddfc5e	0.10839151
206	0x3e1d8fdc	0.15386909
207	0x3e2a5fae	0.16638061
208	0x3d0479a2	0.03234256
209	0x3c967026	0.018364023
210	0xbd88b62c	-0.066753715
211	0x3dc718f9	0.0972156
212	0x3da34c4f	0.07973539
213	0x3d6ff044	0.058578745
214	0xbd9e4ded	-0.07729707
215	0x3db0fb9d	0.086417414
216	0x3d59cbfd	0.053173054
217	0x3d869ddb	0.06573077
218	0x3df46d72	0.119349375
219	0x3df3d2c8	0.11905438
220	0xbc89bb2d	-0.016812885
221	0x3c9a23b6	0.018815856
222	0xbd630ed7	-0.055434074
223	0x3c5918e2	0.013250561
224	0x3d8ab4c1	0.06772757
225	0xbd792504	-0.060826316
226	0x3ca68fc7	0.02033223
227	0x3e112b6e	0.14176723
228	0x3c9c92ac	0.019112907
229	0x3c39b30c	0.011334192
230	0x3c19d95b	0.0093902005
231	0x3da949c0	0.0826602
232	0xbdbc0341	-0.09180308
233	0x3d234027	0.039856102
234	0xbd8bb208	-0.06821066
235	0xbe02bfdf	-0.12768506
236	0xbb60734c	-0.003424841
237	0xbdd75184	-0.10513595
238	0x3d900823	0.07032802
239	0xbd0f9537	-0.03505441
240	0xbdd0e734	-0.102003485
241	0xbd9cb0e3	-0.07650926
242	0xbd6cc38f	-0.057803687
243	0x3ce14e02	0.027503017
244	0xbb8f1dc4	-0.004367562
245	0xbabeba39	-0.0014551348
246	0xbd736b17	-0.0594283
247	0xbd257304	-0.04039289
248	0xbe0ceffe	-0.13763425
249	0xbe0cc92c	-0.13748616
250	0x3d324efb	0.043532353
251	0x3cd816d1	0.026378067
252	0xbda2d5e2	-0.07950951
253	0xbcdd0722	-0.02698094
254	0x3d766f1a	0.06016455
255	0xbd485f56	-0.048919044

bias f4 [32]
0	0xbdcf1b4a	-0.10112627
1	0xbcd01a3d	-0.025403136
2	0xbdd3f97d	-0.103503205
3	0x3d19c1e9	0.037538443
4	0xbdad9771	-0.08476151
5	0x3e24adbb	0.16081898
6	0x3e0f4d72	0.13994387
7	0xbe596562	-0.2123008
8	0x3da62835	0.08113138
9	0x3c679b8e	0.014136208
10	0xbc03587a	-0.0080167
11	0x3d9af08a	0.075654104
12	0xbeaa65f0	-0.33280897
13	0x3e4d8c37	0.20073019
14	0xbdb42bbe	-0.08797406
15	0xbe98d6f6	-0.29851502
16	0xbac099bc	-0.0014694254
17	0xbd62dcca	-0.055386342
18	0x3e625963	0.22104411
19	0x3c277891	0.010221616
20	0xbd458f0c	-0.048232123
21	0xbe1f9783	-0.15585141
22	0xbc23d5ff	-0.009999751
23	0x3cd58637	0.026064975
24	0x3c16fcc0	0.009215534
25	0x3ca5672e	0.020190801
26	0xbd6385fe	-0.055547707
27	0xbc62b4cc	-0.013837051
28	0x3e2a0b54	0.16605884
29	0xbd2e02c1	-0.042483095
30	0xbde6fd92	-0.112788334
31	0xbc514989	-0.01277388

weight f4 [32, 32, 5, 5]
0	0x3cd200b4	0.0256351
1	0xbc23dd37	-0.010001472
2	0xb933bc2f	-0.00017140874
3	0xbce08b80	-0.027410269
4	0x3cb3ac37	0.021932704
5	0x3d0d971c	0.034567937
6	0xbd0c2235	-0.03421231
7	0xbd057a49	-0.032587323
8	0xbce9f7b6	-0.0285605
9	0xbbc6da59	-0.0060685095
10	0xbcd0bca7	-0.025480581
11	0x3c1e15e9	0.0096487785
12	0xbcea14aa	-0.028574307
13	0x3c882b99	0.016622351
14	0xbc659efd	-0.014014957
15	0xbcab94ea	-0.020945031
16	0x3a2ac6f6	0.0006514633
17	0x3d011470	0.03151363
18	0xbcb447f7	-0.022006972
19	0xbcdcb109	-0.026939886
20	0x3cde87ba	0.027164329
21	0xbca83cb9	-0.020536767
22	0x3d0c637e	0.03427457
23	0xbc213cea	-0.009841183
24	0xbc843cd0	-0.016142279
25	0xbd0fdfc5	-0.035125513
26	0xbd052889	-0.03250936
27	0x3ba116a4	0.004916029
28	0x3c567276	0.013088813
29	0x3cb2875c	0.02179306
30	0xbcc57849	-0.024105208
31	0x3ce712eb	0.028207263
32	0x3c2e452d	0.01063661
33	0x3cce745f	0.025201974
34	0xbd03d54d	-0.03218584
35	0x3c3dc73c	0.011583146
36	0xbce896b3	-0.028392171
37	0xbb43926e	-0.0029841918
38	0x3cc7c80a	0.024387378
39	0xbd00ad22	-0.031415112
40	0xbc578e7a	-0.013156528
41	0x3c60e67a	0.013726825
42	0x3cd9c096	0.02658109
43	0x3c97ea30	0.018544286
44	0x3ce5df16	0.028060477
45	0x3c61b348	0.013775654
46	0xbc25cea7	-0.010120071
47	0xbbb04695	-0.005379508
48	0x3c597166	0.013271665
49	0x3ab475d4	0.0013768026
50	0xbcf126aa	-0.029437382
51	0xbcbbde79	-0.022933232
52	0xbc8d372d	-0.017238224
53	0xb94954c8	-0.00019200437
54	0x3bb6c17c	0.0055772644
55	0xbcb3bebf	-0.02194154
56	0xbcbe643e	-0.023241159
57	0x3c5e75e9	0.013577917
58	0xbcce9d95	-0.025221625
59	0x3bb780e0	0.00560008
60	0xbc3890ea	-0.011265019
61	0xbc51b7dc	-0.012800183
62	0xbd09080a	-0.033454932
63	0xbd21e952	-0.039529152
64	0xbcfb1bf0	-0.03065297
65	0xbd129b68	-0.03579274
66	0xbd0f6dd8	-0.035016865
67	0x39ef4930	0.0004564016
68	0x3aca4af6	0.0015433717
69	0xbcfc9b71	-0.030835839
70	0xbc4f39b5	-0.012648036
71	0x3b23627c	0.0024930527
72	0x3bc11a03	0.0058929934
73	0x3cad1927	0.021130158
74	0x3d0ec24b	0.03485326
75	0x3c8374ac	0.016046844
76	0x3b45f8b6	0.0030208058
77	0xbcfd72c6	-0.030938517
78	0xbcca1350	-0.024667412
79	0xbd00d415	-0.031452257
80	0xbcec8585	-0.02887226
81	0x3cc5905b	0.024116686
82	0x3c297409	0.010342606
83	0xbc9a62a6	-0.018845867
84	0xbcedc4b4	-0.02902446
85	0xbc20aa30	-0.009806201
86	0xbc9ee760	-0.019397438
87	0xbc52f284	-0.012875203
88	0xbd1c9e5e	-0.03823697
89	0xbcd549c9	-0.02603616
90	0xbcd9f67a	-0.026606787
91	0xbd15f023	-0.036605965
92	0x3c0b8722	0.008516105
93	0x3c487b39	0.01223641
94	0x3b4354b7	0.0029805133
95	0xbc43fffe	-0.011962889
96	0x3ce2e04e	0.027694847
97	0xbc6bc8be	-0.014391122
98	0xbcafbb43	-0.021451598
99	0x3bf4ee55	0.0074747005
100	0xbbc516c1	-0.0060146754
101	0x3d079c5d	0.033108104
102	0xbcb19104	-0.021675594
103	0xbcd35565	-0.025797555
104	0x3cefdd46	0.029280316
105	0x3c492507	0.012276894
106	0x3c00b8b7	0.007856539
107	0x3ca8301e	0.020530757
108	0xbc13e76d	-0.009027344
109	0x3c53ce64	0.012927625
110	0x3adb94d6	0.0016752731
111	0xbc0b746b	-0.008511643
112	0xbc9f9d68	-0.019484237
113	0x3cc674f9	0.024225699
114	0xbafe3b5b	-0.0019396351
115	0x3c78bed7	0.0151822185
116	0x3d098c23	0.03358091
117	0x3bbc668a	0.0057495283
118	0xbcf78642	-0.030215386
119	0x3cb64e1e	0.022254046
120	0x3d237d63	0.0399145
121	0xbca789cd	-0.02045145
122	0x3cfba845	0.030719886
123	0x3d0b6ff4	0.034042314
124	0x3cd8d185	0.026467094
125	0x3c18f474	0.009335626
126	0xbca25a60	-0.019818485
127	0xbd0e7432	-0.03477878
128	0xbc7f9d58	-0.0156014785
129	0x3c267895	0.010160585
130	0x3cbdd6ae	0.023173656
131	0xbce5aed4	-0.028037466
132	0xbb8dac54	-0.0043235216
133	0xbc51a3c6	-0.012795394
134	0xba34ffdc	-0.0006904581
135	0xbd0e4507	-0.0347338
136	0x3ca79255	0.020455519
137	0xbbe99448	-0.007128272
138	0xbc06465f	-0.008195489
139	0x3c1838b8	0.009290867
140	0xbce70be3	-0.02820391
141	0x3c03aa28	0.008036174
142	0x3cb44255	0.022004286
143	0x3c2a52f7	0.010395757
144	0xbc8ff273	-0.017571663
145	0x3cf74a74	0.03018687
146	0x3cb91b41	0.022596003
147	0x3d422d71	0.047406618
148	0x3c0b4db5	0.0085024135
149	0x3b1de9ca	0.0024095648
150	0xbc456a8c	-0.012049329
151	0xbcb4581e	-0.022014674
152	0x3cd40e1a	0.02588563
153	0x3ae90303	0.0017777387
154	0x3ccdf3e8	0.025140718
155	0x3ca1d36b	0.019754132
156	0xbd0e5586	-0.03474953
157	0x3c999eb1	0.018752428
158	0xbd0229d6	-0.03177818
159	0xbcca5f9e	-0.024703797
160	0x3cc4eed2	0.02403966
161	0xbd2b1fdc	-0.04177843
162	0xbcdd83a2	-0.027040306
163	0x3cc66ddf	0.024222312
164	0xbb10cc97	-0.0022094601
165	0xbc2e5616	-0.010640642
166	0xbc979c52	-0.018507157
167	0xbd2ef7e7	-0.042716887
168	0xbc19980c	-0.00937463
169	0x3c0352f0	0.008015379
170	0xbca6aa30	-0.020344824
171	0xbb933a95	-0.0044930675
172	0xbd1a36ef	-0.037650045
173	0x3c18b0f6	0.0093195345
174	0xbce53d22	-0.027983252
175	0x3add5158	0.0016885204
176	0xbc48de59	-0.012260043
177	0xbce6190b	-0.028088113
178	0x3cd20577	0.025637371
179	0x3cdcf991	0.026974471
180	0xbc98e361	-0.01866311
181	0xbc060f29	-0.008182325
182	0x3d048ce9	0.032360945
183	0x3c8570ad	0.01628908
184	0xbb5dd097	-0.0033846253
185	0xbcb5e9d4	-0.022206225
186	0xbca46d0e	-0.020071533
187	0xbcb4e961	-0.02208394
188	0x3bee4b07	0.0072721276
189	0x3cfc32a3	0.030785864
190	0xbceb0a25	-0.02869136
191	0xbd0f9be7	-0.03506079
192	0x3cfa1143	0.03052581
193	0xbc9ce8ee	-0.019154038
194	0x3cdf6e05	0.027274141
195	0xbd039104	-0.03212072
196	0xbd137923	-0.036004197
197	0x3c710f4f	0.0147131225
198	0xbc2111d5	-0.009830912
199	0x3cc0b2ef	0.023522822
200	0x3c592c95	0.013255258
201	0xba9c355d	-0.0011917759
202	0x3bdfced1	0.0068300744
203	0xbcf2768f	-0.029597549
204	0xbce72fc4	-0.028221019
205	0xbcafc4c1	-0.021456124
206	0xbbb1c982	-0.005425633
207	0x3cb6931f	0.02228695
208	0x3c9158f1	0.017742606
209	0xbcc439d0	-0.023953348
210	0xbca6a988	-0.02034451
211	0x3b0128af	0.0019708087
212	0x3b5bfed5	0.003356864
213	0xbcb73dac	-0.022368275
214	0xbcc18c2c	-0.02362641
215	0x3c8cd261	0.01719016
216	0x3c540e6e	0.012942893
217	0xbb9c9cc8	-0.004779432
218	0xbcfc44e0	-0.03079456
219	0x3ba21291	0.004946061
220	0x3caa0689	0.02075507
221	0x3cd25628	0.025675848
222	0xbcca00be	-0.024658557
223	0xbc27f239	-0.0102506215
224	0x3cee0b69	0.029058175
225	0xbc55a250	-0.013039187
226	0x3cea79de	0.028622564
227	0x3c421fe1	0.011848421
228	0xbc883075	-0.016624669
229	0xbc998fff	-0.01874542
230	0xbc07862f	-0.008271738
231	0x3a988f12	0.0011639318
232	0xbc8dda4b	-0.017316004
233	0xbc51d660	-0.012807459
234	0xbc0441f4	-0.008072365
235	0xbcc31202	-0.023812298
236	0xbc1e814c	-0.009674381
237	0x3b99c7fc	0.0046930294
238	0xbd27b06f	-0.040939745
239	0xbc47f7b8	-0.012205057
240	0xbca12ddb	-0.019675186
241	0xbc12d558	-0.008961998
242	0x3c0c3eec	0.008559924
243	0x3c8a17ee	0.016857114
244	0xbca12893	-0.019672668
245	0x3b408acc	0.0029379604
246	0x3b938d8e	0.0045029586
247	0x3cb80a8d	0.022465969
248	0x3cad3937	0.021145446
249	0x3bb206ff	0.005432963
250	0xbc7e02a0	-0.015503556
251	0xbcdf48de	-0.027256425
252	0x3cb29fac	0.021804653
253	0xbd18ac36	-0.03727361
254	0xbc4ad8ce	-0.012380792
255	0xbcdc680d	-0.026905084

bias f4 [32]
0	0xbd60b949	-0.0548642
1	0xbcbf960b	-0.023386976
2	0x3d662c62	0.05619467
3	0xbd5e202e	-0.054229908
4	0x3d78d5b5	0.060750682
5	0x3d3b1967	0.045678522
6	0xbb417f6b	-0.002952541
7	0x3c8f9f86	0.017532121
8	0x3cb59e9d	0.02217036
9	0xbd8af5ce	-0.06785165
10	0xbd90930f	-0.07059299
11	0xbd951bc8	-0.072806895
12	0xbd107595	-0.035268385
13	0xbd548d7a	-0.051892735
14	0x3cb4f159	0.02208774
15	0xbda26e76	-0.07931225
16	0xbbadebdf	-0.005307659
17	0xbd636a5a	-0.055521347
18	0x3d866c95	0.06563679
19	0xbd2852aa	-0.04109446
20	0xbca47cdd	-0.02007907
21	0xbd505aa4	-0.05086769
22	0xbdb5a222	-0.08868815
23	0x3d9be78d	0.07612524
24	0x3cacb389	0.021081703
25	0xbc95c8aa	-0.01828416
26	0xbd0a1ecb	-0.033720773
27	0xbd28595a	-0.041100837
28	0xbcf9fcae	-0.030515995
29	0x3d3bec71	0.045879785
30	0xbbee657c	-0.0072752815
31	0xbc2096e1	-0.009801597

weight f4 [64, 32, 5, 5]
0	0xbca667df	-0.020313201
1	0x3cc90c70	0.024542063
2	0xbbe88017	-0.0070953476
3	0xbc0be7d7	-0.008539162
4	0x3c026603	0.007958892
5	0xbca8ce47	-0.020606173
6	0x3a0045f8	0.00048932387
7	0xbcefab86	-0.029256593
8	0xbbca2168	-0.006168533
9	0x3cb94f0b	0.022620698
10	0x3cfc97e3	0.030834144
11	0x3c6ae411	0.014336602
12	0xbc7bb95c	-0.015364017
13	0x3cee8712	0.02911714
14	0x3d0699aa	0.03286139
15	0xbcf48d12	-0.029852424
16	0x3d114b9e	0.035472505
17	0xbabba37d	-0.0014315691
18	0xbce5c385	-0.028047333
19	0xbce7729f	-0.028252898
20	0xbc5709c4	-0.013124887
21	0xbd04c1be	-0.03241133
22	0xbc35e1d6	-0.011101207
23	0xbca592e9	-0.020211654
24	0x3c0d19ec	0.008612137
25	0x3ca2318e	0.01979902
26	0xbb919470	-0.004442744
27	0x3aa812a6	0.001282294
28	0xbb5fbbb4	-0.003413898
29	0x3cdfe068	0.027328685
30	0xbd01e073	-0.031708192
31	0xbcc93d80	-0.024565458
32	0x3c62bf6c	0.013839584
33	0xbc509827	-0.012731588
34	0x3d2df9e0	0.042474627
35	0xbca33ace	-0.019925501
36	0x3c44bd42	0.012008013
37	0x3ce9e5da	0.028551985
38	0x3d3cda2f	0.046106514
39	0xbb554d5f	-0.0032547337
40	0xbc315b0c	-0.01082493
41	0x3d4ec9d7	0.05048546
42	0xbc97cfb1	-0.018531652
43	0x3c8814f6	0.016611557
44	0x3bebc874	0.0071955267
45	0x3c38abb5	0.011271407
46	0xbc40bdb0	-0.011763975
47	0xbc8c0101	-0.017090322
48	0xbcbdecd2	-0.023184214
49	0x3ca076f0	0.019587964
50	0x3c71cfaa	0.014758984
51	0xbd1682e4	-0.03674592
52	0xbc9e3142	-0.019310597
53	0x3c091638	0.008367114
54	0x3d07ad85	0.033124465
55	0x3d272bd4	0.040813282
56	0xbb3163dc	-0.0027067577
57	0x3c64fe95	0.013976713
58	0x3d343303	0.04399396
59	0x3d1f8864	0.03894843
60	0x3cdfa9cc	0.027302645
61	0x3cf585a1	0.029970946
62	0x3d4194e2	0.047261126
63	0x3d3d044f	0.046146687
64	0xbd256f48	-0.04038933
65	0x3c8ded73	0.017325139
66	0xbca0ab12	-0.019612823
67	0xbd16bb69	-0.036799822
68	0xba405c73	-0.0007337995
69	0xbca642e8	-0.020295575
70	0x3cbd7b85	0.023130188
71	0xbc7bd62f	-0.01537089
72	0xbcb3dfaf	-0.021957247
73	0x3d1c5da1	0.03817523
74	0x3b4106f6	0.0029453612
75	0xbce9f3ba	-0.0285586
76	0x3c88e79e	0.016712006
77	0x3c2446d8	0.010026656
78	0xbcc34572	-0.023836825
79	0xbc8b416f	-0.016998975
80	0x3c8db324	0.017297335
81	0xbd259f6f	-0.04043525
82	0x3c20cde8	0.009814717
83	0x3c107a6c	0.00881825
84	0xbbf84dfe	-0.007577657
85	0xbcf38986	-0.029728662
86	0x3ae82587	0.0017711379
87	0x3c81cc9b	0.015844634
88	0x3c9181cd	0.01776209
89	0xbc550464	-0.013001535
90	0x3c8e121c	0.01734262
91	0xbcf2009b	-0.029541304
92	0xbc996257	-0.01872365
93	0xbb8dcad5	-0.004327158
94	0x3ce44bce	0.027868178
95	0xbc8c729a	-0.01714449
96	0xba063d3b	-0.00051208184
97	0x3cfdd7fe	0.030986782
98	0x3cd574d3	0.026056683
99	0xbcebf14e	-0.028801586
100	0xbc347e98	-0.01101651
101	0xbc168f25	-0.009189402
102	0x3c11ebb5	0.008906295
103	0x3c8c3be1	0.017118396
104	0x3c837623	0.016047543
105	0xbcd6c9f8	-0.026219353
106	0xbcd2f08c	-0.025749467
107	0xbcf0ee92	-0.029410634
108	0x3c6c1d35	0.01441126
109	0x3d56e1c8	0.052461416
110	0xbc4a1478	-0.012333982
111	0xbad5d621	-0.0016314426
112	0x3d2a8b12	0.041636534
113	0x3c98d143	0.018654471
114	0x3c7102c5	0.014710133
115	0x3a55d432	0.0008156925
116	0x3c9697c5	0.018382916
117	0x3c4aeb46	0.012385195
118	0xbcf78612	-0.030215297
119	0xbc8fbc85	-0.017545948
120	0xbbf2000b	-0.007385259
121	0xbc805dae	-0.01566967
122	0xbcd62668	-0.02614136
123	0x3b54aea3	0.0032452724
124	0x3d1868a7	0.03720918
125	0x3b25cee8	0.0025300328
126	0x3cb94022	0.022613589
127	0x3c584fe7	0.013202644
128	0x3bcfa627	0.0063369456
129	0xbc64d615	-0.013967057
130	0x3c63461e	0.013871698
131	0x3cfa44a1	0.030550303
132	0x3cd65451	0.026163252
133	0x3b1092f4	0.0022060247
134	0xbcf5098b	-0.029911777
135	0x3cf2b95a	0.029629398
136	0x3ceb4a8e	0.028722074
137	0xbc2f134c	-0.010685753
138	0xbcb04e50	-0.021521717
139	0xbcf8f3f7	-0.030389769
140	0xbc0ae4c2	-0.008477392
141	0xbcd73f63	-0.026275342
142	0xbc50ec38	-0.012751631
143	0xbc8fc4be	-0.017549869
144	0x3a3e3276	0.0007255444
145	0x3d099113	0.03358562
146	0xbc86b806	-0.016445171
147	0x3d28679a	0.041114427
148	0x3ca3a699	0.0199769
149	0x3cc660e5	0.024216125
150	0xbc7317df	-0.014837234
151	0x3ca5465a	0.020175148
152	0x3d01ceca	0.03169135
153	0xbcd90d5f	-0.026495634
154	0xbc28a399	-0.010292911
155	0x3cf24148	0.029572144
156	0xbbb33319	-0.005468738
157	0x3cbc2caa	0.022970516
158	0xbc358fce	-0.011081649
159	0xbc96f40b	-0.018426916
160	0x3c3d34a5	0.011548196
161	0x3c11bc6b	0.00889502
162	0xbad657e3	-0.0016353097
163	0xbcc912ba	-0.024545062
164	0xbbaf44e7	-0.00534879
165	0x3b43da9a	0.0029884935
166	0xbd19271e	-0.03739082
167	0xbca90d95	-0.02063636
168	0x3c08feb2	0.008361505
169	0xbcc934f0	-0.024561375
170	0x3c848015	0.016174356
171	0xbca55c3a	-0.020185579
172	0x3c3b4b5b	0.01143154
173	0xbcc04e53	-0.023474848
174	0xb9b809ad	-0.00035102424
175	0x39a6ab3c	0.00031789567
176	0x3d124917	0.035714235
177	0xbb8853ab	-0.0041603646
178	0xbc89a7ea	-0.0168037
179	0x3d3419b4	0.043969825
180	0x3c8d07dd	0.017215664
181	0x3d5de9d9	0.054178093
182	0x3d0e0ed9	0.03468213
183	0x3c4bc065	0.012436007
184	0x3d057d88	0.03259042
185	0x3d0a000f	0.033691462
186	0x3d2be575	0.041966874
187	0x3d2ce923	0.042214524
188	0x3d18c1b8	0.03729412
189	0x3c7f8b35	0.015597154
190	0xbcb550e9	-0.022133308
191	0xbd400f6d	-0.04688971
192	0x3c12c222	0.008957418
193	0xbcf054e1	-0.029337348
194	0xbd1fb853	-0.038994145
195	0xbd2dfb4c	-0.042475984
196	0xbd33a122	-0.04385484
197	0xbcf3be78	-0.029753909
198	0x3cfeb7aa	0.031093437
199	0x3c893e5d	0.01675337
200	0x3c8dd44f	0.01731315
201	0xbab39a13	-0.0013702534
202	0xbc911d83	-0.017714268
203	0x3c0b5d36	0.00850611
204	0xbc1c6e16	-0.009547731
205	0x3c810cc9	0.015753167
206	0xbcb3a00c	-0.021926902
207	0x3d211df3	0.039335202
208	0x3cd86aea	0.026418168
209	0xbc5ea0c7	-0.013588137
210	0xbce5658b	-0.028002521
211	0xbc56d83e	-0.01311308
212	0xbc8e9db3	-0.017409181
213	0x3c4a1d07	0.012336022
214	0xbcd3f94b	-0.025875708
215	0xbd1ca645	-0.038244504
216	0x3ca13e6d	0.019683087
217	0x3cf4d4fa	0.029886711
218	0x3b178b16	0.0023123673
219	0xbd01e3fd	-0.031711567
220	0xbcfb92a7	-0.030709578
221	0xbd10d53d	-0.03535961
222	0x3d151fa1	0.036407117
223	0x3ca453bd	0.02005946
224	0x3d17d3ba	0.037067153
225	0xbcff2fac	-0.031150661
226	0x3c57e828	0.013177909
227	0xbbc23d92	-0.00592775
228	0x3c8a15ea	0.016856153
229	0xbcc6d5d5	-0.024271885
230	0xba118744	-0.0005551467
231	0x3bdff8ae	0.006835065
232	0x3d47458e	0.048650317
233	0xbcb938b7	-0.022610052
234	0xbcd81953	-0.026379263
235	0x3ca1a360	0.019731224
236	0x3c830578	0.015993819
237	0x3bbb9a7e	0.005725204
238	0xbcce07ba	-0.025150169
239	0x3ada52f8	0.0016656807
240	0xbd052cef	-0.032513555
241	0x3c979d35	0.01850758
242	0x3c837fce	0.016052153
243	0x3b7a4630	0.0038188808
244	0x3cb629c0	0.022236705
245	0xbd1dfc82	-0.03857089
246	0xbbd05470	-0.006357722
247	0xbcd53025	-0.026023934
248	0xbcfeb3cd	-0.031091595
249	0xbd0e302a	-0.0347139
250	0x3be1462c	0.00687482
251	0x3c8d64cc	0.017259978
252	0x3c46ea28	0.012140788
253	0x3c09c74d	0.008409333
254	0x3c23567d	0.009969351
255	0xbc6a5e67	-0.014304734

bias f4 [64]
0	0x3bf91720	0.0076016337
1	0xbb093ede	-0.0020942013
2	0xbc36d9a3	-0.011160287
3	0xbc89880e	-0.016788509
4	0x3c80c48c	0.01571872
5	0xbd062a74	-0.03275533
6	0xbd822d1e	-0.06356262
7	0x3a1cdd66	0.00059839187
8	0x3c8d52b6	0.017251354
9	0xbc29fc93	-0.01037516
10	0xbbe21798	-0.0068997853
11	0xbc03dc4a	-0.0080481265
12	0xbbde9509	-0.0067926687
13	0xbd135df2	-0.035978265
14	0xbc5635ac	-0.01307432
15	0xbd11a95b	-0.0355619
16	0xbd7ba39b	-0.061435323
17	0x3cb5f265	0.02221031
18	0xbacf2bd6	-0.0015805911
19	0x3c465c83	0.012107017
20	0xbd29d85f	-0.041466113
21	0xbd852f0d	-0.06503115
22	0xbc2cbd18	-0.01054313
23	0xbc7cf57a	-0.015439386
24	0xbcf2aac2	-0.02962244
25	0xbd28bfa9	-0.041198406
26	0xbcfc51f5	-0.030800799
27	0xbd432aae	-0.047648124
28	0xbca4aeee	-0.020102944
29	0xbc2e2c07	-0.010630614
30	0x3d0749fb	0.033029538
31	0x3c6a6ff1	0.0143089155
32	0xbc8d8fee	-0.017280545
33	0x3cde4f66	0.02713747
34	0x3cf54cc0	0.029943824
35	0x3a6ab730	0.00089536887
36	0xbd8bdff2	-0.068298236
37	0x3c9aa03e	0.018875238
38	0x3c626d15	0.0138199525
39	0x3ca8cb69	0.020604806
40	0xbbe7f31b	-0.007078541
41	0xbd035494	-0.03206308
42	0xbd175570	-0.036946714
43	0x3c98a462	0.018633071
44	0xbc666df7	-0.014064304
45	0xbd0460e4	-0.032318965
46	0xbd945ed7	-0.07244652
47	0xbbaab747	-0.0052098366
48	0xbd726058	-0.05917391
49	0xbd53d786	-0.05171921
50	0x3c49f099	0.012325429
51	0x3bec77cf	0.0072164307
52	0xbd1c59f6	-0.03817173
53	0xbc5891f7	-0.0132183945
54	0x3cc1ad89	0.023642318
55	0x3c99a56c	0.018755637
56	0xbd416d7f	-0.047223564
57	0x3c2e95a9	0.010655799
58	0xbceb5391	-0.028726371
59	0xbc40fd08	-0.011779077
60	0xbd4e866f	-0.050421175
61	0xbd0b577f	-0.03401899
62	0xbbbeca12	-0.0058224285
63	0xbd3e3531	-0.046437446

weight f4 [64, 1024]
0	0x3cc25f57	0.023727102
1	0xbafa9cea	-0.001912025
2	0xbc8fcf01	-0.017554762
3	0xbca3873c	-0.019961946
4	0x3c090b80	0.008364558
5	0xbc3010a5	-0.010746156
6	0x3d202c54	0.039104775
7	0x3c43e2e5	0.011955951
8	0x3c91de96	0.017806333
9	0xbc9d74b7	-0.019220693
10	0xbc33e214	-0.010979194
11	0x3c1a6d93	0.009425539
12	0xbd0caef9	-0.034346554
13	0xbc0ef76f	-0.008725985
14	0xbc9c471a	-0.019076873
15	0xbcaa3408	-0.020776764
16	0x3cac316e	0.021019664
17	0xbc92190f	-0.017834214
18	0xbc08963e	-0.008336602
19	0xbce32d2d	-0.027731502
20	0xbc434701	-0.011918784
21	0xbc20f9f7	-0.009825221
22	0x3bbed2d2	0.0058234716
23	0xbcc94e45	-0.024573455
24	0xbd174241	-0.03692842
25	0x3c0a8881	0.008455397
26	0x3c85ed26	0.016348433
27	0xbd11b702	-0.03557492
28	0xbba64c29	-0.005074997
29	0xbbca9d11	-0.0061832746
30	0x3bc19540	0.0059076846
31	0x3c6b9149	0.0143779
32	0xbc7e0d74	-0.015506137
33	0xbc11ce1b	-0.008899237
34	0xba8aca60	-0.0010588877
35	0xbc8166ff	-0.015796183
36	0xbb917239	-0.004438665
37	0x3bae9938	0.0053283237
38	0x3b198c1f	0.0023429466
39	0xbd2dc113	-0.042420458
40	0x3cca30c0	0.024681449
41	0xbb82ab10	-0.0039876774
42	0x3ccb730e	0.024835136
43	0xbcb54c6d	-0.02213117
44	0x3bbd1c98	0.005771231
45	0xbc0ec13b	-0.008713062
46	0x3c2e35f8	0.010632984
47	0xbcea4929	-0.028599339
48	0xb9609cd2	-0.00021420725
49	0xbcb14cac	-0.021643005
50	0x3b5ee02b	0.0034008126
51	0x3c060cac	0.008181732
52	0x3bc50e5e	0.0060136756
53	0x3cd3e987	0.02586819
54	0xbc8da67a	-0.017291296
55	0x3c16e1da	0.009209121
56	0x3d41e22e	0.047334842
57	0x3c4799ce	0.012182666
58	0xbbc1470a	-0.005898361
59	0x3cce7ea9	0.02520688
60	0xbc49b98b	-0.012312303
61	0xbc8e8c7c	-0.017400973
62	0xbc96897d	-0.018376106
63	0x3cd8eb46	0.026479375
64	0xbb267681	-0.0025400224
65	0x3d0f1215	0.034929354
66	0x3c9febfb	0.019521704
67	0xbcc48e79	-0.023993718
68	0x3ce55623	0.027995175
69	0xbc86bc84	-0.016447313
70	0xbb8cc72e	-0.004296205
71	0x3bdef34f	0.006803907
72	0x3bf4b20d	0.0074675144
73	0x3b80bb25	0.0039285594
74	0x3c4badbd	0.012431559
75	0x3b9dc35e	0.0048145493
76	0x3c9e0f7c	0.019294493
77	0xbcf02d7d	-0.029318566
78	0xbce3c196	-0.02780227
79	0xbbacef4e	-0.005277551
80	0x3c52a704	0.012857202
81	0xba7bb15e	-0.000960132
82	0x3c9499fe	0.018139835
83	0x3ca95ef9	0.02067517
84	0xbd03de50	-0.032194436
85	0xbcaffc93	-0.021482741
86	0x3bedb285	0.007253947
87	0x3c4edd41	0.012625993
88	0xbca9f2b7	-0.020745618
89	0x39f597dd	0.00046843188
90	0x3c97148e	0.018442418
91	0xb9a69ce2	-0.00031778874
92	0x3ca0a897	0.01961164
93	0x3d075767	0.033042338
94	0x3caaa329	0.020829754
95	0xbc353a25	-0.011061226
96	0xbd04c166	-0.032411
97	0xbc9689ea	-0.01837631
98	0x3bbb231b	0.005710972
99	0xbd13e54e	-0.036107354
100	0x3c135304	0.00899196
101	0xbbe989a9	-0.007127006
102	0xbbcd8692	-0.0062721455
103	0xbd27d65d	-0.040975917
104	0x3b05d43a	0.0020420686
105	0x3aee1838	0.0018165177
106	0xba058ab4	-0.0005094216
107	0xba19b710	-0.0005863765
108	0x3c55dd60	0.013053268
109	0x3c3a48d6	0.0113699045
110	0xbc7756e9	-0.015096405
111	0x3c947af5	0.018125037
112	0xbd0455df	-0.032308456
113	0x3d0b7bbd	0.034053553
114	0x3cd274cd	0.02569046
115	0x3c62080c	0.013795864
116	0xbd25591d	-0.04036819
117	0xbcbcadd2	-0.023032103
118	0x3c620b76	0.013796678
119	0xbd107d83	-0.035275947
120	0xbd3dfdd1	-0.046384636
121	0x3c1492c9	0.009068199
122	0xbd50e820	-0.05100262
123	0xbd4d35fd	-0.050100315
124	0xbc4b6e37	-0.012416414
125	0x3c56a0eb	0.013099889
126	0x3b01c358	0.0019800272
127	0x3c091313	0.008366364
128	0x3c5e6830	0.013574645
129	0x3c5aea9c	0.013361599
130	0x3c3b6c95	0.011439462
131	0x3ca38071	0.019958707
132	0x3c9eb225	0.019372055
133	0xbc8d36cd	-0.017238045
134	0xbc52a593	-0.012856859
135	0x3c99f6f9	0.018794524
136	0xbc998934	-0.018742181
137	0x3cc75477	0.024332268
138	0xbd12085e	-0.03565251
139	0xbbbf8d85	-0.005845728
140	0xbcb786fb	-0.02240323
141	0xbd1024e2	-0.035191424
142	0xbd0d1af0	-0.034449518
143	0xbc7f761c	-0.015592124
144	0x3cb8b76a	0.022548396
145	0xbca5f4c3	-0.020258313
146	0xbb435f9c	-0.0029811626
147	0xbc7aa1bc	-0.01529735
148	0xbc804058	-0.015655681
149	0x3c478548	0.012177773
150	0xba1464a8	-0.0005660751
151	0xbcf67939	-0.0300871
152	0xbd1a331e	-0.037646405
153	0xbcd10d28	-0.025518969
154	0xbceb0c7b	-0.028692475
155	0x3cba8f26	0.022773337
156	0x3ce874b5	0.028375963
157	0xbbea1c32	-0.0071444744
158	0xbc3cd51d	-0.01152542
159	0x3cc404b9	0.023928033
160	0x3cae8c22	0.021307055
161	0x3c825dea	0.015913922
162	0xbc9e8771	-0.019351693
163	0x3ce72581	0.028216125
164	0x3cd1a4a6	0.025591206
165	0x3ceccc5e	0.028906044
166	0x3d19b2ae	0.037523918
167	0xbc0fb2c4	-0.008770648
168	0xba953050	-0.0011382196
169	0xbcca4bda	-0.024694372
170	0xbc9d4d0f	-0.019201783
171	0x3c873477	0.01650451
172	0x3c4f111f	0.012638359
173	0xb9f6a19c	-0.00047041185
174	0x3b91270b	0.004429703
175	0x3c27af3c	0.01023465
176	0xbd050b31	-0.032481376
177	0x3b0d37f2	0.0021548239
178	0xbcbbab4f	-0.022908835
179	0x3b366e58	0.0027836766
180	0x3c600723	0.0136735765
181	0x3cd7ee1a	0.026358653
182	0xbbd07ba9	-0.0063623977
183	0xbcaa731b	-0.02080684
184	0xbc189afb	-0.009314294
185	0xbaeb34bf	-0.0017944797
186	0x3bfd11e0	0.007723078
187	0x3cb61baf	0.022229997
188	0x3c74d3ae	0.0149430465
189	0x3c911c5f	0.017713724
190	0x3b813d10	0.003944047
191	0x3cf537fa	0.029933918
192	0x3ce2d52c	0.027689539
193	0xbbdebbdb	-0.0067972965
194	0x3c3ca38b	0.011513601
195	0x3ca40f6e	0.020026889
196	0x3ce534db	0.027979305
197	0x3d231aac	0.03982036
198	0x3c8f2210	0.017472297
199	0xbcd196ad	-0.025584543
200	0xbc64cfc6	-0.013965553
201	0x3cc12815	0.023578683
202	0xbc532c24	-0.012888942
203	0xbce9bef1	-0.02853343
204	0xbba5d5b9	-0.005060878
205	0x3c90f3c4	0.017694362
206	0x3bc1e80d	0.005917555
207	0xbcc1ca38	-0.023655996
208	0x3b96cc2e	0.004601977
209	0xbc3cae27	-0.0115161305
210	0x3cb53a96	0.022122663
211	0xbca60496	-0.020265859
212	0xbc7ec789	-0.015550503
213	0x3ce6646f	0.028124062
214	0x3bf43e64	0.0074537266
215	0x3c79919e	0.015232472
216	0x3c810a0c	0.015751861
217	0xbc11e8f0	-0.008905634
218	0x3c1b1c95	0.009467264
219	0xbc95e11e	-0.01829582
220	0xbb9cd0dd	-0.0047856406
221	0xbcf5668c	-0.029956125
222	0xbc27ed70	-0.010249481
223	0x3b1f28e8	0.0024285857
224	0x3c82d37f	0.01596999
225	0x3c85d1cc	0.01633539
226	0x3cea6060	0.028610408
227	0x3c87d943	0.01658309
228	0xbc4c0643	-0.012452665
229	0x3cc72191	0.024307998
230	0x3ae4b873	0.001744999
231	0xbb72cdac	-0.003704886
232	0xbcb3251c	-0.021868281
233	0xbb4d66e0	-0.0031341836
234	0xb8bd26f9	-9.0194815e-05
235	0x3ce0dff1	0.027450534
236	0x3c64d6db	0.013967241
237	0xbce4c2de	-0.027924951
238	0xbcdf6e94	-0.027274407
239	0xbca72ce2	-0.020407144
240	0x3c9f7a82	0.019467596
241	0x3c4372be	0.011929212
242	0xbcdfc576	-0.027315836
243	0xbc8b0011	-0.016967805
244	0xbcd75d15	-0.026289502
245	0x3c9c77ff	0.019100187
246	0x3c1c4299	0.0095373625
247	0x3c5e796b	0.013578753
248	0x3b05fe16	0.0020445636
249	0xbb043b28	-0.0020176861
250	0xbcb68f53	-0.02228514
251	0xbcc8fbd8	-0.024534151
252	0x3cee6646	0.029101502
253	0xbc8cf804	-0.017208107
254	0x3d17abcb	0.03702907
255	0x3bf43af6	0.0074533178

bias f4 [64]
0	0x3cf660bd	0.030075425
1	0xbb0677c8	-0.0020518173
2	0x3c47346a	0.012158493
3	0x3c738ef7	0.014865628
4	0x3d1cee17	0.038312998
5	0xbc846084	-0.016159303
6	0x39f6bea6	0.0004706282
7	0xbc04a98a	-0.008097062
8	0xbccd6697	-0.025073333
9	0xba88be6c	-0.0010432727
10	0x3cad02ac	0.021119438
11	0x3c930d60	0.017950714
12	0x3cecd7e0	0.028911531
13	0xba2452f6	-0.00062684657
14	0xbc797d3d	-0.015227613
15	0xbd61e452	-0.055149384
16	0xbcdc93d7	-0.026925964
17	0x3d3c9ccc	0.04604797
18	0x3c3485a8	0.011018194
19	0xbc5df097	-0.013546131
20	0xbbdbcc66	-0.006707716
21	0xbc6b96e7	-0.01437924
22	0x3ca771d0	0.020440012
23	0xbc1e3bc1	-0.009657801
24	0xbbbd2b6e	-0.0057729995
25	0x3d44dec8	0.048064023
26	0xbd3be3a1	-0.04587138
27	0xbceaeb3f	-0.028676627
28	0xbcc86c87	-0.024465812
29	0x3d067466	0.03282585
30	0xbc2c4ec2	-0.010516824
31	0xbd8a7467	-0.06760483
32	0xbc5ccb64	-0.0134762265
33	0xbd347d46	-0.044064783
34	0x3b04fe7b	0.0020293284
35	0xbc735d2a	-0.014853755
36	0xbd62f0ee	-0.05540555
37	0xbc2294e8	-0.009923197
38	0x3d092776	0.0334849
39	0x3b252761	0.0025200474
40	0x3be0a7ee	0.0068559563
41	0xbcf954ca	-0.030435938
42	0xbd12659a	-0.035741426
43	0x3d050bbb	0.03248189
44	0xbc1f863f	-0.009736597
45	0xbcc5beb6	-0.02413879
46	0xbcccc924	-0.024998255
47	0xbc866274	-0.016404368
48	0x3d19883b	0.037483435
49	0x3b20accf	0.0024517064
50	0x3c062753	0.008188087
51	0x3adae1ca	0.001669937
52	0x3cd5d392	0.026101861
53	0xbc190834	-0.009340335
54	0x3d0aa003	0.033844005
55	0x3c802c18	0.015646026
56	0x3d732b4d	0.059367467
57	0xbbe0ec81	-0.006864131
58	0x3bc65504	0.006052615
59	0xbaf56132	-0.0018720983
60	0xbc342571	-0.010995255
61	0xbcf2e1bb	-0.029648652
62	0xbc5510ea	-0.013004521
63	0x3d0a38f0	0.033745706

weight f4 [10, 64]
0	0xbd75f7dd	-0.060050834
1	0x3decf997	0.11571043
2	0xbd711b25	-0.058863778
3	0x3d35230c	0.044222876
4	0x3d492cb0	0.049114883
5	0xbce5cb36	-0.028051
6	0x3dce8e0c	0.10085687
7	0x3dd07095	0.10177723
8	0x3d29210f	0.041291293
9	0x3d689d6f	0.056790765
10	0xbe4652b3	-0.19367485
11	0x3debfcf3	0.115228556
12	0xbd088f89	-0.03334001
13	0x3e02b27f	0.12763403
14	0x3c40c884	0.011766557
15	0xbd73260d	-0.05936246
16	0xbde59270	-0.11209571
17	0xbd8d9c6c	-0.06914601
18	0xbd98a7c5	-0.074538745
19	0x3df2a9f0	0.11848819
20	0x3de9e17a	0.11419959
21	0x3e15dc6e	0.14634869
22	0x3ab38030	0.0013694819
23	0x3daa0a24	0.083027154
24	0xbd1e742b	-0.038685005
25	0xbd726b3e	-0.059184305
26	0x3dd7654f	0.1051737
27	0x3d49741d	0.049183
28	0x3e1a24ab	0.1505305
29	0xbbd3a24f	-0.0064585577
30	0x3d9b6dbf	0.07589292
31	0x3e054c0f	0.13017295
32	0x3d572263	0.052523028
33	0x3e35ad3d	0.17741866
34	0x3d728ad5	0.05921443
35	0x3d5090cb	0.050919335
36	0x3dbb418b	0.09143361
37	0xbddcfdcb	-0.10790595
38	0xbe3edb4b	-0.18638341
39	0xbe44fb6b	-0.19236533
40	0x3d79a64a	0.0609496
41	0x3c10d253	0.008839208
42	0xbd728b81	-0.059215073
43	0xbdc002c0	-0.093755245
44	0xbd0beccc	-0.034161374
45	0x3debeb34	0.11519471
46	0x3dd9d25f	0.10635828
47	0x3e00b57b	0.1256923
48	0xbdd1a9c8	-0.10237461
49	0xbe08fed5	-0.1337846
50	0xbde1147d	-0.10990236
51	0x3d741597	0.059590902
52	0xbde6dbb2	-0.11272372
53	0xbdd8da75	-0.10588542
54	0xbc71b370	-0.014752254
55	0xbe00a1df	-0.12561749
56	0xbd91f854	-0.07127443
57	0x3e2cb049	0.16864122
58	0x3c86598f	0.016400127
59	0xbdb1fc5b	-0.08690711
60	0xbe08aab5	-0.1334637
61	0x3dd1d72b	0.10246118
62	0x3d2f9b77	0.042872872
63	0xbdf720d5	-0.12066809
64	0xbd2d68bf	-0.04233622
65	0xbc1c09b6	-0.0095238
66	0xbb974a17	-0.0046169865
67	0xbe4d2fb4	-0.20037729
68	0x3d8c221c	0.06842443
69	0x3d77520a	0.060380973
70	0xbd2bafc8	-0.041915685
71	0x3da14a53	0.07875504
72	0xbe34d202	-0.17658237
73	0xbe094ce4	-0.13408238
74	0xbda51807	-0.080612235
75	0xbe1f2711	-0.15542246
76	0xbd8d4fc4	-0.0689998
77	0x3d58a259	0.0528892
78	0xbd02ddcc	-0.031949803
79	0xbc343f21	-0.011001379
80	0xbe36fbdd	-0.17869516
81	0xbd4ab667	-0.04949036
82	0xbe015f93	-0.12634115
83	0x3da43907	0.080186896
84	0x3e767152	0.24066666
85	0xbb0052b4	-0.0019580545
86	0xbd8b5085	-0.06802467
87	0x3e54a0ba	0.20764437
88	0xbd10f05e	-0.035385482
89	0x3e07d871	0.1326616
90	0xbe268d44	-0.16264826
91	0xbe25cbc0	-0.16191006
92	0x3e740b9a	0.2383255
93	0xbd50ca8b	-0.05097441
94	0xbd7f1eb9	-0.06228516
95	0xbe16cd77	-0.14726816
96	0xbdf383c5	-0.118903674
97	0xbdae9b6b	-0.085257374
98	0xbdc33e51	-0.0953337
99	0xbe044776	-0.12917885
100	0xbd46ec8f	-0.048565444
101	0xbde1dbe5	-0.1102827
102	0xbdfd7c30	-0.123772025
103	0xbe28fff1	-0.16503884
104	0xbde5432b	-0.11194452
105	0xbd29ee6b	-0.04148714
106	0xbe498518	-0.19679677
107	0xbd549b27	-0.051905777
108	0xbe19c897	-0.15017925
109	0x3e7fbbb4	0.24973947
110	0xbd8e8874	-0.0695962
111	0xbd746422	-0.059665807
112	0x3cd15a49	0.025555747
113	0x3e28dd16	0.16490588
114	0xbe072493	-0.13197546
115	0xbd854cb5	-0.06508771
116	0xbe52cc99	-0.2058586
117	0x3e470b68	0.19437945
118	0xbe2d7432	-0.16938856
119	0xbd7642ad	-0.06012218
120	0x3e03a502	0.12855914
121	0x3d5d3082	0.05400134
122	0x3ce35d4c	0.027754448
123	0x3e20bb35	0.15696414
124	0x3e154a23	0.14579062
125	0xbdf98a52	-0.12184586
126	0xbe09fab2	-0.13474539
127	0xbcd9c8a0	-0.026584923
128	0x3dc4a71b	0.09602185
129	0xbe152862	-0.14566186
130	0x3da7417e	0.081667885
131	0xbbab7fc8	-0.0052337386
132	0x3dc109a8	0.0942567
133	0x3dac7567	0.0842083
134	0xbe42f056	-0.19036993
135	0xbd2eea71	-0.04270405
136	0x3e1190b0	0.1421535
137	0x3db1c733	0.08680572
138	0x3d21da15	0.03951462
139	0x3bbb636a	0.005718638
140	0xbd563726	-0.052298687
141	0x3e1e432b	0.1545531
142	0xbe0f9d9e	-0.1402497
143	0xbdfc2e5f	-0.12313532
144	0xbd99b77a	-0.075056985
145	0x3d93837e	0.072028145
146	0x3dbc5653	0.091961525
147	0xbdd03ce3	-0.10167863
148	0x3d502d20	0.050824285
149	0xbd4d0f6c	-0.050063536
150	0x3de999b6	0.11406271
151	0x3def7609	0.11692435
152	0x3d8e1198	0.069369495
153	0xbda01b47	-0.07817703
154	0xbe235b48	-0.1595279
155	0x3d35578d	0.044272948
156	0x3d2a3372	0.04155297
157	0x3c3b9e51	0.01145132
158	0x3e2c5e6e	0.16832897
159	0x3d03c25d	0.03216778
160	0x3e024fc8	0.12725747
161	0xbd27049f	-0.04077589
162	0xbd97a3d4	-0.074042946
163	0x3bc3bbb8	0.0059733056
164	0x3db2d4a3	0.087319635
165	0xbddd945a	-0.108193114
166	0x3dbca4c9	0.09211118
167	0x3de446e0	0.11146331
168	0xbda30b07	-0.07961088
169	0xbdf71898	-0.12065238
170	0x3d9b1046	0.07571463
171	0xbdae7cb8	-0.08519882
172	0xbe28d6df	-0.16488217
173	0x3d1d8179	0.038453553
174	0xbcf4fd7f	-0.029906033
175	0x3d914bf8	0.07094568
176	0x3e0072bd	0.12543769
177	0xbe114520	-0.14186525
178	0x3c83f3d8	0.016107485
179	0x3a984de7	0.0011619896
180	0x3c353c96	0.011061808
181	0xbe73416f	-0.2375543
182	0x3de18733	0.11012115
183	0xbdafa43a	-0.085762456
184	0x3d63fb2f	0.05565947
185	0x3d957ea0	0.072995424
186	0xbce33759	-0.027736353
187	0xbddd1df2	-0.10796727
188	0xbd9dd10e	-0.0770589
189	0xbc18e447	-0.009331769
190	0x3dca74a8	0.09885532
191	0x3da89f6f	0.082335345
192	0x3d3a2fd5	0.045455772
193	0xbe02bddd	-0.1276774
194	0xbe1534cb	-0.1457092
195	0x3df25f97	0.118346386
196	0x3df2d1a2	0.118563905
197	0x3de9969c	0.114056796
198	0xbe2b6fd4	-0.16741878
199	0xbdd59c71	-0.104302295
200	0x3e49e13e	0.1971483
201	0x3e2a1cc4	0.16612536
202	0xbd23a0e5	-0.039948363
203	0xbcb8a1f6	-0.022538166
204	0x3d02a0be	0.031891577
205	0x3d3f647e	0.046726696
206	0xbdcd0673	-0.10010996
207	0xbd34f771	-0.04418129
208	0x3d047cbf	0.03234553
209	0xba9719e6	-0.0011528104
210	0x3d3f5940	0.046715975
211	0xbe16a7d0	-0.14712453
212	0x3c4c2977	0.012461058
213	0xbc3c9894	-0.011510987
214	0xbdcd98cb	-0.100389086
215	0xbe008efa	-0.12554541
216	0xbd90eef3	-0.07076826
217	0xbe07176a	-0.13192526
218	0xbd58ccb3	-0.05292959
219	0xbd2e2277	-0.042513337
220	0xbe1d91a9	-0.15387596
221	0x3d22e559	0.039769504
222	0xbd320a70	-0.043466985
223	0xbddad283	-0.10684683
224	0xbe17e32e	-0.14832756
225	0xbdd8e406	-0.10590367
226	0x3dca516e	0.09878813
227	0xbdbbe1dd	-0.091739394
228	0xbdc3d454	-0.09561983
229	0x3dc61685	0.09672264
230	0x3ca9da7b	0.020734062
231	0xbd80b974	-0.062853724
232	0x3dad0847	0.084488444
233	0x3c675847	0.014120168
234	0xbdaffae1	-0.08592773
235	0x3ddb52eb	0.10709175
236	0xbda9bfff	-0.082885735
237	0xbc99e637	-0.018786533
238	0xbe0ba627	-0.13637601
239	0xbb3ce790	-0.0028824545
240	0x3e22a15e	0.15881869
241	0x3d2e53df	0.042560454
242	0x3de7fc72	0.11327447
243	0x3d49d23d	0.049272764
244	0x3d53c7c9	0.0517042
245	0xbdd3c3c8	-0.10340077
246	0xbd6d3c6f	-0.057918962
247	0x3d856cf6	0.06514923
248	0x3d29b27f	0.041429993
249	0x3bd7228d	0.006565398
250	0x3d8fea16	0.0702707
251	0x3e08e098	0.13366926
252	0x3cbbe025	0.022934029
253	0x3cff1b41	0.031140925
254	0x3dde23a2	0.1084664
255	0x3d84bd7e	0.06481455

bias f4 [10]
0	0xbe3204a8	-0.17384589
1	0xbdbe609a	-0.09295769
2	0x3c1d0847	0.009584493
3	0xbd827280	-0.063694954
4	0xbcd2235d	-0.025651628
5	0xbdee3438	-0.11631054
6	0x3ccc8816	0.024967235
7	0xbde42a66	-0.11140899
8	0xbd6ce7e7	-0.057838347
9	0xbc3000dc	-0.010742392
