tudui_method1.pth (torch, 9788 bytes, 2 tensors)

weight f4 [64, 3, 3, 3]
0	0x3dba36ca	0.090924814
1	0xbd8bd33c	-0.06827399
2	0x3dc8fbf6	0.09813683
3	0x3e08536d	0.13313074
4	0xbdc73c60	-0.097283125
5	0xbe1f2008	-0.15539563
6	0x3d9763d2	0.07392086
7	0xbc8de090	-0.017318994
8	0xbd975eae	-0.073911056
9	0xbe16b740	-0.14718342
10	0xbde7b8b2	-0.11314525
11	0x3e2618f3	0.16220455
12	0x3e1d5973	0.15366153
13	0x3d18df78	0.03732249
14	0xbdbc720e	-0.09201442
15	0x3e19fb0d	0.15037175
16	0x3d572154	0.05252202
17	0x3e259981	0.16171838
18	0x3d01b6a8	0.031668335
19	0x3dcff1a2	0.1015351
20	0x3dfb16a2	0.12260176
21	0x3b980580	0.0046393275
22	0xbca75740	-0.020427346
23	0x3dee0776	0.11622517
24	0x3e0685c7	0.1313697
25	0x3e0fd717	0.14046894
26	0x3db1ac3a	0.08675428
27	0xbd177acc	-0.036982343
28	0x3c494af0	0.012285933
29	0x3ba03e80	0.004890263
30	0x3d9df17e	0.077120766
31	0x3df18762	0.117934
32	0xbc669a90	-0.0140749365
33	0x3e2fc259	0.17163981
34	0xbddd07d4	-0.10792509
35	0xbcb276a8	-0.021785095
36	0x3e2c5009	0.16827406
37	0x3c638490	0.013886586
38	0xbe0e4bd8	-0.1389612
39	0xbd586228	-0.052827984
40	0xbdfe4a2b	-0.1241649
41	0x3e23fb2b	0.16013782
42	0xbe270160	-0.16309118
43	0xbe37f12d	-0.17963095
44	0xbe24ddff	-0.1610031
45	0xbd4071cc	-0.046983525
46	0x3e2ac31d	0.16675992
47	0xbcf4eeb0	-0.029898971
48	0x3e39d4b3	0.18147545
49	0x3c0fe540	0.008782685
50	0xbe01d1f0	-0.12677741
51	0x3dd7ef52	0.105436936
52	0x3d927df6	0.071529314
53	0xbe1fa70c	-0.15591067
54	0xbd91fa74	-0.07127848
55	0x3d08848c	0.03332953
56	0x3e0fc31b	0.1403927
57	0x3dc864e6	0.0978487
58	0xbe312204	-0.17298132
59	0xbe448ac4	-0.1919356
60	0x3d90c5c6	0.07068972
61	0x3d441e80	0.04788065
62	0xbd92376c	-0.07139477
63	0x3c5f1280	0.013615251
64	0x3d57e000	0.052703857
65	0x3dadc25e	0.08484338
66	0xbc8305f8	-0.015994057
67	0x3e3573e1	0.17719986
68	0xbe37ea6a	-0.17960516
69	0x3e19ae6b	0.15007941
70	0x3e2baaa9	0.1676432
71	0x3e331cf1	0.17491509
72	0xbdb43f56	-0.08801143
73	0xbd353c9c	-0.044247255
74	0x3d2a882c	0.04163377
75	0x3da1943e	0.07889603
76	0xbc895258	-0.016762897
77	0xbe419892	-0.18905857
78	0xbe4025b8	-0.18764389
79	0xbd209840	-0.039207697
80	0xbc4f52c0	-0.0126540065
81	0x3d8f9bea	0.0701216
82	0xbdb98adf	-0.09059691
83	0xbcde5ca0	-0.027143776
84	0x3cfe2f18	0.031028315
85	0xbccb2d28	-0.024801806
86	0x3d61df5c	0.055144653
87	0xbccf9a00	-0.025341988
88	0xbd057104	-0.032578483
89	0x3d7e08f4	0.062020257
90	0xbe3ec60f	-0.18630241
91	0x3dd7e8ca	0.10542448
92	0x3de2f06e	0.110810146
93	0xbd8c82d3	-0.0686089
94	0x3d7b6cb4	0.061382964
95	0xbe225abc	-0.15854925
96	0xbd86c5ce	-0.06580697
97	0xbe2a0e93	-0.16607122
98	0xbdc569e0	-0.09639335
99	0x3e0a7587	0.13521396
100	0x3d94814e	0.072512254
101	0xbdaaa54e	-0.083323106
102	0xbdb4b3bc	-0.08823344
103	0x3dd118ae	0.102097854
104	0xbe3f94c6	-0.18709096
105	0xbc2e63a0	-0.01064387
106	0xbd2e6de0	-0.042585254
107	0xbde10806	-0.109878585
108	0x3d4f07dc	0.050544605
109	0x39d11c00	0.00039884448
110	0x3de78c02	0.11306001
111	0xbe079790	-0.1324141
112	0x3d15b51c	0.036549672
113	0x3c9ae110	0.018906146
114	0x3d7d9df4	0.061918214
115	0xbc760830	-0.0150166005
116	0xbd00f330	-0.03148192
117	0x3de0474a	0.10951097
118	0x3dc9a472	0.098458186
119	0xbda13363	-0.07871129
120	0x3dcce6a6	0.1000493
121	0xbe26c3e5	-0.16285665
122	0x3e42f503	0.19038777
123	0xbd606974	-0.054788068
124	0xbe19406e	-0.14965984
125	0xbb0ad180	-0.0021182
126	0xbd750e74	-0.059828237
127	0x3e120e39	0.14263238
128	0xbd1cc368	-0.03827229
129	0x3cd548f8	0.02603577
130	0xbb923ae0	-0.004462585
131	0xbe19b50e	-0.15010473
132	0xbdb70c37	-0.08937877
133	0x3e34d5d9	0.17659701
134	0xbd79f0fc	-0.061020836
135	0x3dfd1606	0.12357716
136	0xbe215d12	-0.1575816
137	0xbdc6e3c9	-0.09711415
138	0x3dbe19ba	0.09282251
139	0x3da802c2	0.08203651
140	0x3d8f0c02	0.06984712
141	0xbe0b8044	-0.13623148
142	0xbe3a1e26	-0.18175563
143	0x3e1b0c73	0.15141468
144	0x3d6dfe7c	0.058104023
145	0xbcdc5698	-0.02689676
146	0xbdc72abb	-0.09724947
147	0xbdba8963	-0.09108236
148	0xbdbd9572	-0.0925702
149	0x3b886fc0	0.0041637123
150	0x3d79761c	0.060903654
151	0x3d3eb794	0.046561792
152	0x3c38e730	0.011285588
153	0xbdaa5025	-0.083160676
154	0x3d48f7e8	0.049064547
155	0x3cbe43a0	0.023225605
156	0xbdd7ae6d	-0.10531316
157	0xbdedd7a3	-0.11613395
158	0x3e12d9b1	0.14340855
159	0x3e417bfb	0.18894951
160	0x3e42ec25	0.19035394
161	0xbd5d3064	-0.054001227
162	0xbbc2b740	-0.0059422553
163	0x3e0b58f3	0.1360815
164	0x3d6b5208	0.057451278
165	0xbe16ba8e	-0.14719602
166	0x3ca1cb00	0.019750118
167	0xbe148c94	-0.14506751
168	0xbd92ca43	-0.071674846
169	0x3e17d887	0.14828692
170	0xbb2f95c0	-0.0026792139
171	0x3e146487	0.14491473
172	0xbd95af9b	-0.07308885
173	0x3c83d088	0.016090646
174	0x3e30f48f	0.17280792
175	0x3e2620f9	0.16223516
176	0xbddb6ea1	-0.1071446
177	0xbd0baa40	-0.03409791
178	0x3bcea7a0	0.0063066036
179	0xbe296ada	-0.16544667
180	0x3b2f2000	0.0026721954
181	0xbe1b5f47	-0.15173064
182	0x3da5cdfe	0.080959305
183	0x3e2974e5	0.16548498
184	0x3d9152ea	0.07095893
185	0xbe2a9900	-0.16659927
186	0x3e27bcb9	0.16380586
187	0x3e0ddbed	0.13853426
188	0x3bb81c00	0.0056185722
189	0xbe2906d4	-0.16506511
190	0x3d123168	0.03569165
191	0xbd6859a0	-0.056726098
192	0x3dd7228a	0.10504635
193	0xbd87526a	-0.06607516
194	0x3e19f0af	0.1503322
195	0xbe2cd118	-0.16876638
196	0xbd61b91c	-0.055108175
197	0x3e11d82f	0.14242624
198	0xbdb76d6a	-0.08956416
199	0x3dc165e2	0.09443261
200	0x3d97824a	0.073978975
201	0x3e358289	0.17725576
202	0xbc8e3248	-0.01735796
203	0x3df63c42	0.12023212
204	0xbb97c180	-0.0046312213
205	0xbe30456c	-0.17213982
206	0xbbda4d40	-0.006662041
207	0x3e2a6f1f	0.16643952
208	0xbe0eea41	-0.13956548
209	0xbd888494	-0.06665912
210	0xbe1ec76e	-0.15505764
211	0xbde27535	-0.11057512
212	0x3dd98a26	0.10622053
213	0xbe3617e6	-0.17782554
214	0xbe03dbb9	-0.12876786
215	0xbddf6c56	-0.10909335
216	0xbd193e30	-0.037412822
217	0xbe117b7c	-0.14207262
218	0xbdacf10c	-0.084444135
219	0xbd3a7198	-0.045518488
220	0x3e110d31	0.14165188
221	0x3d9fa416	0.07794969
222	0x3e27ba53	0.16379671
223	0x3d05be40	0.03265214
224	0x3da547d6	0.08070342
225	0x3d3b647c	0.045750126
226	0x3e1ac053	0.15112428
227	0x3c77d250	0.015125826
228	0xbdf6bbcb	-0.120475374
229	0x3e18be6b	0.14916389
230	0x3dbb9d42	0.09160854
231	0xbe4350f2	-0.19073847
232	0xbd659c10	-0.056057036
233	0xbd5c169c	-0.0537325
234	0xbda051bd	-0.0782809
235	0xbdd968f7	-0.106157236
236	0xbdc3c870	-0.09559715
237	0x3de8b462	0.1136253
238	0xbe10f096	-0.14154276
239	0xbce292b0	-0.027657837
240	0x3e398bbf	0.18119715
241	0x3d26d250	0.040727913
242	0x3e3d6051	0.18493773
243	0x3d83fe52	0.06444992
244	0x3d542b60	0.051799178
245	0x3d47eef0	0.048811853
246	0xbe361ce2	-0.17784455
247	0x3e2be8c5	0.16788013
248	0xbe2794f5	-0.16365416
249	0x3e1ffe99	0.15624465
250	0x3d741e3c	0.059599146
251	0x3e2b138f	0.1670668
252	0x3e081777	0.13290201
253	0x3e41510d	0.18878575
254	0xbe02484b	-0.1272289
255	0xbe1f3715	-0.15548356

bias f4 [64]
0	0xbcb1bfa0	-0.02169782
1	0xbc3edac0	-0.011648834
2	0xbd9ad530	-0.075601935
3	0x3db42852	0.08796753
4	0x3e445b89	0.19175543
5	0xbda61a85	-0.08110527
6	0x3e39bafb	0.18137734
7	0xbbbae500	-0.0057035685
8	0x3dc24b5a	0.094870284
9	0x3e14769d	0.14498372
10	0x3d822042	0.06353809
11	0x3e18df69	0.14928974
12	0xbcec92f0	-0.028878659
13	0xbdccc88f	-0.09999191
14	0xbe1301e9	-0.14356197
15	0xbe165d3e	-0.14684007
16	0x3d4404ec	0.047856256
17	0x3d9d4ba6	0.076804444
18	0xbd378e04	-0.04481317
19	0x3e0219fd	0.12705226
20	0xbe1bf596	-0.15230402
21	0xbce9b0c8	-0.028526679
22	0x3d353e14	0.044248655
23	0x3cc79588	0.024363294
24	0xbe3bad38	-0.18327796
25	0xbbbac1a0	-0.0056993514
26	0x3b051240	0.0020305067
27	0xbe3cd8ea	-0.18442121
28	0xbdde1d20	-0.10845399
29	0xbda475be	-0.0803027
30	0x3debcc56	0.11513583
31	0x3d5d4418	0.054020017
32	0xbd9c0630	-0.07618368
33	0x3e1c2f6f	0.1525247
34	0x3e27bcf1	0.16380669
35	0xbd95d409	-0.07315833
36	0xbe362378	-0.17786968
37	0xbdac1788	-0.08402926
38	0x3e43ea4f	0.1913235
39	0xbdc20444	-0.0947347
40	0x3e02d8ad	0.12777968
41	0xbc508820	-0.012727767
42	0x3e264ab1	0.1623943
43	0xbe33516d	-0.1751153
44	0x3c76d920	0.015066415
45	0x3e2c9bfd	0.1685638
46	0x3e15521b	0.14582102
47	0x3d737b2c	0.059443638
48	0xbd2029f8	-0.039102525
49	0xbd84a2c0	-0.064763546
50	0x3e406ed1	0.18792273
51	0x3e2ef7b7	0.17086683
52	0x3e207241	0.15668584
53	0xbe3b9ae7	-0.1832081
54	0xbcb62d00	-0.022238255
55	0x3e103de7	0.14086114
56	0xbba14d00	-0.004922509
57	0xbdc81e15	-0.09771363
58	0xbdd1fad9	-0.102529235
59	0x3c3204e0	0.01086542
60	0x3d3a4b60	0.04548204
61	0xbdc04bb6	-0.09389441
62	0x3d76a6ec	0.060217783
63	0xbcaaf6d8	-0.020869657
