tudui_0.pth (torch, 588600 bytes, 10 tensors)

weight f4 [32, 3, 5, 5]
000000 ba 38 cf bd 3f 59 85 3d c6 6e 8a 3c 54 50 32 3d
       -0.101182416 0.06511163 0.016898524 0.043533638
000010 47 dc 11 bd 5e c7 92 ba 4d 5b 05 3b 7b b2 b2 bd
       -0.035610463 -0.0011198332 0.002034861 -0.08725449
000020 6c 9c c2 3d a6 4c c0 bd 9a 79 85 3d 73 b4 81 3d
       0.09502491 -0.093896195 0.06517334 0.06333246
000030 58 10 bb 3d e1 db ae bd 0f 29 a4 3c 50 62 79 bb
       0.09133977 -0.08538032 0.02003911 -0.0038052984
000040 92 ca b9 bd f1 e0 d0 3d 98 79 99 3d 34 5e d1 bd
       -0.0907184 0.10199154 0.07493895 -0.10223046
000050 a5 3a 43 bd 77 3a e1 bd 7b cd e6 bd 88 28 39 3d
       -0.04766335 -0.109974794 -0.11269661 0.04520467
000060 a4 d8 e4 bd 09 71 9c 3d 66 76 88 bd a6 98 d3 3d
       -0.111741334 0.07638747 -0.06663208 0.1033185
000070 e6 41 ec 3d e4 cf 89 bd 6e 66 49 bd 9a 50 56 3a
       0.11536007 -0.06729105 -0.04916995 0.0008175463
000080 7f 56 a9 3d c7 17 c4 bd 48 00 fc bb a9 fb 86 bd
       0.08268451 -0.09574848 -0.007690463 -0.06590969
000090 33 14 3a bc 98 11 ad 3d 5c 6b 3f bd 1b a5 87 bd
       -0.011357355 0.08450621 -0.046733245 -0.06623288
0000a0 bd bf 72 bd b4 f2 86 3d 26 15 e5 bd 64 0e 63 3d
       -0.059264887 0.06589261 -0.11185674 0.055433646
0000b0 2c de e5 bc 2a b2 bb bc f4 32 93 3c 9b 2c b7 3d
       -0.028060041 -0.022912104 0.017968632 0.08944055
0000c0 c0 6c 8b bd e6 7a 32 3c 6b d2 ac 3c 0c b9 24 3d
       -0.06807852 0.010893559 0.021096429 0.040215537
0000d0 b5 9d d4 3d 7b b9 12 3d bb 98 c5 3d 2a e6 83 bd
       0.10381643 0.03582142 0.09648272 -0.06440385
0000e0 0b 81 45 bd 23 bd b4 bd 04 91 d5 3d 1e e1 9e 38
       -0.048218768 -0.088251375 0.1042805 7.5759584e-05
0000f0 51 55 e1 bd 53 88 02 bd 0f 3d f9 3c 0c 0d 1b 3c
       -0.11002601 -0.03186829 0.030424623 0.00946356
000100 59 e3 3e 3d bd 2a d3 3d 76 d4 a5 bd 33 31 da bd
       0.046603534 0.10310886 -0.08097164 -0.10653915
000110 3f 71 99 3d 22 2d 7b 3c fb 21 16 bd f8 10 cb bd
       0.07492303 0.015330585 -0.0366535 -0.09915346
000120 ad 45 16 3d 97 a3 db bd 38 ed 9f bd cd 80 9f bd
       0.03668754 -0.10724562 -0.07808918 -0.07788239
000130 76 c6 49 3d c6 e6 bf 3d f8 97 19 3d d1 d1 8d 3c
       0.049261533 0.093701884 0.037498444 0.017311962
000140 b2 a8 b9 bc 81 46 e3 3d 90 68 14 3d 43 26 90 3d
       -0.022663448 0.11097432 0.03623253 0.07038548
000150 39 75 65 3d f0 fb 72 bd 54 1d 9c 3d 3f bf a4 3c
       0.056019995 -0.059322298 0.076227814 0.020110724
000160 0a e4 89 3c 21 8f 98 3c 94 fd ac 3c c8 e7 1b 3d
       0.01683237 0.018622937 0.02111701 0.03806284
000170 16 14 33 3d ae 48 ad bd eb ee 6b bd 76 9c ff 39
       0.043720327 -0.08461128 -0.057600897 0.00048753963
000180 b9 ef 26 bc 41 ef 0e bd f1 e2 2d bd e3 3b c4 bd
       -0.01018899 -0.03489614 -0.042452756 -0.09581735
000190 a8 fc 70 bd e6 a1 51 bd 83 b9 34 bd 44 63 a7 bd
       -0.0588347 -0.05117979 -0.04412223 -0.0817323
0001a0 48 f4 02 bd 0d 7e 6c bd a0 7a 5e bd 31 89 1b 3d
       -0.031971246 -0.0577374 -0.054316163 0.037972633
0001b0 f3 6b 8c 3d cb f0 99 3d 1a 13 ab 3d fa 88 89 3c
       0.06856527 0.07516631 0.08353253 0.016788948
0001c0 7c 5e 29 3d 87 b2 00 bd 32 dd 6b 3d f4 8b 96 bd
       0.041349873 -0.031420257 0.057583995 -0.07350913
0001d0 cd 9c eb bd 4d 19 90 3d da 54 fa bc dc 5d eb 3c
       -0.11504517 0.07036076 -0.030558039 0.02873128
0001e0 3e a8 e1 3c 09 f6 e5 bd b1 14 06 bd 58 f9 da bb
       0.027546044 -0.11228568 -0.032734577 -0.006682556
0001f0 9d f3 b5 bd 9e aa 36 3b 01 f5 21 3c 7c b2 94 bd
       -0.08884356 0.0027872692 0.009885074 -0.07260606
000200 7f 28 70 3d f7 80 d8 bd 20 24 bc bc 6f 79 9a 3d
       0.05863237 -0.10571473 -0.022966444 0.07542693
000210 3c 3a ac bd cd cf 72 3d fb 99 ca 3d 69 a3 84 bc
       -0.08409545 0.059280206 0.09892651 -0.016191201
000220 69 3f bf 3d 3a ff cd 3d d2 ec 6f bc 66 71 bb 3d
       0.093382664 0.10058446 -0.014643865 0.091524884
000230 7e 74 d9 bd 1c b8 d0 bd 66 36 86 bd b1 67 b5 bc
       -0.10617922 -0.10191366 -0.065533444 -0.02214417
000240 8a cc 71 bd 8a 2d 01 bc 6c 20 8f bd 3f 0e 11 3d
       -0.059032954 -0.0078843925 -0.06988606 0.035413977
000250 39 1c a2 3b 79 e6 d1 3c d0 fa 8d 3d 2e bb b1 bd
       0.004947212 0.025622593 0.06932604 -0.0867828
000260 3c 41 84 3d 18 a7 fb 3c e1 e1 99 bd 9c 83 df bd
       0.06457755 0.030719325 -0.07513786 -0.10913774
000270 b8 c4 9f bd de d3 9d bd ad 2b 96 3d ea d3 c3 3c
       -0.07801193 -0.07706426 0.07332549 0.02390476
000280 ed 41 51 bc b5 88 a6 3d c0 a7 bf bd 08 20 cd bd
       -0.012772066 0.081315435 -0.09358168 -0.10015875
000290 92 12 23 bd b1 df 00 be 62 23 8a 3d 55 5b 81 bd
       -0.039812632 -0.12585331 0.0674503 -0.06316248
0002a0 6d 0b 57 bd 63 1b c4 3c c8 c2 b4 bd be 93 70 bb
       -0.05250113 0.02393884 -0.08826214 -0.0036709155
0002b0 5a 84 30 3d 21 f4 b1 3d 51 8c d0 3c d5 cf 36 3b
       0.04309497 0.08689142 0.025457533 0.0027894874
0002c0 77 a5 6b bd 66 57 45 3d 21 bb cb 3a 28 32 af bd
       -0.057530846 0.048179053 0.001554344 -0.085544884
0002d0 01 da 76 3d 1d 73 87 3b 69 0b be bd 67 03 c0 3c
       0.0602665 0.0041335956 -0.0927952 0.023439122
0002e0 b2 bb 94 3c 06 f2 55 3c 7d 59 8a 3d da 1d e7 bc
       0.018155906 0.013058191 0.0675535 -0.028212477
0002f0 49 89 43 3d ba 81 a8 bd 04 25 90 3d d7 f2 43 3d
       0.047738347 -0.082278684 0.0703831 0.047839012
000300 dd 03 59 bc bd 97 00 3d 64 c1 eb bd 2d 43 5a bd
       -0.01324555 0.03139471 -0.11511496 -0.05328672
000310 77 ec 9e bd 67 69 f7 bd d6 29 48 3c 8e 70 ab bd
       -0.07759946 -0.12080651 0.012217006 -0.083710775
000320 07 f1 1f 3d 27 36 ab bd a6 f7 53 bd 9c da a8 3d
       0.03904822 -0.08359938 -0.051749848 0.082448214
000330 b4 3a dc 3d ca fd 95 3d 54 dd de 3d 14 51 f7 3d
       0.10753384 0.07323797 0.10882059 0.12076011
000340 a3 d5 63 3b 80 34 ae bc d3 45 ce bd 43 ab 9d 3d
       0.0034764789 -0.021265268 -0.10071912 0.07698681
000350 35 1e 4b 3d 30 e7 28 3d 13 3d c4 bd 8d d1 6a 3d
       0.049589355 0.041236103 -0.095819615 0.05732875
000360 9c 3e 1b 3d 2c e6 1b 3d 6c 21 ce 3d f4 f9 cb 3d
       0.037901506 0.038061306 0.100649685 0.09959784
000370 62 9c d1 bc 34 27 70 3c 63 8e 85 bd 08 57 4c 3c
       -0.025587264 0.014657784 -0.06521299 0.012471922
000380 ab fe 75 3d 7c 5b e1 bd b3 75 cc bc bb c5 b9 3d
       0.060057323 -0.110037774 -0.024958467 0.09070917
000390 15 20 10 bd 9e 0e 32 bd a1 45 b0 bb bb 33 ad 3d
       -0.035186846 -0.04347097 -0.005379394 0.084571324
0003a0 5e 56 c6 bd 28 9a da 3c 60 4e b0 bd b9 a9 f8 bd
       -0.09684442 0.026684836 -0.08608699 -0.12141747
0003b0 fe 18 dc 3c fa dc a9 bd b2 56 94 3d f5 c3 27 bd
       0.026867386 -0.08294101 0.07243098 -0.040958364
0003c0 de 09 c1 bd 87 6b 36 bd 46 d3 f5 bc 49 97 02 3d
       -0.0942571 -0.04453614 -0.03000797 0.031882558
0003d0 c0 0e 70 bb 70 ab 98 3c 7f 6b b8 bc 53 31 9c bb
       -0.0036629885 0.018636435 -0.022512196 -0.004766622
0003e0 3c 25 f8 bd d5 b9 f2 bd dd 57 9a 3c 1d 61 15 3c
       -0.12116477 -0.11851851 0.018840725 0.009117392
0003f0 ba bb ca bd 63 bf 4a bd 94 d1 13 3d 7a 78 27 bd
       -0.09899087 -0.049498927 0.03608854 -0.04088638

bias f4 [32]
000000 18 16 cd bd c2 f9 09 3d 01 29 19 bd 5e ee 88 3d
       -0.1001398 0.033685453 -0.03739262 0.0668609
000010 82 7b 14 bd 54 bc 2e 3d aa 6d c0 3d 56 98 96 bd
       -0.0362506 0.042660072 0.09395917 -0.073532745
000020 08 1d 78 3c f4 1c 8b 3d 12 00 dd bc 3b 4b 20 3c
       0.01514364 0.06792632 -0.026977573 0.009783561
000030 33 35 c5 bd d8 11 d9 3d 85 0e 44 3c 53 37 fa bd
       -0.096292876 0.105991066 0.011966352 -0.122175835
000040 6f 5d a6 3c d4 c7 90 3d bb 98 e5 3d 7a ed 95 3c
       0.020308224 0.07069364 0.11210772 0.018301714
000050 f2 63 a4 3d ce 1a ec bd 8a fa 77 bb 6f 37 83 3d
       0.080268756 -0.1152855 -0.0037838542 0.064070575
000060 4b 4e 9c 3b d0 2a f4 3d 0a bd c1 bd 9b 2c ed 3c
       0.0047700754 0.11922228 -0.094598845 0.028951934
000070 a3 fd fb 3d f2 4f 76 3d ae 1b 4f bd e2 58 58 3d
       0.12304237 0.060134836 -0.050563507 0.05281914

weight f4 [32, 32, 5, 5]
000000 5c 07 d6 3c c1 fc 13 bc 88 1e 73 3a 59 ef d7 bc
       0.026126556 -0.009032429 0.0009274264 -0.026359247
000010 fa c2 cf 3c ff 30 10 3d df d2 0e bd 6e cf 09 bd
       0.025361527 0.035202976 -0.03486907 -0.033645086
000020 d9 10 eb bc 92 81 62 bb e6 c8 c1 bc 9b 36 32 3c
       -0.028694557 -0.0034562093 -0.023655366 0.010877277
000030 5e 19 d7 bc 99 73 9a 3c 1f 62 23 bc b2 4e af bc
       -0.026257213 0.01885395 -0.009972124 -0.02139983
000040 a8 84 8e 3a 2a 3c 04 3d bd 9f c5 bc 2f 27 e9 bc
       0.0010873275 0.03228394 -0.02412402 -0.028461067
000050 c6 93 c4 3c 57 cc c9 bc b0 dc f4 3c 82 09 8b bc
       0.023996245 -0.02463357 0.029890388 -0.016972307
000060 8d 07 a8 bc 6a 0c 10 bd 8c 26 01 bd 0c b7 9a 3b
       -0.020511413 -0.03516809 -0.0315309 0.004721528
000070 3a 01 67 3c 1e c8 c0 3c ef 07 c7 bc e9 ab e0 3c
       0.0140994135 0.023532923 -0.024295775 0.027425723
000080 f8 12 1a 3c 08 45 d7 3c 9c 4b fe bc 2a 2b 2f 3c
       0.009403937 0.026278034 -0.031041913 0.010691443
000090 bd a9 eb bc 6b 2e 04 bb c0 c6 d3 3c 8b 99 f7 bc
       -0.028767461 -0.0020169269 0.025851607 -0.030224582
0000a0 73 c8 8c bc f7 c3 3b 3c fa 5d bb 3c e4 a8 52 3c
       -0.017185425 0.011460296 0.02287196 0.0128576495
0000b0 28 6d c0 3c 04 5d 07 3c 4d 94 88 bc 5c 39 48 bc
       0.02348955 0.008261923 -0.016672278 -0.012220707
0000c0 fd 37 a7 3b 66 65 85 bb e9 07 df bc 59 c9 a6 bc
       0.00510311 -0.0040709255 -0.027225452 -0.020359682
0000d0 3a 99 82 bc 6f 75 56 3a 22 d9 fa 3b 02 a2 8e bc
       -0.015942205 0.0008180951 0.007655279 -0.017411236
0000e0 a3 36 9b bc c8 db 89 3c f4 29 b6 bc 18 2c 25 3c
       -0.018946951 0.016828433 -0.022236802 0.010081314
0000f0 0a dd 8e bb ee 73 b9 bb 4a 3c cf bc b0 d8 01 bd
       -0.004359846 -0.005659572 -0.025297303 -0.03170079
000100 cf aa b9 bc 32 cc ef bc 97 65 e3 bc 3b ac 0f 3c
       -0.022664456 -0.029272173 -0.027758403 0.00876909
000110 f5 6a ef 3b 78 39 cf bc 1a ec 14 bc f7 8e be 3b
       0.0073064514 -0.025295958 -0.009089494 0.0058153826
000120 e0 cf 13 3c 57 c9 bc 3c 16 68 16 3d 52 ea 97 3c
       0.009021729 0.023045225 0.036720358 0.01854435
000130 98 ce 08 3c a8 0d d4 bc 46 1b a7 bc 56 68 e9 bc
       0.008350037 -0.025885418 -0.020398747 -0.028492134
000140 14 53 ce bc 34 67 f6 3c 90 1c 82 3c 22 c4 52 bc
       -0.0251861 0.030078508 0.01588276 -0.0128641445
000150 9f d6 c2 bc 78 fe 2c bb a0 de 1b bc cc 08 11 bb
       -0.02378398 -0.0026396792 -0.009513527 -0.0022130487
000160 2e 8b df bc d8 00 85 bc 29 22 b4 bc c6 8e eb bc
       -0.027288046 -0.016235754 -0.021988945 -0.028754603
000170 e8 be 83 3c 9c c4 a0 3c 2c 4b 13 3c 63 27 5a bc
       0.016082242 0.019625 0.00899009 -0.013315055
000180 df 2e e5 3c cc cb 7c bc 45 50 be bc df 4a da 3b
       0.027976451 -0.015429448 -0.023231635 0.0066617574
000190 e9 82 a6 bb e9 04 0c 3d 65 cc 95 bc c5 7b b0 bc
       -0.0050815237 0.03418437 -0.01828594 -0.021543393
0001a0 08 20 06 3d 6f 49 70 3c 17 3f 3b 3c ff 18 ce 3c
       0.03274539 0.014665945 0.011428616 0.025158403
0001b0 9b 43 9e bb ba 1f 8e 3c 33 f2 31 3b 44 be e5 bb
       -0.0048298365 0.017349113 0.0027152419 -0.007011207
0001c0 aa 6b 8f bc fa af e6 3c bc 0f 70 3b a0 50 73 3c
       -0.017507393 0.028160084 0.0036630472 0.0148507655
0001d0 81 1c 0e 3d 10 b0 05 3c 92 5c df bc b6 8c c9 3c
       0.034695152 0.008159652 -0.02726582 0.024603229
0001e0 ae da 0f 3d ee 77 ba bc fa ba e8 3c b5 6d 00 3d
       0.03512066 -0.022762265 0.02840947 0.031354625
0001f0 b2 3f c9 3c 9c 60 0d 3c 30 16 89 bc 5b d0 d6 bc
       0.024566505 0.0086289905 -0.016734213 -0.026222399
000200 e4 92 42 bc 02 c2 ca 3b 9c cf ab 3c 8e ef d9 bc
       -0.011875842 0.0061876783 0.02097302 -0.026603486
000210 7e 8f f3 39 04 d8 25 bc 1e c0 4c bb cf d4 18 bd
       0.00046455482 -0.010122303 -0.003124244 -0.037312325
000220 41 71 ac 3c b9 32 46 bb 79 5d 95 bb 11 1a 16 3c
       0.021050097 -0.0030242635 -0.004558262 0.009161488
000230 74 ab 07 bd b1 82 a4 3b 17 a7 9e 3c 5f ea be 3b
       -0.033122495 0.0050204624 0.019366784 0.005826279
000240 35 ef d1 bc c7 42 9f 3c 8c 3a 4b 3c 2b cf 07 3d
       -0.025626758 0.019441022 0.012404095 0.033156555
000250 9c a9 c2 bb 77 a8 66 bc ec aa f5 bb 0b b9 8b bc
       -0.005940629 -0.014078251 -0.007497182 -0.017056009
000260 99 0c 01 3d d6 1d aa 3b f0 40 fd 3c ee 94 d4 3c
       0.031506155 0.005191545 0.030914754 0.025949921
000270 47 c7 e2 bc f3 04 d8 3c 08 1a d3 bc 5f af 98 bc
       -0.027682913 0.026369547 -0.025769249 -0.018638311
000280 79 14 f7 3c 8c 31 13 bd 88 63 ac bc f6 e1 e7 3c
       0.03016113 -0.035935923 -0.021043554 0.028305989
000290 1c 33 e5 3a 10 f9 53 bb ea e5 3b bc 8d 06 0f bd
       0.0017486545 -0.0032344498 -0.01146839 -0.034918357
0002a0 c1 4e 03 bb b7 87 7d 3c e3 0d 57 bc fb 6a 3b 3b
       -0.0020035955 0.0154742515 -0.013125869 0.00285977
0002b0 16 bf ef bc 52 54 8a 3c 1e e3 a7 bc 66 c6 82 3b
       -0.029265922 0.01688591 -0.02049404 0.003990936
0002c0 33 63 32 bc fd 32 fa bc 94 b7 bf 3c 04 c1 dd 3c
       -0.010887909 -0.030541891 0.023402967 0.027069576
0002d0 73 26 84 bc 0b 48 a5 bb 3e a9 09 3d 8b 1e 91 3c
       -0.016131615 -0.0050439886 0.033608668 0.01771476
0002e0 c3 52 2f bb d6 47 a0 bc ba 1b 8f bc db 7c b5 bc
       -0.002675221 -0.019565504 -0.017469276 -0.022154262
0002f0 03 9d d4 3b 36 53 f3 3c 10 28 c0 bc 8c a4 04 bd
       0.006488444 0.029702764 -0.023456603 -0.032383487
000300 43 37 05 3d 66 9c 89 bc 7d 4b f1 3c 47 c7 dc bc
       0.032523405 -0.01679821 0.02945494 -0.026950492
000310 1f 84 04 bd b2 a2 a0 3c 8e 8d 6e bb 21 18 e6 3c
       -0.032352563 0.01960883 -0.003640029 0.028087677
000320 cc b2 5d 3c 6d 11 64 b9 d0 c2 29 3c c2 cb c5 bc
       0.013531398 -0.00021750266 0.010361388 -0.02414501
000330 ea e8 cc bc 06 a2 b2 bc 2d 8f 8f bb a7 20 d9 3c
       -0.025013406 -0.021805774 -0.0043810816 0.026504828
000340 05 01 b9 3c b2 ab a7 bc 89 af b6 bc 2a 59 09 3b
       0.022583494 -0.020467613 -0.022300499 0.0020957687
000350 e0 e7 b4 3b 42 f9 97 bc ff 0a 98 bc b1 91 5f 3c
       0.0055208057 -0.018551473 -0.01855993 0.013645575
000360 5c ec 47 3c 25 e9 75 bb f5 2d f6 bc af f2 cc 3b
       0.012202349 -0.0037522998 -0.03005121 0.006254516
000370 7e 63 43 3c fe 2b 99 3c cc 28 f7 bc 16 fb 94 bc
       0.011925576 0.018697735 -0.03017082 -0.018186133
000380 d7 4b bd 3c 34 98 f9 bb c9 94 11 3d 85 55 86 3c
       0.023107452 -0.007617021 0.035542283 0.0163982
000390 7a d4 61 bc 5f 69 4e bc 00 8e 3f ba 61 cb 1b 3c
       -0.0137835685 -0.012598365 -0.00073072314 0.0095089385
0003a0 bc 91 41 bc 7b 98 d9 bb 1b 4e 92 b9 e5 26 59 bc
       -0.011814531 -0.0066404915 -0.00027905483 -0.013253902
0003b0 86 cf a6 3a 2f 97 72 3c 78 d5 00 bd b4 2f 4c bb
       0.0012726642 0.014806553 -0.03145358 -0.0031156363
0003c0 89 ca 08 bc 07 58 1c 3b 9d 32 91 3c 2e 61 c9 3c
       -0.008349069 0.002385618 0.01772433 0.024582472
0003d0 9b e2 5a bc 2c 10 47 3c 3c f6 53 3c 04 06 ee 3c
       -0.013359691 0.012149852 0.012937125 0.029055603
0003e0 66 6c e1 3c 8f 07 45 3c df 59 4f bc fa 1d b9 bc
       0.027517509 0.012025728 -0.012655704 -0.022597302
0003f0 6f 52 ef 3c bd 29 07 bd 7f 66 64 bc a2 56 be bc
       0.029214112 -0.03299879 -0.013940453 -0.02323467

bias f4 [32]
000000 12 2a 0a bd 20 64 57 3b 13 16 03 3d 9b 65 1e bc
       -0.033731528 0.0032866076 0.032003473 -0.009667779
000010 fa 55 3e 3d 70 1d 16 3d 63 db 55 3c e8 9e 10 3d
       0.046468712 0.036649168 0.013052794 0.035307795
000020 f4 59 9e 3c 7b b1 d4 bc b3 21 e8 bc 19 4f 0c bd
       0.019330002 -0.025963536 -0.028336382 -0.03425512
000030 0e 63 98 3a b6 ab 9b 3b ee 65 08 3d 27 60 1e bd
       0.00116262 0.004750694 0.033300333 -0.038665917
000040 89 a8 74 bc 41 12 ae bc 5a 3e 1d 3d 80 b3 e8 bb
       -0.01493276 -0.021248939 0.03838954 -0.007101476
000050 3f a6 49 3c 64 db 08 bd ba f0 30 bd 03 ab 01 3d
       0.012307703 -0.033412352 -0.043198325 0.03165723
000060 6b 57 21 3d 16 ee 7c bc d1 3f 1c bd 3b 83 f7 bc
       0.03939001 -0.0154376235 -0.038146798 -0.030213943
000070 a0 fe c0 bb 23 0c 0c 3d c6 88 0c bb af 3f bc 3c
       -0.0058897287 0.034191262 -0.0021443828 0.022979585

weight f4 [64, 32, 5, 5]
000000 9a f4 ad bc 67 14 c7 3c 8f 58 31 bc 35 ac 18 bc
       -0.0212348 0.02430172 -0.010824337 -0.009318401
000010 eb e2 51 3c e3 10 dc bc 16 46 00 bc 21 ec 1a bd
       0.012810449 -0.026863521 -0.00782921 -0.037822846
000020 67 07 f4 bb 7a f7 da 3c 2d 11 b4 3c bf 18 1c 3c
       -0.0074471715 0.026729334 0.021980846 0.009527384
000030 d4 6a 92 bc dc 06 cd 3c 8f 35 c1 3c c6 da e3 bc
       -0.017873205 0.025027685 0.023585109 -0.02781428
000040 c1 7c 10 3d 99 42 1e bb 98 dd e5 bc 32 b3 01 bd
       0.035275225 -0.0024148582 -0.028059766 -0.031665035
000050 fe a7 08 bc 6e d5 00 bd d2 c9 41 bc 92 e6 92 bc
       -0.008340834 -0.031453542 -0.011827903 -0.01793221
000060 fb 00 2c 3c 75 7e da 3c 76 6e df ba 3f 24 ae 3a
       0.010498281 0.026671628 -0.001704647 0.0013285949
000070 ee 48 90 bb 86 fa b7 3c f1 d4 09 bd ea 72 d5 bc
       -0.004403225 0.022458326 -0.033650342 -0.026055772
000080 dd 61 78 3b ea c3 dc bc 9b a4 f2 3c 4a cd d2 bc
       0.0037900128 -0.026948888 0.029619506 -0.025732655
000090 e6 25 13 ba f3 60 4d 3c 96 12 07 3d 7c 23 03 bc
       -0.0005613252 0.0125353215 0.03297671 -0.008004066
0000a0 25 77 ad bc 04 a9 05 3d 8f b4 c7 bc 3e c0 4f 3c
       -0.021174977 0.03263189 -0.02437809 0.012680111
0000b0 83 5f 03 3c e0 7a 59 ba 4f ef cc bc b0 02 7c bc
       0.008018377 -0.0008296203 -0.025016455 -0.0153815
0000c0 be 56 d8 bc 93 81 a4 3c 22 ca 64 3c 8a 00 03 bd
       -0.02640855 0.020081317 0.013964208 -0.031982936
0000d0 cf 13 47 bc e2 f3 e2 3a 27 e3 75 3c 77 ac 13 3d
       -0.012150719 0.0017315114 0.015007771 0.036053147
0000e0 76 b6 c8 bb cf 3a d0 39 9b b2 a3 3c 46 68 ce 3c
       -0.0061252667 0.00039716667 0.019982627 0.025196206
0000f0 32 b4 75 3c 52 6a 8b 3c 67 d5 16 3d 2a 6b 20 3d
       0.014996575 0.01701847 0.03682461 0.0391647
000100 68 30 ef bc c0 71 11 3c 0c ad 6e bc 63 20 a0 bc
       -0.029197887 0.008877218 -0.014567625 -0.019546693
000110 2d 47 37 3b d1 cb 14 bc 7b a3 6d 3c 26 10 e4 bb
       0.0027966008 -0.009081797 0.014504309 -0.006959933
000120 85 b8 e3 bb 43 59 15 3d fb 57 dd 3b a3 f8 f4 bc
       -0.0069494867 0.03646208 0.006754873 -0.029903715
000130 3b c2 a2 3c 5c d5 db 3b c0 cb b0 bc 46 9d 5e bc
       0.019868007 0.006708784 -0.02158153 -0.013587302
000140 c5 3a a0 3c 05 be 00 bd e8 66 45 3c 68 6f 34 3c
       0.019559273 -0.031431217 0.012048461 0.011012889
000150 0d f6 5b bc e5 b1 87 bc 14 34 55 3c 2e c0 77 3c
       -0.013425362 -0.016564319 0.013012905 0.015121503
000160 54 ae 9b 3c 72 b7 54 bc 6a 8b c2 3c 1f cc ee bc
       0.019004025 -0.01298319 0.023748118 -0.029150067
000170 69 de e6 bc 95 d5 7f bb 5f 0b f4 3c 2c 72 78 bc
       -0.028182225 -0.0039037217 0.029790578 -0.015163939
000180 07 d6 65 bb ee 70 66 3c 19 a3 aa 3c f5 c8 03 bd
       -0.0035070197 0.0140650105 0.020829724 -0.03217407
000190 be f3 06 bc 4d 39 9a bb f3 c6 ea 3b 28 4e 98 3c
       -0.008236824 -0.004706538 0.00716483 0.018591955
0001a0 a1 3d 03 3c bc a7 cd bc d9 33 8b bc a4 c5 ed bc
       0.008010299 -0.025104396 -0.016992496 -0.029024906
0001b0 d6 b8 2c 3c 57 d9 0b 3d 1c ef fb bb c4 8f de bb
       0.010542115 0.03414282 -0.007688416 -0.0067920405
0001c0 0d 0f de 3c fb cd 15 3c 26 09 4a 3c aa d4 82 3b
       0.027106786 0.009143348 0.012331283 0.0039926367
0001d0 d0 5c 7d 3c a6 0b f4 3b 2f af c9 bc 8b d7 e3 bb
       0.015464023 0.0074476777 -0.024619667 -0.006953185
0001e0 03 e1 47 bc a7 2f 6e bc cf 69 cf bc 69 e1 f9 3a
       -0.012199643 -0.014537728 -0.025319008 0.001906437
0001f0 b9 66 11 3d 37 c6 08 3b 41 34 d5 3c d7 5a 26 3c
       0.035498355 0.0020870098 0.026025893 0.010153494
000200 7e 07 06 3b 44 77 a8 bc 63 24 6c 3c 7c e6 07 3d
       0.0020451243 -0.020564683 0.014412972 0.03317879
000210 32 91 a1 3c 5f 5b 61 bb 17 c6 00 bd f6 14 f6 3c
       0.019722555 -0.0034386737 -0.031438913 0.030039292
000220 83 37 05 3d 58 48 b2 bb 3e 3a 63 bc 0b 9a c0 bc
       0.032523643 -0.005440753 -0.0138688665 -0.023510953
000230 fb 22 e6 bb ef a8 8f bc 85 9d 26 bc 7d e8 5f bc
       -0.007023213 -0.017536609 -0.0101693915 -0.013666269
000240 3d ba 87 3b 64 b3 0a 3d 7f e8 31 bc 5a 8e 06 3d
       0.0041420744 0.033862486 -0.010858654 0.0328506
000250 12 cd 98 3c 87 cc d4 3c 35 d2 4c bc d7 c3 c6 3c
       0.018652473 0.025976432 -0.012501289 0.024263306
000260 a1 43 0d 3d 62 38 c6 bc fa e2 70 bb 76 2d f5 3c
       0.034488324 -0.024196807 -0.0036756382 0.029928904
000270 28 81 6f bc 29 f9 3e 3c 16 92 2f bc 15 16 76 bb
       -0.014618196 0.011656084 -0.010715982 -0.0037549783
000280 91 27 41 3a d4 84 e8 3b 8f 69 95 ba 32 1a ea bc
       0.00073682616 0.0070959125 -0.0011399257 -0.028576944
000290 60 8d 5b bc 05 4b 1d 3c 44 78 e7 bc 75 88 8f bc
       -0.013400406 0.009600406 -0.02825559 -0.017521122
0002a0 b5 ed 29 3c 4e 8d ac bc 3e e8 c8 3c 0a d3 43 bc
       0.010371615 -0.021063473 0.024524804 -0.011952171
0002b0 97 c2 45 3c 8d 36 ad bc 27 30 40 3b 3a 52 ad bb
       0.01207032 -0.021144176 0.0029325576 -0.005289343
0002c0 d8 18 1d 3d 18 ab 0a bb 03 93 b1 bc 8a e7 1e 3d
       0.03835377 -0.0021159109 -0.021676546 0.03879503
0002d0 f3 55 35 3b f1 6d ed 3c 74 19 e0 39 d1 c1 46 bc
       0.0027669638 0.028983088 0.00042743573 -0.01213117
0002e0 06 6e 0a 3d e0 92 bb 3c 0f 20 ea 3c 02 1c c2 3c
       0.033796333 0.022897184 0.02857974 0.023694996
0002f0 79 e7 e1 3c fc 4b e1 3c 2b 8e 8e bc 0e 59 f8 bc
       0.027576195 0.027502052 -0.017401775 -0.030315902
000300 f9 60 84 3c b1 db 00 bd b4 80 04 bd 92 39 17 bd
       0.016159521 -0.031459514 -0.032349303 -0.036920138
000310 62 e3 c9 bc 66 4e 88 bc d8 79 10 3d 58 bb bc 3c
       -0.024644557 -0.016638946 0.03527245 0.023038551
000320 fe d1 31 3c e9 e4 75 bb 5b 46 c8 bc 3c 73 86 3b
       0.010853289 -0.0037520474 -0.02444761 0.0041030925
000330 97 f7 8e bc be 92 30 3c 49 c9 9f bc 20 2d 13 3d
       -0.017452044 0.010777174 -0.01950516 0.035931706
000340 82 5f a5 3c 36 c7 bc bc d8 25 b4 bc 0d bc 05 bc
       0.020187143 -0.02304421 -0.021990702 -0.008162511
000350 c1 1c af bc 95 38 1d 3c e3 24 b9 bc 26 74 fa bc
       -0.021376016 0.00959601 -0.022600597 -0.030572962
000360 0f fd e5 3c 9c c9 d5 3c 42 d2 bc 3a bd 63 e1 bc
       0.02807477 0.026097111 0.0014405923 -0.02751338
000370 03 03 df bc 0e 89 c9 bc 44 bc 01 3d 50 74 5a 3c
       -0.027223116 -0.024601486 0.031673685 0.013333395
000380 50 65 0e 3d 7d 38 c1 bc f2 fa a6 3c 9f 28 99 bb
       0.034764588 -0.023586506 0.020383332 -0.004674032
000390 36 04 99 3c ce aa 7e bc f0 47 64 bb 48 5d 0a bc
       0.018678766 -0.015543653 -0.0034832917 -0.008445092
0003a0 5c ab f8 3c ee e7 00 bd 69 3b a5 bc b8 e7 7f 3c
       0.030355148 -0.031471185 -0.02016993 0.015619211
0003b0 2b 8f 97 3c c0 1e 9a 3b 43 51 f8 bc 5e c4 df bb
       0.018500885 0.0047033727 -0.030312186 -0.0068288287
0003c0 c1 7e b4 bc 31 94 df 3c e5 d6 81 3c b8 50 0d 3c
       -0.022033097 0.027292343 0.01584954 0.008625202
0003d0 68 19 db 3c f5 70 01 bd a1 3e 03 bb e1 2d f0 bc
       0.026745513 -0.031601865 -0.0020026343 -0.029318752
0003e0 12 16 f0 bc 59 6f 08 bd 00 87 29 3c 9c 8c 53 3c
       -0.029307399 -0.033309314 0.010347128 0.012911942
0003f0 d8 fb 87 3b a8 da db 3b 0e b5 8a 3c 0b c4 8c bc
       0.004149895 0.0067094155 0.016932037 -0.017183324

bias f4 [64]
000000 ac f1 78 3c c0 0e 59 3b b3 c0 ba 3b d4 15 72 bc
       0.015194338 0.0033120364 0.005699241 -0.014775712
000010 03 f3 ef 3b c0 10 91 bb c2 53 2f bd e8 08 12 3c
       0.0073226704 -0.0044270456 -0.042804487 0.008913256
000020 50 7f 9f 3c 4d cb 4e bb 24 86 2f 3c 73 4a 46 3b
       0.019469887 -0.0031554282 0.010713134 0.0030256778
000030 f0 bb 7c 3a ee c8 84 bc 48 7b 1a bc 69 eb 96 bc
       0.0009641042 -0.016209092 -0.009428807 -0.0184228
000040 d6 dc 34 bd 5e 67 f7 3c a5 2e 56 3c 3c 25 9f 3c
       -0.044155918 0.030200657 0.013072644 0.019426934
000050 1d d9 8e bc 97 98 3d bd f4 58 07 3c 5f c5 84 bc
       -0.017437512 -0.0462881 0.008260954 -0.016207395
000060 84 c0 75 bc bc fd 00 bd 79 28 f9 bc 0e 23 37 bd
       -0.014999513 -0.03149198 -0.030414807 -0.044711165
000070 2c 1a d7 3b e6 5b e4 ba 0e 77 1a 3d 5e 07 fa 3c
       0.006564399 -0.0017422407 0.037711196 0.030521091
000080 34 95 3e 3a 95 f9 f1 3c 81 22 b8 3c 38 b8 bc 3c
       0.0007270158 0.029537955 0.02247739 0.023037061
000090 64 42 1d bd 76 34 cd 3c 0b 9e c4 3c 5a 01 cc 3c
       -0.038393393 0.02504943 0.024001142 0.024902988
0000a0 79 88 92 bb 63 5c 88 bc 3c 53 ef bc 51 8d 83 3c
       -0.004471835 -0.016645616 -0.029214494 0.016058596
0000b0 14 f8 8c bc 7d d6 6c bc 59 7b 04 bd ca 7b 9e 3c
       -0.017208137 -0.014455435 -0.032344196 0.019346137
0000c0 5a bd 0a bd 36 09 22 bd b3 1a 83 3c 99 ec a9 3c
       -0.033871986 -0.039559565 0.016003942 0.020742701
0000d0 34 28 62 ba b9 08 e8 3b 95 5d 90 3c 41 0b 7f 3c
       -0.00086272066 0.007081118 0.017622748 0.015566648
0000e0 2a c8 1d bd 1e 2e 95 3c d7 01 26 bc e2 cb f2 bb
       -0.03852097 0.018210467 -0.010132275 -0.0074095586
0000f0 b4 61 90 bc f7 c4 77 bc 2c bb 3c b8 f5 66 ad bc
       -0.017624713 -0.015122644 -4.499701e-05 -0.021167258

weight f4 [64, 1024]
000000 dc 2d 9b 3c 16 40 45 ba 06 04 b8 bc ec b3 dc bc
       0.018942766 -0.0007524503 -0.022462856 -0.026941262
000010 b2 21 85 3c ac ba 76 bc c3 4d 07 3d 1b 8e b2 3c
       0.016251419 -0.0150591545 0.033033144 0.021796277
000020 9e 67 89 3c 44 8b e0 bc 9d ee 5e bc dc 22 a6 3c
       0.016773041 -0.027410157 -0.0136066945 0.020280294
000030 56 35 e2 bc 4d 7c 2d bc 1c 9f b4 bc 1a 53 82 bc
       -0.027613323 -0.010588718 -0.022048526 -0.015908767
000040 63 f4 e1 3c e0 2c c7 bc 58 46 5c bc 5f e7 b1 bc
       0.027582353 -0.02431339 -0.013444506 -0.021716772
000050 fe 37 8a bb 39 56 ec bb 22 dc 04 3c 8a 65 6c bc
       -0.0042181006 -0.007212427 0.008109124 -0.014428506
000060 56 4e d1 bc 78 dc 0c 3c 6a e8 ad 3c 7a 9e c9 bc
       -0.025550049 0.008597486 0.021228988 -0.0246117
000070 24 80 02 bc 4c 91 47 bc f8 96 6e 3b 74 cd 66 3c
       -0.007965121 -0.012180638 0.0036405902 0.01408707
000080 00 e2 8a bc db 57 45 bc 2f d9 28 bb 45 ba 99 bc
       -0.016953468 -0.012044872 -0.0025764217 -0.018765578
000090 a5 3d 9d 3b 0f 1e 02 3c 85 79 5a 3c ae 15 09 bd
       0.0047986084 0.007941737 0.013334637 -0.03346794
0000a0 ef cc a2 3c 45 39 2a bc 43 7a 95 3c 8e 91 e0 bc
       0.01987311 -0.010389631 0.018246775 -0.027413156
0000b0 a7 76 ae 3b 8f 5b 49 bc 6a ad 1e 3c 74 8f e1 bc
       0.005324203 -0.012289896 0.0096849 -0.027534224
0000c0 01 fa b6 3b ec 46 26 bc c0 e6 5d 3c 6c 35 2d 3c
       0.005584002 -0.010148745 0.013543785 0.010571819
0000d0 fd 3a 39 3b e1 41 d3 3c 60 2d 3b bc 2f 79 46 3c
       0.002826392 0.02578825 -0.011424392 0.012113853
0000e0 a7 91 f8 3c 07 5a 4d b9 36 eb 21 bc a0 bb c4 3c
       0.03034289 -0.00019583861 -0.009882739 0.024015248
0000f0 cf f4 45 bc 8e e3 77 bc 41 e4 12 ba 49 b4 d7 3c
       -0.012082293 -0.015129937 -0.00056034705 0.026331084
000100 f9 fd e3 bb 49 00 0a 3d 6c cc a9 3c 96 76 da bc
       -0.006957766 0.03369168 0.020727359 -0.026667874
000110 31 70 cb 3c c0 e2 9d bc d7 6b 54 bb 36 c0 00 3c
       0.02483377 -0.019273162 -0.003241291 0.007858327
000120 24 58 53 3c 8e 9f b0 3b 5c 59 0a 3c 01 01 73 3b
       0.012899432 0.005390114 0.0084441565 0.0037079456
000130 df ab a3 3c 99 7f ac bc 31 b6 b0 bc 1e 47 f5 39
       0.019979415 -0.021056937 -0.02157125 0.00046783028
000140 13 65 18 3c 4a f6 fb bb eb 21 4b 3c a8 8e 64 3c
       0.009301442 -0.007689272 0.012398223 0.0139500275
000150 d7 c5 d7 bc 8d b5 0f bc 4a 32 7e 3c 61 41 8d 3c
       -0.026339455 -0.008771312 0.0155149195 0.01724309
000160 c4 52 25 bc 0b 0d 3a 3c 79 95 82 3c e5 c5 16 3a
       -0.010090534 0.011355649 0.015940415 0.00057515345
000170 5a 9d b7 3c da 68 01 3d 90 b1 69 3c 96 28 0d bc
       0.022413898 0.031594135 0.014263526 -0.0086156335
000180 61 1f 0a bd 99 af 32 bc b6 93 61 3c e1 3a fd bc
       -0.03372133 -0.010906124 0.013768127 -0.030911865
000190 b2 9f ca 3b f8 3a 0c bc b0 0f 66 bb db da 01 bd
       0.006183588 -0.008558981 -0.0035104565 -0.031702857
0001a0 ff 11 d4 3a 82 ec 5e 3c 18 b4 db 3b 22 88 03 3c
       0.001617968 0.013606193 0.0067048185 0.008028062
0001b0 ee c2 24 3c fc d4 25 3c 02 a3 5c bc b1 ab 79 3c
       0.0100562405 0.01012158 -0.0134665985 0.015238688
0001c0 70 db be bc b1 61 b0 3c 1f 86 8f 3c c3 0a ab 3c
       -0.023297995 0.021530958 0.017520009 0.020879155
0001d0 ab df 19 bd 43 ea 0d bd b1 cf af 3b e2 4a c7 bc
       -0.037566822 -0.034647238 0.005365335 -0.0243277
0001e0 98 ce ea bc 2d a1 9f 3c 5c 10 16 bd 9c 3e f1 bc
       -0.028662965 0.019486034 -0.036636695 -0.0294488
0001f0 f2 19 17 bc 69 b9 a8 3c f1 fc 59 3c be 5d b4 3c
       -0.009222494 0.020596223 0.013304935 0.022017356
000200 c0 b2 37 3c 09 7d f2 3b 5f 73 32 3c 0e 2e b5 3c
       0.011212051 0.0074001593 0.010891764 0.022116687
000210 c7 98 d3 3c 5a 4a 9f bc 04 9b 56 bc 55 f8 d1 3c
       0.025829686 -0.019444633 -0.013098482 0.02563111
000220 5d 55 76 bc c1 03 01 3d 38 cb e3 bc b8 26 98 bb
       -0.015035001 0.03149772 -0.027806863 -0.0046432875
000230 0e 76 b5 bc a2 c2 e0 bc 71 93 e4 bc a6 ad 9c bc
       -0.02215102 -0.027436558 -0.027902337 -0.01912577
000240 12 89 b3 3c a8 b7 99 bc 9a a4 8d bb d3 c2 72 bc
       0.021915946 -0.018764332 -0.0043226006 -0.0148169575
000250 41 91 2f bc 7f 4a 37 3c 0f 4d 8f 3b 6e 45 f7 bc
       -0.010715784 0.011187195 0.0043732 -0.030184474
000260 1e e2 08 bd 1b d1 db bc 2e b4 de bc 3c 67 77 3c
       -0.033418767 -0.026833108 -0.027185526 0.015100297
000270 5d f9 a2 3c bf a4 15 bc 64 63 86 bc bf 93 58 3c
       0.019894296 -0.009133517 -0.016404815 0.013218819
000280 a3 4f 8d 3c 48 38 42 3c 52 02 9d bc fd b9 fc 3c
       0.017249888 0.011854239 -0.019166145 0.030850405
000290 2c e8 d8 3c 7a e2 c1 3c 9d 7c 11 3d da 73 28 bc
       0.026477896 0.023667563 0.03551923 -0.010281527
0002a0 1e d2 44 3b 7b 63 cc bc 2b 8e 8c bc c4 b5 a2 3c
       0.0030032466 -0.02494978 -0.017157635 0.019862063
0002b0 12 c8 10 3c 2d dc b8 bb 11 13 9a 3a 32 11 29 3c
       0.008836763 -0.0056414814 0.001175495 0.010319041
0002c0 ac 10 f2 bc 53 cc 20 3a f3 84 f1 bc fd 5e 72 3a
       -0.029548965 0.00061339623 -0.02948234 0.0009245722
0002d0 3a c3 70 3c c9 c5 ed 3c c4 dc 08 bc 83 45 5b bc
       0.014694983 0.029024975 -0.008353416 -0.013383272
0002e0 22 c7 38 bc 71 d5 97 bb 03 46 ec 3b 36 32 eb 3c
       -0.011277946 -0.0046335985 0.0072104945 0.028710466
0002f0 b0 cf 86 3c 6a 5a 2e 3c 59 dc 09 bb a3 18 b7 3c
       0.016456455 0.010641674 -0.0021035878 0.022350615
000300 f6 43 e0 3c 3f 99 51 bc 51 eb 45 3c 54 92 c1 3c
       0.027376156 -0.012792884 0.01208003 0.023629345
000310 b2 cd 06 3d 13 02 d6 3c c5 b0 55 3c 5f 30 bd bc
       0.03291101 0.026124036 0.013042633 -0.023094354
000320 f9 7b 8f bc 83 b0 a3 3c ec 9d 7a bc 34 14 d6 bc
       -0.01751517 0.019981628 -0.015296441 -0.02613268
000330 72 7f 3b bc ce 35 78 3c ef e9 29 3b bf 09 d7 bc
       -0.01144396 0.015149547 0.0025926789 -0.026249764
000340 7e 6e cd 3b 85 4f 6d bc 2f 8b bf 3c 7f 03 62 bc
       0.006269275 -0.014484291 0.023381798 -0.013794779
000350 94 72 76 bc f4 21 d8 3c 4f e0 05 3c 63 fa 87 3c
       -0.015041966 0.026383378 0.008171155 0.016598886
000360 b4 95 30 3c 05 ab 62 bc 3c 83 c9 bb 46 b3 5d bc
       0.0107778795 -0.01383472 -0.0061496776 -0.013531512
000370 b5 a7 c6 b8 2c 0f 01 bd 8d 99 09 bc 80 c7 e0 3b
       -9.4726136e-05 -0.03150861 -0.008398426 0.0068597198
000380 db c8 a2 3c dd 57 a9 3c 21 93 e3 3c 03 0e 9b 3c
       0.019871166 0.02067178 0.027780117 0.01892758
000390 2f 6f 14 bc 0f 8b 8c 3c 6d 17 6f 3b 4d 8e f8 bb
       -0.009059711 0.017156152 0.0036482469 -0.007585323
0003a0 fc 7e bc bc ac db 2d 3a 5a 0d 5c bb b5 e7 c9 3c
       -0.02300977 0.000663216 -0.0033577294 0.02464662
0003b0 8d 8a 73 3c 00 5e d1 bc 06 a5 ef bc 92 67 b9 bc
       0.014864576 -0.025557518 -0.029253494 -0.022632394
0003c0 12 57 9e 3c eb a4 60 3c 12 0e e0 bc ad 61 96 bc
       0.019328628 0.0137111945 -0.02735046 -0.018357122
0003d0 d2 29 c4 bc aa 72 97 3c 6b d4 0d 3c 36 f7 83 3c
       -0.023945723 0.018487293 0.008656601 0.01610909
0003e0 f4 b4 38 bb cb 0a cf bb b6 c3 cd bc 73 bd cc bc
       -0.0028184028 -0.0063184253 -0.025117736 -0.02499268
0003f0 3a d2 98 3c 33 e6 f6 bc 2c 00 c7 3c 72 28 99 3b
       0.018654931 -0.030139064 0.024292074 0.004674011

bias f4 [64]
000000 49 c1 eb 3c 25 80 85 bc 9f 89 bc 3b bb 50 88 3c
       0.028778689 -0.016296456 0.0057537104 0.016640058
000010 18 7a cf 3c 98 06 e3 bb 6c d8 70 3c 30 4d 0c 3c
       0.025326774 -0.0069282763 0.0147000365 0.008563325
000020 83 8d be bc c3 9c 92 bc 2a 60 d0 3c 58 74 53 3c
       -0.023260837 -0.017897015 0.02543648 0.0129061565
000030 ce a3 dd 3c f5 5d 7e 3c ba b1 50 bb 88 81 23 bd
       0.027055647 0.015525331 -0.0031844215 -0.039918453
000040 f2 38 82 bc 0c 9b 0a 3d ed 76 4e 3c fc 74 8c 3b
       -0.015896294 0.03383927 0.012601596 0.0042864066
000050 e4 80 28 3b 97 c2 ae bc 2c b0 51 3c a5 77 5b 3c
       0.002571159 -0.021333022 0.01279835 0.013395225
000060 6d b7 d1 bc ab 80 19 3d 2e 60 1b bd 0b 6b ab bc
       -0.02560016 0.037476223 -0.03793352 -0.020925066
000070 31 c6 b2 3b ea 07 08 3d 7d 3a 06 3b cf c9 41 bd
       0.005455755 0.033210672 0.002048164 -0.0473116
000080 75 dc 14 bc 33 af 1a bd 2d bb c9 3c e9 6f 53 39
       -0.009085764 -0.03776474 0.024625385 0.00020164218
000090 4f c4 0d bd 21 f5 7f bc bd c3 ba 3c f9 3e be 3b
       -0.034611043 -0.015622408 0.022798413 0.005805847
0000a0 01 36 91 bb 1f 94 02 bd d7 34 d0 bc c5 d5 dd 3c
       -0.0044314866 -0.03187954 -0.025415821 0.027079472
0000b0 3c 0f be bb b3 78 a6 bc 7e f7 83 bc f0 34 15 bb
       -0.005800156 -0.020321226 -0.016109224 -0.002276715
0000c0 36 dc 20 3d 60 61 d3 36 02 6d 40 bc 0d b7 c7 bb
       0.03927251 6.299626e-06 -0.0117447395 -0.0060948194
0000d0 66 6c 5a 3c fa 2b 91 bc fd c4 a7 3c d5 c5 47 3c
       0.013331508 -0.017721165 0.020479674 0.012193163
0000e0 fc 20 2c 3d 84 ad a1 3a c6 e6 3f bb 8b 44 76 3c
       0.042023644 0.0012335037 -0.0029281839 0.01503099
0000f0 37 07 5b bc 57 97 bc bc 48 49 12 bc ed bd 22 3d
       -0.013368419 -0.023021383 -0.008928604 0.03973191

weight f4 [10, 64]
000000 e3 a5 36 bd 04 58 8e 3d bf 51 46 bd cb a7 c0 3d
       -0.044591796 0.069503814 -0.048417803 0.09407004
000010 d8 0a 22 3d 23 58 c4 bb 4c 7a a1 3d d0 83 91 3d
       0.039561123 -0.005991952 0.078846544 0.07105219
000020 44 40 9a 3d f7 5d 66 3d a8 66 ff bd 65 68 9f 3d
       0.07531789 0.056241956 -0.12470752 0.077835836
000030 c4 be 14 bd ab 4c f6 3d 16 ce c8 3b 22 56 48 bc
       -0.03631474 0.12026342 0.006128083 -0.012227567
000040 e7 c5 8f bd d6 af 91 bd 7e c4 34 bd e0 ff 88 3d
       -0.07020169 -0.07113616 -0.044132702 0.06689429
000050 0e 45 af 3d 2b 7b c3 3d c0 07 eb bb 30 d7 ae 3d
       0.08558093 0.09544977 -0.0071725547 0.085371375
000060 0c 0a ff bc d4 71 b3 bd e7 cd b3 3d d9 77 2f 3d
       -0.03113272 -0.08761945 0.08779507 0.042838905
000070 e5 08 fb 3d 16 5c 5c 3b 35 13 96 3d fb e5 f2 3d
       0.12257556 0.0033624223 0.07327882 0.118602715
000080 eb 4e f1 3c 23 f1 03 3e b7 d7 ac 3d 05 fb 86 3d
       0.029456576 0.12884955 0.08439582 0.06590847
000090 e8 50 93 3d f5 30 97 bd 1b 92 d8 bd 1c 8d fd bd
       0.07193166 -0.07382385 -0.105747424 -0.1238043
0000a0 cd 35 69 3d bb a9 a5 3b 38 af 87 bc c4 2a 9e bd
       0.056936074 0.005055634 -0.016563043 -0.07723001
0000b0 69 df 00 bd 91 4c b5 3d c7 01 a3 3d 1f 0a ff 3d
       -0.03146306 0.088524945 0.079593234 0.12453102
0000c0 c7 62 63 bd 04 61 dc bd a7 1e 92 bd d8 77 dc 3c
       -0.055514123 -0.10760692 -0.07134753 0.026912615
0000d0 49 e0 93 bd c0 fa cc bd db e5 a9 bc 28 5f b4 bd
       -0.072205134 -0.10008764 -0.020739486 -0.08807212
0000e0 80 83 8d bd 03 01 05 3e f4 26 1a 3c 1c 7a 5d bd
       -0.06909847 0.12988667 0.009408701 -0.05407153
0000f0 7a e2 05 be 24 55 c8 3d 16 0d 63 3d 79 38 90 bd
       -0.13074675 0.09781864 0.0554324 -0.07042021
000100 e9 d6 a2 3b c0 1d 5f bc 4e 25 1c 3c 31 7a fb bd
       0.004969467 -0.013617933 0.0095303785 -0.122791655
000110 d4 24 2b 3d a2 49 12 3d 17 b5 4d bd a5 de 29 3d
       0.04178317 0.035714753 -0.05022153 0.041472096
000120 ea de b6 bd 50 41 75 bd 36 6d 86 bd c1 2d a5 bd
       -0.08929236 -0.05987674 -0.06563799 -0.080653675
000130 d6 3a a5 bc ff d7 88 3d 78 7a 84 bd 27 ef 05 bd
       -0.020169657 0.06681823 -0.064686716 -0.032698777
000140 53 c8 fe bd 57 ca 42 bd 00 94 8f bd 5e be 25 3d
       -0.124405526 -0.047556248 -0.07010651 0.04046475
000150 fc 43 11 3e 48 9f 3c bd d0 4b 8e bd 6c 9d 10 3e
       0.1418609 -0.04605034 -0.06948054 0.14122552
000160 2c 74 fe bc 38 a8 89 3d 8e 00 d9 bd 42 ef d4 bd
       -0.031061254 0.06721538 -0.10595809 -0.10397197
000170 70 40 0a 3e 60 a0 c8 bc f2 0d 8a bd e0 a2 f8 bd
       0.13501143 -0.024490535 -0.06740941 -0.12140441
000180 98 c7 b9 bd 94 22 a5 bd f6 25 94 bd 5a 0c bc bd
       -0.090712726 -0.08063236 -0.07233803 -0.091820434
000190 cc f4 8c bc c4 af 93 bd 56 bb aa bd 08 87 9a bd
       -0.017206572 -0.07211259 -0.08336513 -0.075452864
0001a0 3e a4 b8 bd cd cb c6 bc 3b 66 fe bd d0 3f aa bc
       -0.09015702 -0.024267102 -0.12421843 -0.020782381
0001b0 75 e2 e8 bd 9f 3e 22 3e de 40 84 bd f2 c5 61 bd
       -0.11371318 0.158442 -0.06457685 -0.055120416
0001c0 25 cb 8b 3d 36 fa f5 3d 0c 5b a2 bd 67 fc 41 bd
       0.06825856 0.120106146 -0.07927522 -0.04735985
0001d0 fe 24 02 be 5e 3b d0 3d 67 44 cd bd 80 10 52 bd
       -0.12709424 0.101675734 -0.10022812 -0.051285267
0001e0 8f 7d c4 3d 14 fc eb 3c 98 cd 90 3c 66 a3 f8 3d
       0.09594261 0.028806724 0.01767616 0.12140541
0001f0 e1 c2 d3 3d 3d 86 cb bd 9a db aa bd d5 ad 58 3c
       0.103399046 -0.09937713 -0.08342667 0.013225039
000200 33 3d 5f 3d ae d0 b4 bd f7 1d aa 3d 0f 0c 29 bd
       0.054501723 -0.08828865 0.083064966 -0.041271266
000210 0a 6d a7 3d b8 a4 0d 3d 8a 89 05 be 93 d6 26 bd
       0.081750944 0.034580916 -0.13040748 -0.040731978
000220 34 6f d6 3d d1 d1 85 3d 78 fa 06 3d 77 34 ff bc
       0.10470429 0.0653416 0.03295371 -0.031152947
000230 be d8 42 bd 0f e5 e6 3d 54 ad f7 bd 25 97 ee bd
       -0.047569983 0.11274158 -0.120936066 -0.11649922
000240 11 37 87 bd 6f a0 76 3d 99 4d 84 3d d5 d0 c0 bd
       -0.066023 0.060211595 0.06460113 -0.094148315
000250 05 48 1e 3d 13 99 82 bc b7 7b a5 3d 4a 3d b6 3d
       0.038642902 -0.015942132 0.08080237 0.08898409
000260 ce 8c 8a 3d 6f fe 1e bd e8 57 f3 bd f4 db 92 3b
       0.067651376 -0.038816866 -0.11882001 0.004481787
000270 64 a0 82 3d 68 62 e2 bc d3 b2 e0 3d 5b 55 48 3c
       0.06378248 -0.027634814 0.10971608 0.012227382
000280 d5 cc cc 3d 67 3a 3a bd 1d 54 ac bd 72 c5 e5 bc
       0.10000006 -0.045465853 -0.08414481 -0.02804825
000290 0b 57 0b 3d 23 85 ba bd ed 16 82 3d 6f 78 95 3d
       0.034018558 -0.09107425 0.06352029 0.072983615
0002a0 59 4f 4c bd 00 22 80 bd 41 e6 95 3c 3f 1e c6 bd
       -0.04988036 -0.06256485 0.01829827 -0.09673738
0002b0 80 c3 f2 bd cd db 8c 3d c1 5f 24 bb 58 cd 7a 3d
       -0.11853695 0.06877861 -0.0025081488 0.061230987
0002c0 c5 42 65 3d cb 7e 9a bd 77 03 62 3c 44 1a 42 3b
       0.05597188 -0.07543715 0.013794771 0.0029617706
0002d0 21 05 0f bc 6b f7 0f be 76 58 bb 3d 7f 37 96 bd
       -0.00872925 -0.14059226 0.09147732 -0.07334804
0002e0 20 85 4d 3d 03 7e 55 3d fa ba 91 bc 7a 9c df bd
       0.050175786 0.052122127 -0.017789353 -0.109185174
0002f0 d2 65 59 bd 80 b0 3c 37 dc b7 6f 3d 9a 97 3b 3d
       -0.05307562 1.1246768e-05 0.05852495 0.045798875
000300 8f 9e 54 3c c5 11 ac bd f8 cd de bd 51 c3 63 3d
       0.012977256 -0.08401827 -0.10879129 0.05560619
000310 70 8f a3 3d 04 96 bf 3d fc ae 01 be c4 cc b0 bd
       0.07986343 0.09354785 -0.12664407 -0.08632806
000320 3d e6 ef 3d de 5c ff 3d 7f 4b 8b bd f7 88 2d bc
       0.11713836 0.12468885 -0.06801509 -0.010591737
000330 bf 86 a1 3b 3d d8 39 3d 3b 12 f3 bd 5d 57 82 bd
       0.004929393 0.045372237 -0.118687116 -0.063643195
000340 c2 8f 9b bc 6a a8 9c bc fc a4 57 3b 6c 24 ef bd
       -0.018989448 -0.019123275 0.0032904735 -0.11676869
000350 75 77 01 3d a2 f7 2a bc fd 85 c7 bd aa fa d5 bd
       0.031608064 -0.010435017 -0.09742353 -0.10448201
000360 bb 10 21 bd 68 98 c5 bd d8 bf 88 bd cc 8c 38 bd
       -0.039322596 -0.0964821 -0.06677216 -0.04505615
000370 9f 10 e8 bd fa b6 36 3d ef 27 4c bd ab 0b d9 bd
       -0.11331295 0.044608094 -0.04984277 -0.105979286
000380 14 11 dc bd 52 3c 9b bd 92 78 8d 3d b8 ac ae bd
       -0.10745445 -0.075798646 0.069077626 -0.08529037
000390 73 a3 90 bd bc d7 4a 3d f4 19 88 bc b9 3f ae bd
       -0.070624255 0.049522147 -0.016613938 -0.08508248
0003a0 ee a6 b3 3d e7 9d 74 3c 99 2e d6 bd f7 6f 97 3d
       0.08772074 0.014930225 -0.104581065 0.073944025
0003b0 c5 0d b0 bd 11 a3 a8 3c 75 34 fb bd ab 0a b1 bc
       -0.08596376 0.020585569 -0.12265865 -0.021611532
0003c0 3c 93 fd 3d ad c1 aa 3c e1 7b 9d 3d a9 2e 3a 3d
       0.12381598 0.020844305 0.07689644 0.045454655
0003d0 7c a2 aa 3c 42 75 39 bd 6f d1 7c bd df b0 84 3d
       0.020829432 -0.04527784 -0.06172317 0.06479048
0003e0 75 d2 02 3d 98 43 c9 3c d1 b5 21 3d da ba c0 3d
       0.03193899 0.024568364 0.039480034 0.09410639
0003f0 fd 3c c5 ba 24 bb 57 3c 09 1d 8d 3d b1 50 ae 39
       -0.0015048083 0.013167176 0.06890304 0.00033247986

bias f4 [10]
000000 6a d2 f8 bd 12 99 9f bd ef 64 b9 bb c7 20 c5 bd
       -0.12149508 -0.07792868 -0.005657784 -0.096253924
000010 3a ce a3 bd e7 fa 66 bd 24 60 92 bc 15 0f ac bd
       -0.07998319 -0.056391623 -0.017868109 -0.08401314
000020 38 21 a8 bd 04 37 78 3b
       -0.08209461 0.0037874589
