tudui_2.pth (torch, 588600 bytes, 10 tensors)

weight f4 [32, 3, 5, 5]
00000000: 6fb9 a3bd c8e6 b53d 745c 1f3d ab75 893d
00000010: 83d1 0fbc ad94 633c 8ba3 903c c576 95bd
00000020: ba6b e53d 55d9 96bd 14a0 993d 67be 963d
00000030: ef0a d23d 6988 93bd 63b7 0e3d 5f95 6abb
00000040: aa87 bbbd eb67 d33d 0aba a13d b038 c4bd
00000050: 4c47 67bd d0b6 f9bd 88ee fdbd 401a 193d
00000060: b1ba ecbd dfee a83d 14dd 70bd 285c e23d
00000070: 33c3 ff3d 9e7b 5bbd a029 53bd 5871 c9ba
00000080: 08ec a33d f837 c2bd 7407 eaba 2d3a 96bd
00000090: c3d9 9bbc 2d27 a03d d5e6 4bbd 9a2b 86bd
000000a0: e675 92bd 0861 543d 5830 ffbd 550c 3d3d
000000b0: 6cde 05bd e8e0 22bd 8548 10bb d254 8d3d
000000c0: bfc3 aebd 8510 5dba 6d2c 0e3d 40d0 613d
000000d0: 0b51 f13d d297 543d 54e9 ee3d 7780 70bd
000000e0: cb7f 2fbd bd41 aabd bdb1 e73d 0f25 5f3c
000000f0: 88a6 debd e149 febc 9f4f 063d 0c54 7c3c
00000100: 670d 653d 3ce1 cc3d 7810 b0bd 50e7 e1bd
00000110: 44ab 983d 0daa 9c3c 52a5 32bd d6db dfbd
00000120: c75d d63c f532 ebbd 4487 a5bd efd1 47bd
00000130: ddd2 ae3d 10be 043e 9995 8f3d 6628 4e3d
00000140: 69a0 9c3c 5bf2 283e a9fb c23d 3336 023e
00000150: f436 e53d c74f adbc 98ca ff3d 1baf 943d
00000160: 7b9d 853d e80c 8a3d 0a1a ef3c 6aa9 3f3d
00000170: c9d6 5b3d 77bf 9dbd ea84 36bd 4ff4 4b3b
00000180: 100e 4ebc cf63 1dbd 5f4a 3fbd b49a bdbd
00000190: cf06 a2bd 966b 8cbd 9eab 81bd a4d8 cebd
000001a0: f2c7 40bd 9801 87bd 3ad7 5dbd cadb 2c3d
000001b0: 766d 983d 6794 ac3d ccbe 9a3d c39f 823c
000001c0: 410b 343d a933 f2bc 6bd3 813d 5844 dbbd
000001d0: ceb9 1abe fd66 133d aebf 82bd ae2a 7f3b
000001e0: a00b 83bb 059f 1abe 670c 94bd 2464 34bd
000001f0: 4b41 efbd 411b f0bb 2e29 9e3a 9d39 aebd
00000200: e973 3a3d 8408 eabd e661 aebc 9914 ac3d
00000210: 83fa 95bd 0e18 923d 7832 eb3d ca57 4dbc
00000220: 8ac6 d43d 86ce e83d e26e 1abb 3051 dd3d
00000230: 049e 00be cd25 fbbd 8454 adbd bbe9 23bd
00000240: c330 8cbd dfbb c3bc 73e1 babd 8edf 5a3c
00000250: e9bc 74bc 01b6 763c a37c aa3d d39e 75bd
00000260: 662d af3d fcda 323d a9b0 42bd 1f4e ccbd
00000270: b6ff 87bd 2eab 83bd b737 a53d 0dce 353d
00000280: 3be8 babb ce01 9a3d 9ed6 bfbd 08f6 d3bd
00000290: 8a85 0fbd 42ab fcbd f5bf 753d 05c5 7fbd
000002a0: ede8 61bd a9cd e53c d5b2 bbbd 8821 16bc
000002b0: 5b87 2c3d 0a14 a73d b1ec e33c 532d 43bb
000002c0: 369a 4dbd b1f7 463d 1490 c8bb 484b 9fbd
000002d0: 1a6e 613d 716e e13a 348a c3bd cbb1 5b3c
000002e0: b4a2 a13c b526 ac3b bc79 413d f752 2ebd
000002f0: c25c e93c 91dd c5bd c943 693d 02cc bf3c
00000300: a303 f7bc fbc0 2a3c 5cad 06be 1a92 9cbd
00000310: 3242 d7bd 9d06 15be 8eee 8cbc fd2e d8bd
00000320: d24b 703d 7018 4dbd f0d5 cebc 40b5 ce3d
00000330: 4547 0e3e 7726 c73d 935b 0c3e 6d33 183e
00000340: 58f7 bd3c f7ed d73b a3cc 9fbd 0984 b63d
00000350: 9a80 8a3d c8ed 5b3d 7a1a a7bd c565 9b3d
00000360: eac7 413d f026 603d b9ce e63d 5b20 e83d
00000370: cbf6 a7bc d63f 893c 9cd9 78bd ce43 3f3c
00000380: 67d5 833d be4a 97bd f0e6 183c 2e36 033e
00000390: 4465 b03b 4419 3bbb 0a4f e83b 7bcf b43d
000003a0: 6e98 b7bd 9556 203d 5f91 91bd 9f66 fabd
000003b0: 6067 5d3c c28f bbbd 58f6 9a3d 029a 0ebd
000003c0: 8a2f c5bd 3953 73bd 17e3 28bd 0454 0d3d
000003d0: c957 b7ba 5bb7 023c 4cd3 28bd 5441 aebc
000003e0: b2ad 01be a9a9 02be a585 e43c 6fbb 633c
000003f0: 302d bfbd acec 24bd b677 3e3d d1d8 61bd
-0.07994353 0.08881909 0.03890653 0.067118965 -0.008777979 0.013890428 0.017656108 -0.07298044
0.11202188 -0.073656715 0.075012356 0.07360535 0.10255992 -0.072037525 0.03484286 -0.0035794599
-0.09156735 0.10322555 0.07896812 -0.09581125 -0.05646448 -0.12193072 -0.12399012 0.03737855
-0.11559046 0.08248686 -0.058804587 0.11052734 0.12488403 -0.053584687 -0.05155337 -0.0015368862
0.08004004 -0.094833314 -0.0017855004 -0.07335315 -0.019024735 0.07819972 -0.049780685 -0.06551285
-0.071513936 0.05185035 -0.12460393 0.04615434 -0.03268282 -0.03976527 -0.0022015881 0.06900944
-0.08533429 -0.00084329426 0.034710336 0.055130243 0.11783036 0.0519026 0.116655976 -0.058716264
-0.042846482 -0.0831332 0.11313198 0.013619675 -0.10871607 -0.031041088 0.032790776 0.015400898
0.055920985 0.100038975 -0.08596891 -0.110304475 0.07454541 0.019124055 -0.043614693 -0.10930602
0.026167763 -0.11484329 -0.080824405 -0.048784193 0.08536313 0.12963128 0.07010955 0.050331496
0.019119458 0.16498701 0.095206566 0.12715988 0.11192122 -0.021156205 0.124898136 0.07259961
0.06524178 0.06740743 0.029187221 0.046792425 0.053671632 -0.07702535 -0.04456035 0.003112096
-0.012576595 -0.038425263 -0.046701785 -0.09258023 -0.07911455 -0.06856458 -0.063315615 -0.10099915
-0.047065683 -0.06592101 -0.054160334 0.042201795 0.07442753 0.08426743 0.07555923 0.015945321
0.043956045 -0.02956565 0.06339153 -0.10706395 -0.15109941 0.03598689 -0.06384216 0.0038935351
-0.0039991885 -0.15099724 -0.07228928 -0.044040814 -0.116823755 -0.0073274677 0.0012066716 -0.085070826
0.045520697 -0.114274055 -0.021286916 0.08402366 -0.07323172 0.07133494 0.114842355 -0.012533138
0.10389431 0.11367516 -0.0023564626 0.10806501 -0.12560278 -0.12263069 -0.08463386 -0.040017825
-0.06845238 -0.023893295 -0.09125032 0.013358964 -0.014937618 0.015058042 0.08324554 -0.05996592
0.08553581 0.04366587 -0.047531758 -0.09975838 -0.0664057 -0.06429134 0.080672674 0.04438596
-0.0057039536 0.075198755 -0.09367107 -0.10349661 -0.035039462 -0.12337352 0.059997518 -0.06244375
-0.055153776 0.028052168 -0.09164969 -0.009163268 0.042121273 0.08158119 0.027822824 -0.0029781654
-0.050195895 0.04857606 -0.006120691 -0.07778031 0.05503664 0.0017199052 -0.095478445 0.013409088
0.019730903 0.0052536377 0.047235236 -0.04255959 0.028486613 -0.09661401 0.05694941 0.023412708
-0.030153101 0.010421987 -0.13152069 -0.07645054 -0.10510673 -0.14553304 -0.017203595 -0.10555837
0.058666058 -0.050072134 -0.025248498 0.100931644 0.13894375 0.097241335 0.13706808 0.14863367
0.023189232 0.006589647 -0.07802703 0.089119025 0.0676281 0.053693563 -0.08159347 0.075877704
0.047309794 0.054724634 0.11269898 0.11334296 -0.020503422 0.016754072 -0.060754403 0.011673881
0.06437188 -0.07387303 0.009332404 0.12813637 0.0053831656 -0.0028548995 0.0070895003 0.08828636
-0.089646205 0.03914507 -0.071078055 -0.12226605 0.013513416 -0.09158279 0.075665176 -0.034814842
-0.09628208 -0.05940554 -0.041232195 0.03450395 -0.0013987954 0.007978286 -0.041217133 -0.021271385
-0.12663916 -0.12760033 0.027895758 0.013899668 -0.09334791 -0.04026477 0.046500884 -0.055138413

bias f4 [32]
00000000: 3e83 d4bd f89b 66bc 76d6 bbbd 6ff2 d53c
00000010: 82ff 90bd d312 cd3d e99c 063e 4c7c 21be
00000020: 4cfa 5b3d 51d7 b93c 8e76 27bd 9411 013d
00000030: f1dd 7cbe 81d9 273e 0ae2 6abd 2b37 70be
00000040: 668a 903a ff85 8cbc e7a2 423e 4b29 943b
00000050: b96f 103a a837 09be 80fa 63bc b72e 023d
00000060: 717c 99bc 4810 903d 49ba a6bd 9688 2cbc
00000070: 0eed 1e3e c74a 45bc 331d cebd d4c5 843a
-0.10376595 -0.014075272 -0.091717646 0.026116578 -0.07079984 0.10013356 0.13145794 -0.15770072
0.0537055 0.022685679 -0.040884547 0.031510904 -0.24694039 0.16391565 -0.057344474 -0.23458545
0.0011027574 -0.017153738 0.19007455 0.004521524 0.0005509812 -0.13400137 -0.013914704 0.031782832
-0.018736096 0.070343554 -0.08141 -0.0105306115 0.15520117 -0.012041754 -0.10064163 0.0010129758

weight f4 [32, 32, 5, 5]
00000000: 1fe6 c63c 062c 43bc 6ccb 0cbb 979a f1bc
00000010: 34f2 af3c 9316 0e3d 1d41 11bd 9531 0cbd
00000020: 3186 f2bc 86be adbb d707 c3bc 4fc7 2d3c
00000030: abae dcbc b944 953c b77f 3cbc 7ffb a6bc
00000040: c739 023b dd2b 073d 54ca b5bc f750 dfbc
00000050: 5966 e43c 9511 a2bc 366d 0f3d 7b82 2fbc
00000060: 65e3 82bc 7c73 15bd 5d68 0bbd ce1c 1a3b
00000070: 2616 2f3c b5fe a13c 7dab c4bc 4eb8 df3c
00000080: 694d 173c 69d6 cc3c c970 05bd cb48 383c
00000090: 4109 ecbc 151e 27bb 91f7 ca3c 3285 02bd
000000a0: d003 7abc 9692 513c 3c3c cc3c 1e1a 7d3c
000000b0: 4f2f cc3c e7ac 553c 1cd3 35bc fd0e ccbb
000000c0: a685 383c 2d55 cc39 a40e e9bc bf1d b3bc
000000d0: 43ed 8ebc 4ffe 11ba 8d64 c83b 8e47 9bbc
000000e0: 3bdb a7bc 3371 763c 7011 c2bc db35 073c
000000f0: ac59 d8bb 6e84 02bc 7e16 ebbc 2717 0ebd
00000100: ad45 d3bc ccc3 fcbc b05c f3bc 2892 c03b
00000110: 2ec2 b53b cff1 ddbc d2f9 11bc 4e08 cb3b
00000120: 6351 153c dd56 c33c 48f3 183d 0258 863c
00000130: 6964 943b f98c f8bc 54b7 c5bc 1f19 fbbc
00000140: 0f5b e0bc ff5c d83c 7278 3d3c 895a 8cbc
00000150: 4b3f dcbc 5016 a1bb f8b6 5cbc e4f2 eabb
00000160: 20bc 03bd 5f4e a4bc 407e b9bc b76e fcbc
00000170: 0e58 613c 0dac 8e3c d48d e83b 9df8 1cbc
00000180: e00c 003d 6aa5 3ebc b49e 9dbc 6e60 233c
00000190: 10f6 c2bb c61b 063d 6f29 acbc 8a2e cdbc
000001a0: da9e f23c 03bd 583c 87d3 143c 47ef b23c
000001b0: 21a8 0cbc ee61 5f3c caa0 3c3b e3c0 f0bb
000001c0: 8ede 96bc 9dbe d63c 44d0 8a3a c6bc 7b3c
000001d0: 2515 0d3d 3b72 df3b 2115 ecbc bd92 be3c
000001e0: 63a5 1c3d ab7f aabc 9232 f73c 2662 0a3d
000001f0: 577a d73c c24d f13b f521 a4bc c282 05bd
00000200: e8bd 80bc 76dc e53b 17a6 a53c 5a72 f1bc
00000210: c780 95bb 216d 5cbc a215 39bb 0cb9 15bd
00000220: 0e96 a23c 5695 bfbb 4373 d1bb a18d 213c
00000230: dc53 fabc 09dc d03b 1ca0 ab3c a55a 0c3c
00000240: 8271 aebc 6add e53c b7d2 ab3c 18ab 363d
00000250: 3f1b b53b 215d 1ebb fe54 07bc 5dc9 91bc
00000260: c9a1 fd3c 71e9 b93b e228 f63c 3221 c13c
00000270: 9d27 f8bc 9f6b c43c b827 e0bc 9b54 a7bc
00000280: 8966 df3c 8eb8 1ebd c96e c1bc 1ac0 da3c
00000290: 2e99 2f39 2e57 e3bb e618 77bc 9b93 1dbd
000002a0: d780 abbb d7e1 4e3c c838 8fbc ba5d dfba
000002b0: 00d4 0bbd 0a65 483c 881a c9bc fecb 513b
000002c0: 090e 32bc 118c ebbc 07a6 cb3c ace3 d93c
000002d0: c768 8cbc bcb1 bdbb 02c1 0a3d 44f6 923c
000002e0: 3ae8 4abb deb9 b0bc 83c0 9bbc 1f17 b9bc
000002f0: 3c22 c83b be43 ec3c 2168 d9bc 7afc 0bbd
00000300: d252 003d a28e 96bc 64a5 e53c 3ddc 00bd
00000310: ba29 14bd 4f92 773c 08aa 12bc de27 c43c
00000320: 8469 593c 9680 06bb e80d ef3b a4ad e8bc
00000330: 8f8e e2bc 1542 b4bc 3513 cfbb 5d70 bc3c
00000340: 41a8 953c ff1c c3bc a9aa a9bc 7d24 0b3b
00000350: 559e 953b 2a4a a7bc fbb2 a8bc a73d 813c
00000360: 7635 563c 0e88 71bb d0f0 f5bc 15d5 be3b
00000370: 137f 953c c4a6 c73c a908 cbbc cd77 3fbc
00000380: 0f60 e93c ca2d 29bc 5a88 053d 4744 6c3c
00000390: 8630 75bc 5be1 7abc c721 60bb bd5a de3b
000003a0: 9bf2 5cbc 705b 08bc b754 2fbb a7ce 8bbc
000003b0: ea83 29bb 86b3 383c e751 0dbd b509 ccbb
000003c0: 1f88 4ebc 68d3 ebba e095 703c 48ad b33c
000003d0: 4308 7fbc ef42 173c 2aed 2b3c 74b4 e03c
000003e0: 84a1 d13c 1af3 213c dba8 4dbc 8457 c7bc
000003f0: 134f d33c 883d 0ebd d3d8 42bc d3e4 d3bc
0.024279652 -0.0119123515 -0.0021483554 -0.02949266 0.021477796 0.034689497 -0.035462487 -0.034226973
-0.029605003 -0.005302253 -0.02380745 0.010606601 -0.026938757 0.018221246 -0.011505059 -0.020383595
0.0019870864 0.033000816 -0.022191204 -0.027260287 0.027880834 -0.019783774 0.03501626 -0.010712261
-0.01597757 -0.036487088 -0.034035075 0.0023515704 0.010686433 0.019774774 -0.024007553 0.027309563
0.009234765 0.025004582 -0.032578263 0.011247824 -0.028813006 -0.0025500108 0.024776252 -0.031865306
-0.015259698 0.0127912965 0.024931066 0.015448121 0.024924902 0.013041711 -0.011097696 -0.0062273727
0.011262333 0.00038973373 -0.028449364 -0.02186477 -0.01744712 -0.0005569206 0.006115502 -0.018955018
-0.02049028 0.015041637 -0.023689955 0.008252586 -0.0066024866 -0.007966144 -0.028697249 -0.03469005
-0.02579006 -0.030855082 -0.029707283 0.005876798 0.0055468297 -0.027092842 -0.008909659 0.0061960584
0.009113642 0.02384513 0.037341386 0.016399387 0.0045285714 -0.030340659 -0.02413527 -0.030651627
-0.02738717 0.026411531 0.011564361 -0.017133014 -0.02688565 -0.00491599 -0.0134713575 -0.007170068
-0.03216183 -0.020056901 -0.022643209 -0.030814512 0.013753904 0.017416025 0.0070969854 -0.009580758
0.03126228 -0.0116361175 -0.019240715 0.009971721 -0.005949743 0.03274133 -0.02101585 -0.025046606
0.029616762 0.013228658 0.009083635 0.021842612 -0.008585007 0.013634188 0.0028782361 -0.0073472126
-0.01841667 0.026213938 0.0010590632 0.015364831 0.034443993 0.0068190373 -0.028818669 0.02326333
0.038243663 -0.02081283 0.030175481 0.033785008 0.026303453 0.007364006 -0.020035723 -0.032595403
-0.015715554 0.0070148064 0.0202208 -0.029473472 -0.0045624706 -0.013453753 -0.0028241654 -0.036553428
0.019846942 -0.0058466597 -0.006391914 0.009860427 -0.030557565 0.0063738865 0.02095037 0.008566533
-0.02129436 0.02805968 0.0209745 0.04459676 0.0055269296 -0.0024164396 -0.00826001 -0.017796213
0.030960934 0.0056735803 0.030048791 0.0235754 -0.030292327 0.023977099 -0.02736269 -0.020426085
0.027270572 -0.038750224 -0.023612397 0.02670293 0.00016746364 -0.006937883 -0.01508162 -0.038470846
-0.0052338648 0.012627087 -0.01748313 -0.0017041482 -0.034137726 0.012231121 -0.024548784 0.0032012458
-0.010867604 -0.028753312 0.024859441 0.02659782 -0.017139805 -0.00578901 0.033875473 0.017939694
-0.0030961172 -0.021573003 -0.019012695 -0.022594033 0.0061075967 0.028840896 -0.02653891 -0.034176327
0.031328984 -0.01837856 0.028032966 -0.031460036 -0.036172606 0.015110566 -0.008951671 0.023944791
0.013269786 -0.002052342 0.007295359 -0.02840311 -0.027655868 -0.022004167 -0.0063194283 0.023002798
0.018268706 -0.023817537 -0.02071126 0.0021231466 0.004565994 -0.020421106 -0.020593157 0.015776468
0.0130742695 -0.0036854777 -0.030022055 0.005823741 0.01824907 0.024371512 -0.024784403 -0.011686278
0.028488187 -0.010325858 0.032600738 0.014420575 -0.014965182 -0.015312518 -0.003419982 0.006785719
-0.013485576 -0.008322582 -0.0026753375 -0.017066313 -0.002586598 0.0112732705 -0.034501936 -0.006226743
-0.012605696 -0.0017992081 0.0146841705 0.021933213 -0.015565935 0.009232267 0.010493556 0.027429797
0.025589712 0.00988462 -0.012552465 -0.024333723 0.025794541 -0.03472665 -0.011892515 -0.025865948

bias f4 [32]
00000000: 5878 22bd 91bc e4bb b9d2 293d 3f54 23bd
00000010: 9fd0 603d 4772 223d ef20 d9bb 70ae 853c
00000020: 0fd3 ba3c c9af 78bd d518 70bd ad09 80bd
00000030: dabd dcbc b429 01bd 6191 043d 06a8 80bd
00000040: 8220 a7bb c961 2cbd 4b0b 903d dbf2 19bd
00000050: da18 e3ba fb3c 4cbd 6985 90bd 8592 653d
00000060: a065 023d 8a41 54bc be4f 05bd f6ba 1fbd
00000070: b3d7 cebc 8d1a 2c3d 6444 723a fa01 073a
-0.03966555 -0.0069804867 0.041460726 -0.039875265 0.054886457 0.039659765 -0.0066262404 0.01631853
0.022805719 -0.060714517 -0.05861743 -0.062518455 -0.026945997 -0.03153391 0.032365207 -0.06282048
-0.005100311 -0.042085443 0.07033404 -0.03758512 -0.0017326132 -0.049862843 -0.07056696 0.056047935
0.0318352 -0.012955079 -0.03254675 -0.03899666 -0.025249338 0.04201751 0.00092417584 0.0005150136

weight f4 [64, 32, 5, 5]
00000000: 98cb bcbc 8b39 c43c 70fa 12bc df91 12bc
00000010: 3185 263c c168 d4bc cffe 9ebb fde0 0fbd
00000020: 4dcc 04bc affc c23c 87db d23c e99c 343c
00000030: d0d1 99bc 83eb ce3c 58c5 e33c 7995 ecbc
00000040: a0ed 103d 36d9 e6ba b27b debc 6a94 eabc
00000050: 0ae7 22bc dda8 fdbc 64e2 35bc 6edc 99bc
00000060: 12dd 263c 7355 c93c 5b68 7db9 1883 373b
00000070: d08a 2ebb 36ca e83c db86 0fbd 54ab bebc
00000080: b7e2 183c e912 92bc d1c2 1e3d b97b d5bc
00000090: 0f9d c43b aad3 a73c 7976 283d 8c6d 40bb
000000a0: fc6b a0bc b883 203d 07a7 b6bc 377e 603c
000000b0: da86 0c3c 0431 f83a 4ab7 a7bc e2ac 8bbc
000000c0: 7eac d2bc 4ace b23c 5515 853c 6e4a ffbc
000000d0: 307c 3dbc 33c0 123c 1729 c73c 64fa 203d
000000e0: b469 9239 e595 6a3c a934 1d3d 97b2 073d
000000f0: 156d aa3c 4e6d d43c 020d 423d 7436 443d
00000100: 3608 08bd e73b 2e3c ebbf 8cbc a057 dbbc
00000110: 9208 8e39 3b00 87bc 76fd 753c 4df3 4cbc
00000120: dcad 6ebc b31a 143d 74c9 663b bc97 d4bc
00000130: d60e a63c e36e 033c 4e57 b5bc 315b 76bc
00000140: 36fa a73c 9a8e 19bd 2856 d73b 4231 ea3b
00000150: 06d8 2dbc 729e b8bc 10f7 ca3b d5de 523c
00000160: c235 8b3c 7830 4ebc 3fd2 ac3c 4c12 eabc
00000170: a74d c2bc dffc 78bb 4a96 e43c dbaa 81bc
00000180: 849e ccba e3eb ab3c 7d4e bd3c 6a7b 05bd
00000190: 5846 a2bb b26f d8ba a599 353c f170 ad3c
000001a0: 4eca 673c 4449 ccbc b2de 96bc b263 dbbc
000001b0: 262a 7a3c 9bc0 333d 9907 22bc c8e4 06bb
000001c0: 30bf 183d 7006 903c a3b0 763c eea6 a239
000001d0: f895 8a3c 743e 263c 2932 d7bc 5e70 51bc
000001e0: 4956 53bc 9a2d 87bc 81f1 e2bc c93f 533a
000001f0: 02f0 093d cde3 0c3b 6770 c53c 141d 2d3c
00000200: aa9e 813b 638d 9bbc e633 7d3c fee8 033d
00000210: 11d3 b73c 4f2d a0ba 923b 00bd 09c5 013d
00000220: 643c 013d f73b 02bc 08fb 98bc 844c debc
00000230: ecb7 02bc 9faa b1bc 8ae5 46bc 242c 86bc
00000240: c08b b23a dea3 053d 6dd2 5ebc 5dbd 0f3d
00000250: 9d8d 953c 799f c03c 6745 85bc ccb4 ac3c
00000260: ea58 0b3d 86b5 c6bc b324 18bc 3943 043d
00000270: a634 05bc e6cc a73c 7041 fbbb 258d 27bc
00000280: 3d85 033c 44e5 193c aa20 4ab9 b4d5 dbbc
00000290: 8bef 2ebc 1148 c83b 7477 08bd 59ce 96bc
000002a0: 6c51 183c 1cd9 c0bc c6dd 9f3c a913 80bc
000002b0: 4ee1 483c fa0f b4bc 8ea3 15b9 5946 c439
000002c0: 165d 2e3d 2aa4 af3b 49b0 4ebc 1c8a 363d
000002d0: e319 7d3c c4e5 523d bd8e fe3c 6c08 2e3c
000002e0: 19ce 183d c51b ea3c 5a8a 1c3d 8495 163d
000002f0: d092 0f3d 6066 a83c 0ac8 bcbc 8557 27bd
00000300: ca96 3c3c bd30 06bd 4480 21bd 4040 34bd
00000310: bf19 10bd e9d0 b6bc ac0f 083d ee13 953c
00000320: 5eeb 893c 8586 ec39 bd96 98bc 4062 083c
00000330: 686e 43bc a293 763c 2ff3 96bc 5ed7 233d
00000340: 1d84 c83c b094 89bc 69bb bfbc 6d19 07bc
00000350: e85a 8cbc ad24 433c 142e c2bc cfbd 0ebd
00000360: 4dc9 c83c 9bdc dc3c 492c 8f3a d51e 01bd
00000370: 99ef f5bc 2e23 f7bc 3f26 033d 71e7 653c
00000380: 5bf4 073d 8348 e6bc 32d0 8b3c 9ce7 87bb
00000390: 34d7 9d3c 649b a7bc aef6 223a ad03 6d39
000003a0: 2d55 253d d575 d3bc 7e0f bbbc 8415 a23c
000003b0: 04d2 923c c0d4 813b 1559 eebc d377 2fbb
000003c0: 75d4 dabc 9abf b93c 0dd6 843c 06e5 f53b
000003d0: 9b94 d03c 7ef6 11bd 7472 73bb f709 dfbc
000003e0: e8fb eebc d6a4 0ebd 9ead 1b3c 93ab 8d3c
000003f0: 4488 1a3c 12b4 013c bec0 8a3c 8203 84bc
-0.0230463 0.02395322 -0.008970842 -0.008945911 0.010163591 -0.025928857 -0.004852153 -0.035126675
-0.00810535 0.02380213 0.025739444 0.011023738 -0.018776804 0.025258785 0.027804062 -0.028879868
0.035382867 -0.0017612341 -0.027158592 -0.028635222 -0.009942779 -0.03096431 -0.011101339 -0.018781867
0.010184543 0.024576878 -0.00024166836 0.0028001722 -0.0026633032 0.028416734 -0.035040718 -0.023275055
0.009331397 -0.017831283 0.03876001 -0.026059972 0.006000168 0.020486671 0.04112861 -0.002936217
-0.019582741 0.039188117 -0.022296442 0.013701967 0.008577073 0.0018935506 -0.020473141 -0.01705021
-0.025717016 0.021826882 0.016245523 -0.03116342 -0.011565253 0.008956957 0.024311585 0.03930129
0.00027926045 0.014317964 0.0383803 0.0331293 0.020803967 0.025931027 0.047375686 0.047903493
-0.033210956 0.010634399 -0.017181357 -0.026775181 0.00027090736 -0.016479602 0.015014043 -0.012509179
-0.0145678185 0.036158275 0.003521529 -0.025951259 0.020270746 0.008022043 -0.022136357 -0.01503639
0.020505052 -0.03748951 0.00657155 0.0071469853 -0.010610586 -0.02253649 0.006194003 0.01287051
0.016993407 -0.012584798 0.021096347 -0.028573178 -0.023718668 -0.003799252 0.027903695 -0.01582854
-0.0015611206 0.020986503 0.023108715 -0.0325884 -0.0049522333 -0.001651278 0.011083995 0.021172019
0.014147354 -0.02493728 -0.018416736 -0.026780937 0.015268838 0.043884855 -0.009889507 -0.0020583142
0.037291706 0.017581195 0.015056762 0.0003102342 0.016917214 0.010146726 -0.026269035 -0.012783138
-0.01289899 -0.016501237 -0.027703049 0.0008058516 0.033676155 0.0021498085 0.02410145 0.010566015
0.003955682 -0.018988317 0.015454268 0.03220462 0.022439511 -0.0012220534 -0.03130681 0.031682048
0.031551734 -0.007948867 -0.018674389 -0.027136095 -0.007978421 -0.021687804 -0.012139687 -0.01637847
0.0013621971 0.03262698 -0.013599974 0.0350927 0.018256003 0.023513542 -0.016268445 0.021082304
0.034020342 -0.024256479 -0.0092860935 0.03229067 -0.008130228 0.020483445 -0.007667713 -0.010226523
0.008027372 0.00939304 -0.0001927639 -0.0268353 -0.010677229 0.0061121066 -0.033317044 -0.018408941
0.009296756 -0.023541026 0.01951493 -0.015634375 0.012260748 -0.021980274 -0.00014270676 0.00037436446
0.042569242 0.005360146 -0.012615272 0.044565305 0.015448066 0.051488653 0.031073922 0.010622125
0.037305925 0.028577695 0.03821788 0.036763683 0.03505212 0.020556629 -0.023044605 -0.04085495
0.01151056 -0.032761324 -0.039428964 -0.044006586 -0.035180803 -0.022316413 0.03321807 0.01819798
0.016835865 0.00045113653 -0.018626565 0.008324206 -0.011928178 0.015049847 -0.018426506 0.040000312
0.024477059 -0.016794533 -0.023404794 -0.008245808 -0.017133191 0.0119106 -0.023703612 -0.034848984
0.02451005 0.026960662 0.0010923232 -0.031523544 -0.030021476 -0.030168142 0.032018896 0.014032231
0.03319202 -0.028110748 0.017067049 -0.004147483 0.019267656 -0.020459838 0.00062165677 0.0002260345
0.040364433 -0.025813023 -0.022834536 0.01978565 0.017922409 0.0039621294 -0.029095212 -0.0026774302
-0.026712636 0.02267437 0.016215349 0.0075041084 0.025461486 -0.035635464 -0.0037147077 -0.027226431
-0.029172853 -0.03482517 0.009501843 0.017293727 0.009431902 0.007916467 0.01693761 -0.016114954

bias f4 [64]
00000000: 4c70 0a3c b0bc 593a 475b 9c39 f5b0 32bc
00000010: 1003 493c b5f8 75bc b271 57bd 3464 ae3b
00000020: 3462 963c 50a0 e8bb c723 dfb9 6b65 a7bb
00000030: fda1 26bb 4ecc edbc e049 0cbc c99d e3bc
00000040: 9b7e 61bd fef7 cb3c 1a93 363c fdaf 513c
00000050: 8c81 f7bc 056c 48bd 3e7c 20bb 649b 75bc
00000060: 4918 cbbc 6420 1bbd be52 1ebd 1a62 43bd
00000070: 090c 18bc 19b8 99bb 32c9 2e3d 61ed e83c
00000080: e4c1 a4bb d3c0 043d b390 c73c e8c2 763c
00000090: 0478 60bd 5cfe ab3c e0c2 b53c 8cd0 ac3c
000000a0: 60f9 83bb 3724 c3bc a84e 09bd 8ce7 a93c
000000b0: 03b0 9cbc ea2e dfbc 59e0 74bd 1450 e63b
000000c0: 30b5 4ebd 627c 40bd 1c48 4d3c 0b54 6d3c
000000d0: faa0 84bc 0895 a4bb bef0 9d3c 8d68 bf3c
000000e0: 18e8 23bd 1a92 803c 24e3 a8bc fec0 0ebc
000000f0: 140d e5bc f61a fabc 12a2 15bc 231e 0ebd
0.008449625 0.00083060097 0.00029822646 -0.010906448 0.012268797 -0.01501291 -0.052598663 0.0053220037
0.018357374 -0.007099189 -0.0004256053 -0.0051085255 -0.0025426142 -0.029028084 -0.008562535 -0.027785199
-0.05505238 0.024898525 0.01114347 0.0127983065 -0.03021314 -0.04893114 -0.0024488117 -0.014990661
-0.024791854 -0.037872687 -0.038653128 -0.04770098 -0.009280213 -0.0046911356 0.042672344 0.028433504
-0.0050279964 0.032410454 0.02436099 0.015061118 -0.054801956 0.020995311 0.02218765 0.021095537
-0.0040275306 -0.02382098 -0.033522278 0.020740293 -0.019126898 -0.02724405 -0.059784267 0.007028589
-0.050465763 -0.04699362 0.012529399 0.014485369 -0.01619004 -0.0050226487 0.019279834 0.023365283
-0.040016264 0.015694667 -0.020616122 -0.008713005 -0.027960338 -0.030530434 -0.009132879 -0.03469671

weight f4 [64, 1024]
00000000: 634e c43c beec 9c38 32a6 a4bc e7b6 b4bc
00000010: d667 363c b089 26bc 2882 1b3d d35d 863c
00000020: 4bf1 7b3c 098d b1bc d561 41bc 30bb 353c
00000030: 0187 f5bc 91eb fcbb 0ccb 98bc 6f25 82bc
00000040: f5db a53c 14b4 c5bc d60f 24bc 9ec7 d7bc
00000050: a18c 27bc c7cb 24bc cd36 283b 2969 bdbc
00000060: 98a2 ffbc 4da1 ec3b 33b5 9a3c 0f6a f5bc
00000070: 3abc f1bb d88d 1abc 2d21 b03b b550 5e3c
00000080: fed4 50bc 847d 19bc b00c 8d39 eb7c 7ebc
00000090: 1c5e f03a 6307 1e3c 4b23 2f3c f862 1bbd
000000a0: 4778 ac3c c7e6 cebb e4f9 a93c 258e c3bc
000000b0: 973e 9d3b c533 23bc d817 153c 9688 e2bc
000000c0: 1d58 cd3b 59b3 98bc c78d c53b f383 113c
000000d0: 2bcf ae3b cd83 e13c 7213 78bc 5e73 333c
000000e0: 6e39 1d3d 47eb 323c b43b 0bbc 92cc d03c
000000f0: 6562 28bc 5590 73bc 5fdc 0dbc 73c7 cf3c
00000100: bdaa a7bb 9244 0d3d c5aa 9d3c 533b c5bc
00000110: 8cbc e03c 37d3 97bc 13f7 4abb 0da0 203c
00000120: 2902 243c f3ba 123b 6639 343c ffe3 be3b
00000130: 797f 953c 4199 cbbc 8baf c2bc 4bf0 11ba
00000140: 602c 2b3c 53fa 25bb fdf8 8d3c 1996 993c
00000150: b5b2 dcbc aa0b 20bc 68cb 5e3c 45a3 863c
00000160: 7273 82bc 1b2e 243b fd1b 893c 56c5 eaba
00000170: e0ef b43c 8c8b 043d 33e1 a73c 008a fdbb
00000180: bc6f 06bd 34a5 76bc df5a 073c df2f 06bd
00000190: a0a2 003c 9c42 fbbb 9a74 f6bb 4a14 14bd
000001a0: 306b 6c3a c294 e13b 4566 0f3a 6957 1d3b
000001b0: 8b45 333c 1553 063c 55ad 80bc ed65 633c
000001c0: 8bca fcbc 5d50 e83c 388a b93c 41cb 603c
000001d0: 7da5 28bd 0d6c dbbc ee92 303c b9d4 0dbd
000001e0: 50cc 23bd 126e 293c 0f0d 3fbd b97c 2abd
000001f0: b2f4 2abc f5fd 9a3c 1efd 133c e171 7d3c
00000200: 2963 503c 8ca3 363c 1a0f 233c ac4b a63c
00000210: 3d76 bd3c d5df a7bc e40c 63bc 91c1 b83c
00000220: 2101 8cbc 71c6 e63c 3157 01bd 02e9 eabb
00000230: 1458 c1bc e2e1 01bd 2f6a fcbc 3df8 91bc
00000240: 4654 ac3c 0b0c a6bc dc93 dbba 4738 6bbc
00000250: b24d 49bc 2be2 5c3c 37ef d53a e964 fabc
00000260: 6929 0ebd 78d8 d2bc 090c d8bc 83e1 8a3c
00000270: 8bc7 c43c 125c ffbb 04f6 47bc e309 883c
00000280: ec60 ab3c 5adc 853c 6adc 8dbc 9cba f13c
00000290: e2ba e63c 5782 d53c 3bb0 183d e86b 14bc
000002a0: 5600 7aba 895d c3bc 8c36 95bc dcc8 8e3c
000002b0: bc50 283c 2282 64ba 7197 633b ff55 1b3c
000002c0: 8129 febc 7320 2c3a ece3 bebc b552 053b
000002d0: 9daf 4a3c 3524 ca3c fe45 03bc b823 90bc
000002e0: 2540 48bc 120a 73bb 85b9 e93b c12a d33c
000002f0: 6262 663c 0a73 6a3c 187d 9a3a 3e5e c63c
00000300: 2f71 e73c 5a64 babb 68be 533c 5c46 ad3c
00000310: 9a20 013d 685d fe3c a5d5 603c 6479 cabc
00000320: 9efa 80bc 98a5 b93c 7614 5cbc ec15 e2bc
00000330: 7d29 0abc 132b 843c 31be 823b 4ecf cebc
00000340: b26e bc3b 157c 54bc 3a6e d13c cb68 84bc
00000350: 3ccb 65bc c6e6 fa3c 2da2 363c 762a 8f3c
00000360: 2ef9 643c 42b5 00bc 2c1b 8a39 e099 84bc
00000370: 9075 6cbb 44fd fdbc 74a8 01bc 2b72 6d3b
00000380: de03 933c 2208 a03c 7e4c e73c 404b 853c
00000390: 063a 1cbc 7cb2 993c 40fa 9f3b 61de 9fbb
000003a0: bbe8 aebc 8f82 87ba c074 bdba 7945 dd3c
000003b0: ee92 673c 9a3a d9bc f6d3 efbc a97e babc
000003c0: 5d9e aa3c 4041 443c 9e7d dfbc 84b4 8cbc
000003d0: b46d c7bc fe43 9b3c 362c 123c 2cac 833c
000003e0: 6728 32ba 6cf6 02bb c268 a7bc fd52 cfbc
000003f0: 8529 b73c 8276 c2bc f1ba fd3c ec83 8f3b
0.023963159 7.482756e-05 -0.02009878 -0.02205987 0.011133155 -0.010164663 0.037965924 0.01640216
0.015377353 -0.021673696 -0.01180311 0.011091992 -0.029971601 -0.0077185114 -0.018651508 -0.01588699
0.020246485 -0.02413372 -0.010013541 -0.026340302 -0.0102264 -0.01005835 0.002566743 -0.023121433
-0.03120546 0.007221377 0.01888523 -0.0299578 -0.0073771747 -0.009433232 0.0053750486 0.013569047
-0.012746094 -0.009368304 0.0002690307 -0.015532712 0.0018338594 0.009645316 0.010689567 -0.03793618
0.021053446 -0.006314132 0.02074904 -0.02387149 0.004798721 -0.009961073 0.009099923 -0.02765302
0.0062666074 -0.018640207 0.006028864 0.008881557 0.005334755 0.027528668 -0.015141355 0.010952799
0.038384847 0.010920352 -0.008498121 0.025488172 -0.010277365 -0.014865954 -0.008658498 0.02536366
-0.005116789 0.034489222 0.019246468 -0.02407614 0.027433656 -0.018533332 -0.0030970022 0.009803784
0.010010281 0.0022389262 0.011000013 0.005825519 0.01824926 -0.02485335 -0.023765346 -0.00055671175
0.010447592 -0.0025326207 0.01733064 0.01874833 -0.026940683 -0.009768406 0.0135983005 0.016435275
-0.01592419 0.0025051895 0.016736979 -0.0017911594 0.022087038 0.032359645 0.020493126 -0.007737398
-0.032821402 -0.015054036 0.008261411 -0.032760497 0.007851273 -0.0076678526 -0.007521224 -0.03615216
0.0009018658 0.0068841884 0.00054702564 0.00240084 0.010941873 0.008198519 -0.015707651 0.0138792815
-0.030858299 0.028358633 0.022648916 0.0137203345 -0.041173447 -0.026784921 0.010777218 -0.034626696
-0.03998977 0.010341184 -0.046643313 -0.04162285 -0.0104343165 0.018919924 0.009032516 0.015469045
0.012718954 0.011147391 0.009952331 0.020299755 0.02312767 -0.020492474 -0.013858054 0.022553237
-0.017090382 0.028170796 -0.031577293 -0.00716889 -0.02360157 -0.03170956 -0.030812351 -0.017818565
0.021036278 -0.020269414 -0.001675244 -0.014356679 -0.01228659 0.013481657 0.0016321902 -0.030565696
-0.03470746 -0.025737986 -0.026372926 0.016953235 0.02402093 -0.007792958 -0.012204651 0.016606277
0.02092024 0.016340423 -0.017317016 0.029507928 0.028165285 0.026063127 0.03727744 -0.00905893
-0.0009536793 -0.023848312 -0.018214487 0.017429762 0.010273155 -0.0008716901 0.0034727717 0.009480952
-0.03102565 0.00065661146 -0.023302041 0.0020343487 0.012370971 0.024675468 -0.008012293 -0.017595157
-0.0122223245 -0.003708486 0.0071327114 0.025777223 0.014061542 0.014309654 0.0011786548 0.02421486
0.028252212 -0.0056882324 0.012923814 0.021151714 0.031525232 0.031050399 0.013722812 -0.024716087
-0.015744504 0.022661969 -0.013432613 -0.027598344 -0.008432743 0.01613382 0.0039899577 -0.025245335
0.0057505006 -0.012969037 0.025565255 -0.01616325 -0.014025506 0.03062762 0.011147064 0.017476302
0.013975425 -0.007855715 0.00026341656 -0.016186655 -0.0036080815 -0.031004556 -0.0079136975 0.003623138
0.01794618 0.019535128 0.028234717 0.016271234 -0.009535318 0.018761866 0.004882127 -0.0048788046
-0.021351209 -0.0010338592 -0.001445435 0.027010666 0.014134152 -0.026517201 -0.029275876 -0.022765474
0.020827467 0.011978447 -0.027281579 -0.01717592 -0.024344303 0.01895332 0.0089216735 0.016073309
-0.00067961816 -0.0019983305 -0.020435695 -0.025308127 0.022358665 -0.02373815 0.03097293 0.00437974

bias f4 [64]
00000000: 7695 fd3c b61a edbb 4e8f 1d3c e8ed 533c
00000010: d40e 113d 71e9 40bc 24e4 233b 4fcb 3a3a
00000020: d3ad bcbc 7b17 18bc 1ddb ac3c 3f87 8d3c
00000030: 098f e03c 4f45 173c a73b 64bc cc57 54bd
00000040: 9fdb e0bc ee7f 303d a426 443c f3b9 c8bb
00000050: f4fd be3a 5f8e 8fbc f303 b23c 9f1c 7a3b
00000060: 84fb 4abc c046 393d b7bd 3ebd f21f c6bc
00000070: 03eb 15bc bef3 083d 9896 2ab8 3194 6fbd
00000080: 2429 eebb b3c9 25bd 7cad 0c3c db71 f6bb
00000090: a011 32bd 4dfc 89bc 525b e33c 39b2 753b
000000a0: e376 ff39 c4de 0fbd 9929 f6bc 14a1 e63c
000000b0: 5455 3dbc d302 adbc 5b21 adbc a26f 30bc
000000c0: fab1 253d db66 33bb 19f1 3fbb 777c 30ba
000000d0: b846 993c 9a92 8cbc 2d48 e83c 6dd4 093c
000000e0: 0fd9 623d 4e9f d2b9 afaa d13a 470c 583b
000000f0: d72f 4cbc 55b0 eebc 60dd 4cbc 7aab 1a3d
0.030955058 -0.00723585 0.009616686 0.012935139 0.03541453 -0.011774407 0.0025007809 0.0007125632
-0.023032105 -0.009282942 0.021100575 0.017276404 0.027411954 0.009232833 -0.013930238 -0.051841542
-0.027448473 0.043090753 0.011972103 -0.0061256825 0.0014571534 -0.017523943 0.021730399 0.0038164032
-0.012389068 0.045233488 -0.046567645 -0.024185155 -0.009150269 0.033435576 -4.067141e-05 -0.058490936
-0.007268088 -0.04047556 0.008586284 -0.007520897 -0.04347384 -0.01684394 0.027753506 0.0037490262
0.00048725968 -0.035124555 -0.030049132 0.02815298 -0.011555988 -0.02111951 -0.02113407 -0.010768803
0.040452935 -0.002737454 -0.0029287993 -0.0006732414 0.01871048 -0.017159749 0.028354729 0.008412463
0.055382784 -0.00040173013 0.0015996302 0.0032966302 -0.012462578 -0.029136816 -0.012503952 0.03776119

weight f4 [10, 64]
00000000: c911 4cbd f122 b33d 3e61 57bd 96fa 613d
00000010: d233 173d ea39 c3bc dbd5 cb3d 3560 b83d
00000020: 9b22 033d 6fd7 313d 32c5 1dbe 7bf1 c73d
00000030: fe8e 0abd 0666 ee3d 70d0 553c 9b6b 0fbd
00000040: fc08 c1bd ef63 9fbd 4c84 8fbd ff26 d73d
00000050: 1f68 c63d 8f1e e63d ad5e 73bb 4d5a b33d
00000060: e4b4 fbbc e615 7bbd af25 c43d bee8 263d
00000070: 603c 203e e097 803b 8c82 863d 9b9e 013e
00000080: 41a9 473d 4b41 1f3e d5ac 8a3d 553e 843d
00000090: ef20 bb3d 11c1 babd 318c 20be 216b 21be
000000a0: 2595 4b3d 3475 e53b 3dab 16bd 641b b4bd
000000b0: a056 0abd ad8b ce3d 8bd6 bd3d 0862 e83d
000000c0: 4ca0 b0bd 2a39 f2bd cca5 cfbd 21f6 443d
000000d0: 394a c7bd d05b b8bd eb9b 20bc 7860 c1bd
000000e0: e2a4 a6bd 6cb7 133e 0400 7c3b aa45 99bd
000000f0: 2c13 0bbe 371b cb3d 7803 053d b25c d6bd
00000100: 4d0a d3bc ecb8 aebc 22a7 10bb fe99 26be
00000110: c8c8 643d a928 473d 5bd7 2abd c208 6d3d
00000120: dc23 0dbe 5f33 d9bd 0c82 95bd 03a5 f9bd
00000130: e121 3ebd d949 803d fd0f 3bbd 3924 f7bc
00000140: f11d 13be f9c7 36bd d89b c4bd 3b5d 743d
00000150: 7d1c 473e 8375 b0bc 89b5 80bd 1da2 3b3e
00000160: d3a8 10bd 2a0a d83d 5893 0ebe 2120 03be
00000170: 5008 473e 368c 13bd 4afb 62bd 4c06 01be
00000180: 505a c5bd 3602 9ebd 3eec 9fbd 7fa8 ddbd
00000190: 4d68 09bd d96c c2bd ea11 efbd da2b 00be
000001a0: fdef c7bd b357 d8bc 88cb 2dbe 32b9 0ebd
000001b0: 6a06 06be 2b5d 5b3e b547 87bd 4da0 60bd
000001c0: 4032 2a3d 2c77 123e bbe8 eabd d330 54bd
000001d0: f2e2 35be 946e 163e 70e9 11be d580 81bd
000001e0: 57fe e23d 238b 583d f4d2 c53c 5cb1 143e
000001f0: 3e5e 043e f12d f2bd b7b4 ecbd 01e8 31bc
00000200: c035 b53d 5012 f8bd 65eb 9d3d 5393 a2bc
00000210: 8ab9 ae3d d2b9 763d e0c8 31be 18c6 1abd
00000220: 944e f83d a3a6 a53d 19f9 0c3d a426 453b
00000230: e7b7 47bd 137d 123e 77bf 12be b37a eabd
00000240: 4e67 acbd 5296 7e3d 4f4e a53d 12af c1bd
00000250: 0fac 3a3d 1573 0dbd a954 d93d 0917 cf3d
00000260: f8f1 863d cfb4 85bd 89cf 11be ec7b fb3c
00000270: 4903 5f3d 60c3 6cba c9bd 183e 3b78 ac3c
00000280: 43b7 ea3d 6cf9 1ebd efb5 a7bd 4035 a7bb
00000290: 571b 973d 5209 d8bd 4d0c 8c3d 8a84 c73d
000002a0: 4c2c 84bd 799f cdbd c710 623d 358c a6bd
000002b0: ab85 1cbe 2677 353d afc5 d3bc c695 863d
000002c0: e207 d43d f4e2 f9bd 6f0e e93b e89c 833b
000002d0: 3639 c83b 2140 58be cf04 e93d e2c2 b3bd
000002e0: 803b 2c3d 639e 7b3d 9afd c5bc fc32 f5bd
000002f0: a386 8cbd de7f 53bb b653 b13d 4476 9b3d
00000300: c23f 083d 53cc f7bd 7f4b 07be fe94 d03d
00000310: dae2 c23d b9e3 e53d 3658 1dbe dde2 d8bd
00000320: 7a08 3c3e 710b 133e fe78 1bbd ec85 1abd
00000330: 8b6d 973c 4725 413d f6be ccbd bb25 2dbd
00000340: 2751 013d 50c4 d3bb 1abb 1b3d c1a8 17be
00000350: 8c30 823c 5ed5 b5bc 010d e4bd 2c05 e5bd
00000360: a449 8fbd e1a4 fdbd 20d9 73bd cdb8 40bd
00000370: b0f5 18be 6160 263d feae 61bd 5c49 e6bd
00000380: 5596 13be eb50 eabd a176 c53d c093 b7bd
00000390: c717 bfbd 06a6 b83d f44f 953c 7018 6bbd
000003a0: 07c9 a63d f710 633c d986 c4bd bc26 d03d
000003b0: 25c0 95bd 45f7 e4bb ddda 07be f1b8 1ebc
000003c0: b0bf 213e 4fdd 5c3d be47 db3d 9464 1b3d
000003d0: 79e4 343d 4aaf 94bd 0fee 98bd e27a 8a3d
000003e0: c1d8 333d aca0 e03b f6b1 693d 313a 113e
000003f0: d0f0 d13c ea69 603c e31c ce3d 191a 673d
-0.04982165 0.08746899 -0.05258297 0.055170618 0.036914654 -0.023831327 0.09952899 0.09002725
0.032015424 0.043418344 -0.15407255 0.097628556 -0.033827774 0.11640553 0.013050184 -0.03501473
-0.09425542 -0.07782733 -0.070076555 0.10505485 0.09687828 0.11236297 -0.0037135289 0.08757458
-0.030725904 -0.06130018 0.095775 0.040749304 0.15648031 0.003924355 0.065678686 0.1265816
0.048745397 0.15552251 0.06771246 0.064572014 0.09137141 -0.09118856 -0.15678479 -0.15763523
0.049702782 0.007002497 -0.0367844 -0.08794287 -0.03377402 0.10085235 0.092694364 0.11346823
-0.08624324 -0.118273094 -0.10139045 0.04808629 -0.09730954 -0.09001887 -0.009802799 -0.09442228
-0.08136918 0.14425439 0.0038452158 -0.074839905 -0.13581532 0.099173 0.03247401 -0.10466899
-0.025761748 -0.021328412 -0.0022072275 -0.16269681 0.055855542 0.04862276 -0.041709285 0.05786968
-0.1378321 -0.106055014 -0.07300195 -0.121896766 -0.04641903 0.06264085 -0.045669544 -0.03016864
-0.1436689 -0.044624303 -0.09600037 0.059659224 0.19444461 -0.021540409 -0.06284625 0.1832356
-0.035317253 0.10548814 -0.13923395 -0.12805225 0.19436765 -0.036022387 -0.05541543 -0.12600058
-0.09636366 -0.077152655 -0.078087315 -0.10823154 -0.033546735 -0.09493417 -0.11673339 -0.12516728
-0.09762571 -0.026409006 -0.16972172 -0.034844585 -0.13088384 0.2142226 -0.06605474 -0.054840375
0.04155183 0.14303273 -0.11470171 -0.051804375 -0.17762354 0.1469062 -0.14249206 -0.06323401
0.11083668 0.052867066 0.024148442 0.14520782 0.12926576 -0.11825169 -0.11557906 -0.010858537
0.088481426 -0.12112868 0.077109136 -0.01984564 0.085314825 0.060235806 -0.17361784 -0.037786573
0.121243626 0.08088424 0.034417246 0.0030082846 -0.048759367 0.14305525 -0.1433085 -0.11449184
-0.08418141 0.062155075 0.08071577 -0.0945722 0.045574244 -0.03453358 0.10611851 0.101118155
0.065891206 -0.06528627 -0.14239325 0.030698739 0.054446492 -0.00090317987 0.14916147 0.021053424
0.11460736 -0.038812086 -0.08188998 -0.0051027834 0.073782615 -0.10548653 0.06838284 0.09742077
-0.064537615 -0.100401826 0.05519178 -0.08132211 -0.15285365 0.044303082 -0.025851099 0.06571536
0.10353066 -0.12201491 0.0071123163 0.0040165074 0.0061103357 -0.21118213 0.1137787 -0.08777405
0.04204893 0.061430346 -0.024168778 -0.11972615 -0.068616174 -0.003227226 0.08658545 0.07590917
0.03326393 -0.120995186 -0.13212393 0.10184668 0.09515925 0.11225075 -0.15365681 -0.10590146
0.18362609 0.14359833 -0.037957184 -0.037725374 0.018484851 0.04715469 -0.099973604 -0.04227231
0.031571534 -0.0064626113 0.03802023 -0.14810468 0.01589229 -0.022196468 -0.11135293 -0.11182627
-0.06996468 -0.12384964 -0.05953324 -0.04705124 -0.14937472 0.040619258 -0.055098526 -0.11244461
-0.14412816 -0.11441215 0.09641767 -0.08963728 -0.09330707 0.090160415 0.018226601 -0.057396352
0.08143812 0.013859025 -0.09596033 0.10163638 -0.07312039 -0.0069874846 -0.13267083 -0.009687648
0.15795779 0.053921994 0.10707043 0.037937716 0.0441632 -0.07259996 -0.07467281 0.06761719
0.043907885 0.006855091 0.057054482 0.14182355 0.025627524 0.013697127 0.100641035 0.056421373

bias f4 [10]
00000000: ab24 17be 9ac4 a2bd a302 bc3c caed acbd
00000010: 3af8 3abd 6dbb c6bd 670d b23b ec21 dabd
00000020: c1a4 a0bd 1ec4 e9bb
-0.14760081 -0.07947655 0.022950476 -0.08443792 -0.045646884 -0.097037174 0.0054337266 -0.10651001
-0.07843924 -0.0071339747
