tudui_7.pth (torch, 588600 bytes, 10 tensors)

weight f4 [32, 3, 5, 5]
00000000: b626 9abd d0a1 d23d 5e30 6f3d 8971 b83d
00000010: ed8d 353b e033 623c c643 ce3c ef45 82bd
00000020: 1154 003e ee60 86bd 2c7f 9f3d 79ff a83d
00000030: c558 e93d 26f2 81bd 6016 343d 432d deba
00000040: ff28 cebd 9b8c c83d 4236 a83d f518 c1bd
00000050: 3e67 95bd abf0 1cbe b8fb 1cbe 32e7 5c3c
00000060: 9614 08be 046c bc3d c744 27bd 46c0 0b3e
00000070: 1b40 1f3e a3e4 07bd f82b 51bd c3df cb3b
00000080: af11 bd3d d888 9ebd 76e1 533c 0e1d 8fbd
00000090: 5e4a 1dbc f058 bb3d ce47 19bd 78f9 47bd
000000a0: aa9b 82bd d497 463d 31e5 ffbd 4236 643d
000000b0: 40b8 acbc 6a9f 41bd 7cac bcbc 14f0 493d
000000c0: 0548 cdbd eafd e8bb e864 173d 18b5 833d
000000d0: 4cd7 083e d486 963d 2304 073e f6d2 83bd
000000e0: c224 2fbd 674a a2bd 9cbd fe3d e2aa cf3c
000000f0: b8df dfbd ee1e dbbc 1276 263d 1b58 cd3c
00000100: 97ec 933d fa2f de3d 6fd3 b4bd 9159 e3bd
00000110: 9fbf ac3d d9c6 053d 5058 42bd 0e46 00be
00000120: 94f2 1b3c eef8 01be 7334 abbd 1db8 46bd
00000130: 5de5 af3d 6079 033e 3a04 843d e719 363d
00000140: fb43 393d 60b4 573e 5440 153e 827b 383e
00000150: 71e7 223e ebdc 8f3c 8bf9 3e3e 931d 083e
00000160: 9ec4 eb3d edde ec3d 92eb dd3c fbe5 0d3d
00000170: 289c 083d 2dd9 d8bd 3c29 82bd b803 533b
00000180: 8c10 17bd 524f a2bd 4dbf adbd 73b9 e8bd
00000190: 09e2 c7bd 77fb bebd be77 bebd 152e 05be
000001a0: 6cb5 8fbd 4136 7dbd 5d61 15bd 2d94 813d
000001b0: 3a48 d63d f616 ed3d 60dd c63d b6b2 633d
000001c0: 1e99 a63d 483d 7d3b 5063 cf3d ffaa fcbd
000001d0: 8fa8 39be af33 97ba 9717 d2bd ea02 abbc
000001e0: e563 45bc a975 3dbe 28bc f8bd ad2c acbd
000001f0: 7d25 0dbe 1bdc 23bd 0508 31bd 293f 0fbe
00000200: 5c3f 0abc 265c 24be 0d7d febc a8a5 a53d
00000210: bb05 a2bd 9686 973d ef49 f83d cf90 a03a
00000220: b247 073e c0e2 0b3e 8a0d 8c3c d55d 073e
00000230: 9b13 0ebe ee4c 17be 0697 efbd f93d 94bd
00000240: 6785 b5bd 6364 c5bc e76a e6bd 8a2e b9bc
00000250: 3ec1 2abd 9559 b63b 403e a53d d80a 58bd
00000260: d92b c33d e64b 393d 4081 0dbd 70ae dabd
00000270: 1391 91bd 7294 86bd c7d2 8f3d 557f 383d
00000280: ed15 5fbc 1516 673d aa2d e7bd 680c 09be
00000290: 4242 62bd 39da 07be 2710 173d cf49 a4bd
000002a0: 4aeb 99bd 8935 873c e8aa d9bd 62b2 febc
000002b0: 817f fa3c 44e6 963d c13b f73c 7932 723b
000002c0: 75a8 03bd c608 8c3d 0237 ac3b b48a 6abd
000002d0: ca31 8b3d 993f a63c 266a 9abd 901f ab3c
000002e0: c8f8 013d b4d1 8b3c d422 543d 779b 1fbd
000002f0: 3015 8a3c d960 dcbd b56d 813d 5497 883c
00000300: b54c 08bd b9ae 333b 5bab 0dbe abee b0bd
00000310: 2838 fdbd a216 20be eea6 d3bc b127 dcbd
00000320: f27a 863d ef07 e0bc 978d f7ba f6c5 ed3d
00000330: 992e 233e 238e f03d f820 2d3e c72e 3a3e
00000340: 82f4 293d e2a0 bd3c 9955 64bd f67c e33d
00000350: a303 b73d ea69 6f3d b521 a9bd de28 c43d
00000360: 1d9c 753d 994e 913d 69e9 fc3d e5ec f43d
00000370: fdab a4bc 9227 513c 12a8 70bd 502f 6f3c
00000380: a4a9 8e3d a4a9 4abd fa4e 083d 0f1d 203e
00000390: 8f7d f53c e24f 853c d457 223c e1b7 9e3d
000003a0: b9c5 c4bd 5e74 133d b448 98bd de9f 0cbe
000003b0: 47f1 b8bc 5769 fbbd 1fba 783d 8607 1ebd
000003c0: 23b9 e4bd cbeb c1bd 3102 a0bd 0326 743c
000003d0: 43b3 1bbc 2d56 4cbc 7d2a a7bd c3b0 8bbd
000003e0: 61e6 23be 66d2 1abe cc1b 823d 8fa2 443d
000003f0: 6427 67bd afba 09bc 456f 933d 01a1 1cbd
-0.07526915 0.102847695 0.058395736 0.0900603 0.0027703003 0.013806313 0.025178801 -0.06360995
0.12532069 -0.065614566 0.07787928 0.082518525 0.113938846 -0.06345014 0.04396665 -0.0016950745
-0.10066413 0.09792443 0.08213474 -0.09428588 -0.072950825 -0.15326183 -0.15330398 0.013482856
-0.13289103 0.0920029 -0.040837076 0.13647565 0.15551798 -0.03317703 -0.051067322 0.006221743
0.092318885 -0.077409446 0.012932172 -0.069879636 -0.00960025 0.09147823 -0.037421994 -0.048821896
-0.06377347 0.04848464 -0.12494887 0.055715807 -0.021083951 -0.04727117 -0.023031466 0.049301222
-0.10023502 -0.007110347 0.036961466 0.06431025 0.13363379 0.07349935 0.13185172 -0.06436722
-0.042759664 -0.07924347 0.12438509 0.025350038 -0.10931343 -0.026748147 0.040639944 0.025066426
0.0722286 0.108489946 -0.0882939 -0.11101068 0.08434986 0.03266034 -0.047447503 -0.12526724
0.009518284 -0.12692615 -0.08359613 -0.048515428 0.085886694 0.1283927 0.06446119 0.044458296
0.045230847 0.21064901 0.1457532 0.18015864 0.159086 0.017561397 0.1864988 0.13292532
0.11512111 0.11565957 0.027089868 0.034643155 0.033352047 -0.10588298 -0.06355521 0.0032198261
-0.036881015 -0.079252854 -0.08483753 -0.11363497 -0.0975991 -0.09325307 -0.09300183 -0.1300586
-0.07017025 -0.06181932 -0.036469806 0.063270904 0.10462995 0.11576645 0.09710193 0.055590354
0.081346735 0.0038641263 0.10126364 -0.123373024 -0.18130706 -0.0011535789 -0.10258406 -0.020875413
-0.0120477425 -0.18501915 -0.12145263 -0.08406959 -0.13783832 -0.04000483 -0.04322054 -0.13988937
-0.008437958 -0.16050777 -0.031065488 0.08088237 -0.07911249 0.07398717 0.12123477 0.0012250188
0.13210943 0.13660717 0.0170963 0.13219388 -0.13874666 -0.1477544 -0.11698727 -0.07238383
-0.08863335 -0.02409572 -0.11250859 -0.0226052 -0.041688196 0.005564878 0.08068514 -0.052744716
0.09529848 0.045238398 -0.03454709 -0.106778026 -0.07107749 -0.065712824 0.070226245 0.04504331
-0.013616067 0.056417543 -0.112880066 -0.13383639 -0.05523897 -0.13266839 0.03688064 -0.0802189
-0.07515581 0.01650502 -0.10628301 -0.031090919 0.030578377 0.073681384 0.03017986 0.0036956354
-0.032143075 0.06837611 0.005255581 -0.057261184 0.06796606 0.020293998 -0.075397775 0.020889074
0.031731397 0.017067768 0.051791027 -0.038966622 0.016855806 -0.1076066 0.06319753 0.016673721
-0.03327628 0.0027417375 -0.13834898 -0.08639272 -0.123642266 -0.15633634 -0.025836434 -0.10749758
0.06566419 -0.027347533 -0.0018886802 0.11610024 0.15935744 0.117458604 0.16907108 0.18181907
0.041492946 0.023148004 -0.055745695 0.11107819 0.089362405 0.058450617 -0.08258382 0.09578107
0.059963334 0.070950694 0.12349207 0.119592465 -0.020101542 0.012765782 -0.058754034 0.0145986825
0.0696595 -0.04947819 0.033278443 0.15636085 0.029967098 0.016273443 0.009908635 0.07749916
-0.09608025 0.03599965 -0.07435742 -0.1373286 -0.022575988 -0.12275951 0.060724374 -0.038581394
-0.111681245 -0.09468802 -0.07812918 0.014901641 -0.009503189 -0.012471718 -0.08162401 -0.06820824
-0.16005851 -0.15119323 0.06352958 0.04800659 -0.05643405 -0.008406325 0.07198957 -0.038239483

bias f4 [32]
00000000: c5de d0bd 1640 00bd f7b1 e2bd b3f0 803d
00000010: 15fa bcbd 499d 5e3e 75e6 103e 574d 85be
00000020: c86c d33d 80d2 383c 49f9 093d 61e3 ff3d
00000030: 3553 cebe 4365 6a3e b4b7 e0bd 0d64 b5be
00000040: 4a85 8abb 7d33 9fbd b955 753e 5932 863c
00000050: 7237 bcbd ed3e 3dbe c2f0 afbb aac4 8f3c
00000060: 297d 383d c7e6 d8bc 7d55 0cbd 003e 78bc
00000070: e1ac 273e e3be 80bd 77c9 f3bd 147b 81bc
-0.1019874 -0.031311117 -0.110691 0.0629591 -0.09227387 0.21739687 0.14150412 -0.26035568
0.10323483 0.011280656 0.033685002 0.12494541 -0.40297857 0.22890191 -0.109725386 -0.35427895
-0.004227315 -0.077734925 0.23958482 0.01638143 -0.09190263 -0.18481036 -0.0053692767 0.017549831
0.045041237 -0.02647723 -0.034261215 -0.015151501 0.16374542 -0.06286409 -0.11903661 -0.015805759

weight f4 [32, 32, 5, 5]
00000000: bfab e43c cc7d e5bb b0e8 573b 0c60 b8bc
00000010: d8cf d13c 2ca3 0a3d c493 07bd 3420 ffbc
00000020: 0f25 d7bc a132 89bb 944b dfbc 1441 173c
00000030: 18b6 f0bc 4669 793c ce6b 82bc a8c0 bbbc
00000040: f227 1bbb db07 fb3c 6977 a9bc 25da d1bc
00000050: 0094 d43c f7a3 c2bc ddbd 003d 6484 17bc
00000060: a8fc 86bc a81d 13bd 7af1 08bd d2b6 e73b
00000070: 9653 863c ae4d d73c b316 efbc 4557 bf3c
00000080: c972 ee3b ede8 b23c ebf9 06bd 050c 3f3c
00000090: 9ae8 d1bc 55e3 a3ba c92b ce3c b554 f1bc
000000a0: f7e5 85bc 6b21 1c3c 82d4 d83c e4c8 ab3c
000000b0: d528 f93c 0eee 463c 80bf 51bc 355f 0abc
000000c0: d609 473c a941 ec38 dc8e f6bc bfd5 c1bc
000000d0: 9b72 82bc bc65 d13a 5ad8 d93b 0216 d9bc
000000e0: 2b15 e9bc baba 243c 0fe9 e7bc 0891 f83a
000000f0: 05e4 99bc 097c b0bc a0e0 2abd b5ab 44bd
00000100: 7705 1dbd 7a2a 2dbd 2b88 30bd 9128 06bc
00000110: bf55 a4bb 7d3f 14bd f622 8abc 9c5e 5ebb
00000120: efc6 adb9 d8f7 7b3c 8aa5 fb3c 34c6 833c
00000130: 703a 253b 041d ecbc 16a2 b6bc ba39 f7bc
00000140: c542 02bd fbc9 a53c da5a 173c 66e4 a0bc
00000150: aa71 f3bc bb8a 81bc bd51 dabc 1c6a a5bc
00000160: 7f47 3dbd 9b21 09bd c944 fdbc 6a97 2cbd
00000170: 91b6 a03b 8196 fe3b aeac f9b9 0f89 42bc
00000180: 6d5a d53c 2aa6 80bc fed9 b3bc d8ec db3b
00000190: f608 eebb 26ed 043d cbda c3bc 9998 e2bc
000001a0: 5585 e43c 7511 0f3c baff 9d3b 518e 943c
000001b0: 203f 0fbc 9986 623c e780 26bb c792 5dbc
000001c0: d771 c7bc a4a8 9d3c 2d7f dfbb 800c 553c
000001d0: 1e1c 003d c723 7f3b 4ceb 06bd 550a a53c
000001e0: 3621 253d b7f0 acbc d1f1 033d ec97 0e3d
000001f0: ba16 d93c 7570 e63b 138e adbc 5e5e 1bbd
00000200: 0879 8bbc b3f2 483c ec86 b53c d9fc eebc
00000210: 44fa 98bb 5c05 43bc e91c e83a 08ad 0dbd
00000220: 3484 af3c 13e5 03bc 1392 1ebc 6791 2b3c
00000230: 22e7 e3bc e77c 373c 2747 c23c 3ea6 433c
00000240: fbd0 41bc 1a49 023d ea96 df3c e216 4e3d
00000250: 2b78 213c ae45 123c aadb 74bc f98e cebc
00000260: 3efb ac3c f161 9aba a111 a83c ec87 863c
00000270: 8838 1abd 9d6c 773c 078b 0abd 08ed e4bc
00000280: 6eae 963c a06d 41bd ed15 02bd 126a b33c
00000290: 074f 67bb 7bfd 85bc 5e97 cdbc 8df3 4dbd
000002a0: 85c8 7cbc a712 373b b4cc c4bc 028b 0cbc
000002b0: 299d 29bd e51b d13b 7aab fbbc 412c 3cb9
000002c0: 6388 51bc 2414 dfbc 6b91 d93c 2f52 ee3c
000002d0: eaae aabc abbf 25bc 45f9 fc3c 4aae 553c
000002e0: 1f4f a1bb 34d4 cdbc 2cb4 bbbc e4c7 b4bc
000002f0: a816 163c 023f 0f3d 628b 0ebd fcef 25bd
00000300: 0d4d be3c 710c c8bc e84f c53c 22d7 0dbd
00000310: 277b 1bbd 8492 1e3c 4d54 65bc f08a af3c
00000320: 55f8 3c3c 5920 d5ba 5169 c13b 1ace fcbc
00000330: 121d eabc 3471 bcbc 5880 d0bb a81f b13c
00000340: 8caa 9d3c f729 a6bc 2349 b4bc d321 81ba
00000350: 8bda 64b9 7320 d5bc 3f93 dcbc d9b2 8a3c
00000360: a020 3b3c 6249 c5bb 7c7c 02bd 8573 753b
00000370: 1436 ab3c 5fe2 cb3c a2c6 cabc 9de0 fcbb
00000380: b0af f63c 485a 6dbc b151 d23c 6499 323c
00000390: f254 82bc 355a 9dbc 0d7c 72bc e430 debb
000003a0: c757 babc f921 94bc b969 63bc 8197 02bd
000003b0: 37b6 94bc d235 7abb 354f 49bd a5d1 99bc
000003c0: c1b1 eabc 5b73 92bc 7e4f 99b9 61d1 163c
000003d0: d957 cabc c3bc 19bb 9534 14bb 8477 713c
000003e0: dc65 6e3c b9cf 2939 36d7 bcbc 6daa 08bd
000003f0: eb8d 7d3c ae41 2abd 0d9a 70bc 65bf 06bd
0.027913926 -0.0070035215 0.003294509 -0.022506736 0.025611803 0.03384702 -0.033099905 -0.031143285
-0.026262788 -0.0041869436 -0.027257718 0.009231824 -0.029383704 0.015222853 -0.015920546 -0.022919014
-0.0023674932 0.030643394 -0.020686822 -0.025616715 0.025949478 -0.023759825 0.031431068 -0.009247873
-0.016477898 -0.035916954 -0.033433415 0.0070713544 0.016397279 0.026282158 -0.029185629 0.023357043
0.007276867 0.021839583 -0.032953184 0.0116605805 -0.025623608 -0.0012503663 0.025167363 -0.029459337
-0.016345007 0.009529452 0.02646852 0.020969816 0.030414978 0.012141718 -0.012802005 -0.008445551
0.012148341 0.00011265587 -0.030097418 -0.023661492 -0.015923789 0.0015975754 0.0066481056 -0.026499752
-0.028452476 0.010054285 -0.028309373 0.0018964121 -0.018785486 -0.02154352 -0.041718125 -0.048015315
-0.03833529 -0.042276837 -0.04309861 -0.008188383 -0.0050151045 -0.03619336 -0.016862374 -0.0033930903
-0.00033145348 0.015378915 0.030718584 0.016085722 0.0025211833 -0.02882243 -0.022294085 -0.030178893
-0.031801958 0.020237913 0.009237969 -0.019640159 -0.029717285 -0.015813222 -0.026650304 -0.020192198
-0.046210762 -0.033479314 -0.030916588 -0.042136587 0.004904576 0.0077694063 -0.00047621637 -0.011873498
0.026044095 -0.015704233 -0.021954533 0.0067115836 -0.007264252 0.032452725 -0.02390804 -0.027660655
0.027895609 0.008732189 0.0048217447 0.018134268 -0.0087430775 0.013826036 -0.0025406422 -0.013523764
-0.024346275 0.019245453 -0.0068205805 0.0130034685 0.031276815 0.0038931237 -0.03293924 0.020146528
0.040314876 -0.021110876 0.032213036 0.034812853 0.026500095 0.007032449 -0.02118591 -0.037931792
-0.017025486 0.012264895 0.022159062 -0.029173302 -0.004668506 -0.011903133 0.0017708811 -0.034588844
0.021425344 -0.008050221 -0.0096783815 0.010471678 -0.027820174 0.011199213 0.023715569 0.011941491
-0.01182961 0.031807996 0.027293641 0.05031479 0.00985531 0.008927746 -0.01494495 -0.025214659
0.021115895 -0.0011778456 0.020516219 0.016422234 -0.03765157 0.015101579 -0.033823993 -0.027945057
0.018393721 -0.047223687 -0.03175919 0.021901164 -0.0035294907 -0.01635622 -0.025096592 -0.050281096
-0.015428667 0.0027934702 -0.024023391 -0.008578064 -0.041409645 0.006381499 -0.030721415 -0.00017945563
-0.012788865 -0.027231283 0.026558599 0.029091923 -0.020835359 -0.010116498 0.03088058 0.013042042
-0.004922762 -0.0251256 -0.022913061 -0.022067972 0.009160675 0.0349722 -0.034800895 -0.04051207
0.0232301 -0.024419995 0.024085954 -0.034628995 -0.037959244 0.009678487 -0.01399715 0.021428555
0.011533816 -0.0016260251 0.0059024473 -0.030859996 -0.028578315 -0.023003198 -0.006362956 0.02162154
0.019246362 -0.020283682 -0.02200753 -0.0009851999 -0.00021825188 -0.02601645 -0.026925681 0.016930984
0.011421353 -0.006020711 -0.031857 0.0037452888 0.02089981 0.024888216 -0.024752919 -0.0077172057
0.030113071 -0.014486857 0.02567372 0.010900829 -0.015909646 -0.019208053 -0.014800084 -0.0067807306
-0.022746934 -0.018082606 -0.013880187 -0.031882767 -0.018153293 -0.0038179052 -0.049147803 -0.018776724
-0.028649213 -0.017877271 -0.0002924166 0.009205193 -0.024700092 -0.0023458458 -0.002261435 0.014737967
0.014550652 0.00016194479 -0.02305184 -0.033365656 0.01547573 -0.041566543 -0.014685166 -0.03289737

bias f4 [32]
00000000: 056f 9bbd 6588 3cbd 740b 8a3d f08b 8fbd
00000010: 8724 923d 67f8 4d3d 8ddb 403b 43bc a63c
00000020: 1a71 983c 153c 86bd 12be a8bd de0d 9cbd
00000030: 6c91 38bd 3654 a0bd 07b1 913b c272 c3bd
00000040: 5b71 11bc 4ff0 80bd c72c 5d3d 6d86 3cbd
00000050: 4aa5 3abd ca4e 54bd fcc6 edbd c684 bb3d
00000060: 6576 af3b 89bb 13bd 9638 20bd f9bd edbc
00000070: d9fc 71bd dce7 533d 8f75 f5bc ed1b 9fbc
-0.07589535 -0.046028513 0.06740466 -0.07009113 0.07135873 0.050285723 0.0029427737 0.020353442
0.018608619 -0.065544285 -0.08239378 -0.076198325 -0.04506056 -0.07828562 0.004446152 -0.09543373
-0.008877124 -0.06295835 0.05399778 -0.046026636 -0.04556779 -0.05183295 -0.11610219 0.09156184
0.00535469 -0.03606752 -0.039116465 -0.02902125 -0.059079025 0.05173479 -0.029963283 -0.019422496

weight f4 [64, 32, 5, 5]
00000000: 60ec abbc 0196 9e3c 5ee8 27bc cf19 35bc
00000010: e6cc 0b3b bde9 49bc df7f 0f3c 73c5 91bc
00000020: 0ab5 003b 5887 ca3c 5188 1a3d b6ab b43c
00000030: 0973 90bb 0eba 213d ac8b 253d e235 f0bc
00000040: 6907 0b3d 081f 20bb e778 f1bc 8a20 e6bc
00000050: d401 9abc 46cb 23bd b93f 8abc d80e c8bc
00000060: d037 9e3b 7410 d53b de16 31bb d4be d53b
00000070: a5a7 7dbb 02bc 043d f624 debc 8463 e6bc
00000080: 3828 8c3c 4ba1 26bc a6df 583d 1cc7 5bbc
00000090: bcfb d23b 2b78 003d b075 383d 700c 2cbb
000000a0: 74e5 78ba 991b 463d 873b a0bc b88e 8a3c
000000b0: efe5 78ba 8192 e23c ac34 26bc 26a6 65bc
000000c0: ebae 88bc d249 363c 2ac1 923c 1684 04bd
000000d0: cdc5 dfbc f723 233c 4bf2 3c3d 14b2 313d
000000e0: 9db1 2dbc b7f8 0e3b c123 363d 5db1 4c3d
000000f0: c207 ae3c 8bd3 ad3c 2248 fc3c 7c60 f13c
00000100: 6b30 66bd 7b24 5c3c d77b 0fbd 6ad1 6dbd
00000110: 871b 38bc 40f5 1abd 6cc0 1e3d 95c0 3fbc
00000120: 811f c1bc d2f1 3d3d 2459 443b 347d efbc
00000130: 17c1 763c f38a 7e3c bbca 93bc ade0 81bc
00000140: e15c 783c 8fb7 26bd 9ba4 433c 05dc 3a3c
00000150: acce 16bc 077b 03bd d881 223a 6296 633c
00000160: 4d03 ba3c e755 1dbc dfb2 953c 635a d6bc
00000170: 2aa7 8bbc d728 f1ba c894 003d ee94 91bc
00000180: 18fc 933a aa5f 183d b123 df3c 7eeb bcbc
00000190: 26ac aabc 20f5 81bc b347 f83a 8fc3 393c
000001a0: dc30 9a3c e018 ddbc 91f3 04bd faa1 39bd
000001b0: 333f a63b 640d 713d c650 63bc f859 f1ba
000001c0: 28a8 123d 2ba4 8d3c 6b69 993c 92c6 feb9
000001d0: 1189 843c 508c 893b 5272 20bd a629 dbbc
000001e0: 07b1 263a f86c 2cbc c893 9bbc 7e42 643c
000001f0: ffb9 293d 3e70 1c3c 5f19 d63c 3b92 8b3c
00000200: 0418 8f3c f83e bdb8 2f18 813c b7b4 ed3c
00000210: 2d43 f43c 19be 583c 066e c5bc 70cf c83c
00000220: 1cf3 be3c f635 b0bc 1d06 bbbc c46b 1bbd
00000230: 58b0 e1bb 1624 ecbc 324e a9bc 6b36 b9bc
00000240: 8c5b 8abb ed54 283d 1ce1 33bc e094 433d
00000250: 31b8 ab3c 9e74 be3c 7c31 97bb 4f93 c83c
00000260: a12c 063d 8341 c2bc 6395 ffbb 3485 ea3c
00000270: f315 c4bb 0c37 ab3c 311a 77bc dfc6 c2bc
00000280: ac0d 7e3c 0c0b 1e3c 62d9 d2bb 1f45 dcbc
00000290: 6cc1 11bc e8b8 063b b578 24bd c93a d4bc
000002a0: fecf e33b 95b5 bbbc 455d a83c 14d0 a0bc
000002b0: bac4 1d3c 076c c0bc ab86 8b3b 5edd 8b3a
000002c0: 7724 f63c 9fc1 adbc 17e0 dfbc 90c7 173d
000002d0: 5657 bb3c 242a 433d 743c ac3c edda fd3b
000002e0: 9e0e fe3c 51a8 043d 83db 1e3d 0dc0 153d
000002f0: b246 de3c 201c 0dba d9a8 01bd 9d14 80bd
00000300: b800 bb3a c88c efbc f398 36bd 0777 03bd
00000310: 6f62 4dbd df37 0fbd 9f23 123d 1913 963c
00000320: 80af e23c c121 3e3b 98da 88bc 0459 283c
00000330: dc90 9dbb c771 8e3c 9651 dfbc 684c f33c
00000340: 61da c13c 0e59 83bc de91 10bd d7d2 cebc
00000350: 9367 0fbd 3bea 953b eedb 0bbd 7d4f 3fbd
00000360: 5563 1b3c c534 af3c 43c2 70bb cbe7 12bd
00000370: 757b 04bd 306c 12bd b3d1 413d 9cea 0c3d
00000380: 30e9 373d 69b4 f1bc 58fb 0e3c 0ef0 83bb
00000390: 226f ae3c 6ff7 abbc 0ac4 e2bb ad6c dd3b
000003a0: 1741 693d c1e0 6dbc 6463 e1bc 4aa2 ca3c
000003b0: 664c 983c 62a9 f73b 2424 bbbc e5f0 b2b9
000003c0: 8f75 0cbd a479 853c 3ef1 573c 71d2 99ba
000003d0: 7283 c33c 4cb7 09bd 446e dcbb e670 f9bc
000003e0: c52d 14bd 5478 febc cb98 f8bb 3b1b b83c
000003f0: 9880 c53c 998a 4a3c cc61 2d3c acb9 6ebc
-0.020986736 0.019358637 -0.010248272 -0.0110535165 0.0021331846 -0.012323794 0.008758514 -0.017794346
0.0019639158 0.02472274 0.037727658 0.022054534 -0.0044082445 0.039484076 0.040416405 -0.029322568
0.033942614 -0.0024432559 -0.029476596 -0.028091688 -0.0187997 -0.03998878 -0.016876088 -0.02442114
0.0048284307 0.0065022055 -0.0027021687 0.0065229926 -0.003870466 0.03240586 -0.027117234 -0.028123625
0.017109022 -0.010170291 0.052947663 -0.013414171 0.0064387005 0.0313646 0.04503411 -0.002625253
-0.00094946404 0.048366163 -0.019559635 0.016913757 -0.0009494712 0.02765775 -0.010144394 -0.014016664
-0.01668497 0.011125999 0.017914373 -0.03235253 -0.027315998 0.009957305 0.046129506 0.04338272
-0.010601428 0.0021815726 0.04446769 0.049973834 0.021243934 0.021219036 0.030796114 0.029464953
-0.05619852 0.013436432 -0.035030212 -0.05806104 -0.011237032 -0.037831545 0.038757727 -0.01170363
-0.023574593 0.046373196 0.0029960359 -0.029234506 0.015060685 0.015536058 -0.018041005 -0.015854204
0.015158863 -0.0407024 0.0119411005 0.011404996 -0.009204548 -0.03209975 0.0006199158 0.0138908345
0.022706652 -0.009603 0.018273769 -0.026166147 -0.017047483 -0.0018399012 0.03139189 -0.01777121
0.001129034 0.037200607 0.027238699 -0.02306151 -0.02083404 -0.015863955 0.0018942266 0.011338129
0.018822126 -0.0269894 -0.032458846 -0.04532049 0.005073452 0.05885066 -0.013874238 -0.0018413654
0.035804898 0.017290195 0.018727025 -0.00048594602 0.01617864 0.0041976348 -0.039171524 -0.026753258
0.00063587766 -0.010524027 -0.018991366 0.013931869 0.041437145 0.009548245 0.026135145 0.017037502
0.017467506 -9.023951e-05 0.015758602 0.029016836 0.029817188 0.013228917 -0.024100315 0.024512976
0.023309283 -0.021510106 -0.022830063 -0.03794457 -0.006887477 -0.0288258 -0.02066717 -0.022608956
-0.004222339 0.041096617 -0.010978963 0.0477494 0.020961853 0.023248967 -0.0046140533 0.024484305
0.032757405 -0.023712879 -0.0077997907 0.02862797 -0.005984062 0.020900272 -0.015081928 -0.02377647
0.015506189 0.0096461885 -0.0064346055 -0.026888428 -0.008896213 0.002055699 -0.040154178 -0.025906937
0.006952285 -0.022913733 0.020552287 -0.01963047 0.009629423 -0.023489011 0.004257997 0.0010670831
0.030046685 -0.02121049 -0.027328534 0.037055552 0.022868793 0.04764761 0.02102492 0.0077470453
0.03101283 0.03238708 0.03878356 0.036560107 0.02713332 -0.0005382914 -0.031655166 -0.06253932
0.0014267182 -0.029241934 -0.044579457 -0.032095935 -0.0501427 -0.034965392 0.035678502 0.018319653
0.027671576 0.0029011818 -0.016705796 0.010275129 -0.0048085283 0.017388238 -0.027260583 0.02969952
0.023663701 -0.016033676 -0.03529536 -0.02524702 -0.035010885 0.0045750416 -0.03414529 -0.046706665
0.009484132 0.021387467 -0.0036736883 -0.035865586 -0.0323443 -0.035747707 0.047319125 0.03440343
0.04490012 -0.029504972 0.008726917 -0.0040264195 0.021293227 -0.020992009 -0.0069203423 0.00675734
0.05694684 -0.014518918 -0.027513213 0.024735589 0.018591117 0.007558034 -0.022844382 -0.00034130286
-0.0342918 0.016293354 0.013180075 -0.001173569 0.023866389 -0.03362207 -0.006727012 -0.030449342
-0.03617646 -0.031063236 -0.0075865737 0.022473922 0.02410917 0.012362146 0.010582399 -0.014570635

bias f4 [64]
00000000: 9997 023c 4c4b cfbb 8413 bdbc c006 c6bc
00000010: 4f36 5e3c 31be 48bd 86bb 98bd 66af 063b
00000020: 6e08 9e3c 87ee acbc 5905 49bc 52a6 27bc
00000030: 5804 c6bb 2003 37bd 1fa8 9fbc da2a 32bd
00000040: f4d9 a2bd b133 ac3c 3f37 45bc 2133 813c
00000050: dfdc 51bd dec8 98bd 9624 a4bc a9fb a8bc
00000060: 9783 19bd e52a 5cbd 62fb b6bc ee32 55bd
00000070: 3690 07bd 732f a0bc 418c dc3c afa6 23bc
00000080: d77a f0bc 3ef5 933c 465e 1c3d d6cc 13bc
00000090: 45f9 96bd 9835 3c3c 75ec bfbb 19c5 8d3c
000000a0: 645d 98bc 93e7 37bd 4cc0 2bbd ce70 043c
000000b0: c10c 8cbc 1dbe 15bd d729 afbd 0804 abbc
000000c0: 5eef 88bd e199 8dbd 80c0 3b3c 0853 4fbb
000000d0: 57b1 53bd 436b a6bc ff77 863c 0e8a 143c
000000e0: e1a3 6cbd bf2d 643b 7bc4 11bd 8eec d1bc
000000f0: 0c8d 9dbd 4e6a 2ebd ac83 8e38 4f2b 74bd
0.007970714 -0.0063261148 -0.023080595 -0.02417314 0.013562753 -0.049009506 -0.07457642 0.0020551323
0.019291129 -0.021109832 -0.012269341 -0.010232525 -0.0060429983 -0.044680715 -0.019489346 -0.043497898
-0.079517275 0.021020742 -0.0120370975 0.01577145 -0.05123603 -0.074601874 -0.020036977 -0.020627813
-0.03747901 -0.053751845 -0.022336666 -0.052050523 -0.033096515 -0.019553876 0.026922347 -0.009988471
-0.02935545 0.018061277 0.038175844 -0.009021005 -0.07371763 0.011487387 -0.0058570453 0.017305898
-0.01859922 -0.04489858 -0.041931435 0.008083535 -0.017095925 -0.03655826 -0.08552902 -0.020875946
-0.06686281 -0.06914116 0.01145947 -0.0031635184 -0.051682796 -0.020314818 0.01641464 0.009066118
-0.057773475 0.0034817306 -0.03558777 -0.025625493 -0.07692918 -0.04258185 6.7956134e-05 -0.059611615

weight f4 [64, 1024]
00000000: 407d d03c cbfe 80bb 46ef 4bbc 0875 75bc
00000010: 1f0d 5c3c 0788 58bc 1cf5 1b3d 4a7a 623c
00000020: 3a93 af3c 4d59 5dbc 8001 88bb c435 363c
00000030: 8406 2fbd 3e23 48bc 5afa a5bc cb95 e8bc
00000040: b7b2 cc3c 47e5 2fbc 23ad 87bb bbc0 d7bc
00000050: 42e4 2dbc 6be4 cabb 2ea1 0d3c 6b78 a4bc
00000060: 992f 11bd d745 623c 13b8 9e3c 971f 11bd
00000070: 0307 6ebb 1e99 b2bb 47b0 ba3b f963 613c
00000080: bfb8 9ebc 9b38 0fbc c1df 27bb 5d3f 92bc
00000090: 64ef 06bc 9091 013c fd41 36bb d143 3ebd
000000a0: 16da aa3c 6ea5 07bc d6a1 c23c 50aa bbbc
000000b0: a1dd ca3b 82a7 3ebc 10f3 853c 1b33 d7bc
000000c0: 826b b8bb 9313 cebc 40ac e43b 066d 4d3c
000000d0: 08a4 7e3b f81e db3c 2a36 82bc 0596 243c
000000e0: a7c1 3c3d f029 083c 2bcc 0fbb 8b14 c53c
000000f0: 7792 6ebc c97f bdbc 1184 d3bc 3b7e e63c
00000100: 6cbd d73a df60 173d bbbd b23c 56dd c6bc
00000110: 9c50 ea3c 2712 3abc bf8f 49bb aed3 c93b
00000120: dd00 1c3b 461e ad3b 4916 573c 32d6 923b
00000130: d1ac a43c e272 0ebd 9d80 09bd 3538 49bc
00000140: d4c4 843c 5e2b 8f3a 720b 9a3c f5ef bc3c
00000150: 5d45 0fbd be7a 02bd 84bb b43a 637c 263c
00000160: e541 b4bc e91d 9eba 6492 903c dc53 b139
00000170: c353 883c 0b30 063d a445 9e3c 876f 67bc
00000180: aa48 05bd 027b a9bc 3aec d93b e1bd 18bd
00000190: 798d 123c 3419 aebb 7db5 b9bb c250 3ebd
000001a0: 5e32 ab39 3237 3f3a 93f8 443b 4846 52bb
000001b0: e967 a43c ca5e a13c 61c4 35bc b2a0 d43c
000001c0: 8f04 f4bc 4a8d 143d ff61 d63c 7734 863c
000001d0: 3e30 1fbd 0827 73bc 7a0d a33c 4154 12bd
000001e0: 0aef 44bd dadf 213c da9a 4fbd cf90 63bd
000001f0: 1f81 86bc b97e 843b f66d 17bc 8b67 c3b9
00000200: 8060 4b3c 8616 523c 7cea 613c b0eb b73c
00000210: 9d1e 8d3c f04e 55bc b090 f7bb 827d 9e3c
00000220: 8edc b3bc 9abc b23c 6c1b 1cbd cedd 7dbb
00000230: cbdb e5bc 3180 34bd 748d 32bd 0078 3ebc
00000240: 42aa da3c c530 a7bc fb00 63bb c2d2 8bbc
00000250: f946 8abc 7350 373c 87e1 26bb 2f32 d2bc
00000260: f095 1dbd 2eea c6bc ab32 f4bc 93c8 ed3c
00000270: f5ad 093d 8088 b7bb f118 4bbc 1999 fb3c
00000280: 207a ad3c 3ca0 843c 4ff7 a1bc 2527 e63c
00000290: 1257 bf3c 7d58 093d 02c4 153d 9695 00bc
000002a0: a585 6abb 2f79 eabc 8c2a e0bc ef03 9a3c
000002b0: ac6f 6d3c 05b8 41bb 98b0 4c3b 0152 303c
000002c0: 0548 f2bc fe41 873a 7cb8 b8bc 2013 af3b
000002d0: f44a 803c d230 033d 342d 73ba 77a8 c3bc
000002e0: 92d6 e5bb e818 623b ebb5 023c 2540 ae3c
000002f0: 7cd2 6c3c 115a a13c 222c fd3a d88e 0f3d
00000300: bccf b83c 04c7 f6bb 8e9d 173c 89ba 963c
00000310: 319a e43c 49bb 463d 32e7 c53c 3fea c5bc
00000320: f88d 2bbc e531 f03c a28c cdbb fc6d d7bc
00000330: 517f 00bc 8669 2f3c 0bd0 3f3a 889d e3bc
00000340: 3c18 373b 78a4 0dbc 25de af3c 89b4 cbbc
00000350: beb3 89bc a23c d23c 08bc db3b 45a6 323c
00000360: 13be 873c 30de 62bc 9f7b 413c e17a 96bc
00000370: 4d76 7cbb 4137 02bd 62bd 2cbc b2b1 ff3a
00000380: b8be 2c3c 9b59 3c3c 91cd eb3c 9dd2 a43c
00000390: 55a2 87bc e8c4 ec3c 3214 4fba 0f61 24bb
000003a0: 1295 cebc c246 fbbb d21e 9239 5611 053d
000003b0: d944 4b3c 5eb0 f8bc 5e7a e3bc 567f a4bc
000003c0: ceee 963c a87f 183c 8d05 f3bc b77b 93bc
000003d0: e63b ddbc a743 b43c 2901 3c3c c7d7 383c
000003e0: bf3e 453b a930 2b3b 78ce a0bc 8336 b2bc
000003f0: db85 033d 8f05 a6bc f1fc 123d dc3e 0c3c
0.025450349 -0.0039366237 -0.012447184 -0.014981516 0.013430863 -0.013216025 0.03807555 0.013823101
0.021432508 -0.0135100605 -0.0041505694 0.011121217 -0.042730823 -0.012215434 -0.020260978 -0.02839174
0.024987562 -0.010735816 -0.0041405126 -0.026337018 -0.010613503 -0.0061917803 0.008644385 -0.020076951
-0.035445783 0.013810596 0.019374883 -0.035430517 -0.0036320097 -0.005450382 0.0056972834 0.0137567455
-0.019375203 -0.008741523 -0.0025615545 -0.01785248 -0.008235786 0.00790824 -0.0027810328 -0.046451394
0.020855945 -0.008279188 0.02375881 -0.02290836 0.006190971 -0.011636617 0.016351253 -0.026269486
-0.0056280503 -0.025155818 0.0069785416 0.0125382 0.0038855094 0.026748165 -0.015894968 0.010045533
0.04608312 0.00831078 -0.0021941762 0.024057647 -0.014561287 -0.023132222 -0.02581981 0.028136363
0.001645965 0.036957618 0.021818986 -0.024275463 0.02860289 -0.011356867 -0.0030755845 0.0061592674
0.0023804225 0.00528315 0.013127872 0.0044811005 0.020101937 -0.03477753 -0.03356992 -0.012281467
0.016207136 0.0010922959 0.018804286 0.02306364 -0.03497826 -0.031855337 0.0013788794 0.010161492
-0.022004077 -0.0012063357 0.01764793 0.0003382255 0.016641503 0.03276066 0.019320317 -0.014125711
-0.03254 -0.020688538 0.006650475 -0.037290458 0.0089448625 -0.005313063 -0.005667387 -0.046463735
0.00032653188 0.00072942965 0.0030055388 -0.0032085348 0.02006908 0.01969852 -0.011094184 0.025955532
-0.02978733 0.036267556 0.026169775 0.016382439 -0.038864367 -0.014840849 0.019903887 -0.035724882
-0.048079528 0.0098800305 -0.050684787 -0.055558022 -0.016418992 0.004043427 -0.009242525 -0.00037270444
0.012413144 0.012822753 0.013788816 0.022451252 0.017226512 -0.013019308 -0.00755509 0.019346956
-0.021955755 0.021818448 -0.03811209 -0.0038736942 -0.028058907 -0.044067565 -0.04359193 -0.01162529
0.026692513 -0.020408997 -0.0034638036 -0.01706827 -0.016879546 0.011188614 -0.0025464015 -0.025658695
-0.03847307 -0.024281587 -0.029809317 0.029026305 0.033613164 -0.005600989 -0.012396083 0.030712651
0.021176398 0.016189687 -0.019771246 0.028094837 0.023356948 0.033531655 0.03656388 -0.007848164
-0.0035785225 -0.028622238 -0.027364038 0.018800704 0.014491957 -0.0029559147 0.0031233188 0.010761739
-0.029575357 0.001031935 -0.022548907 0.005342856 0.01566074 0.03202898 -0.000927645 -0.023884041
-0.007014104 0.0034499709 0.007977943 0.02127082 0.01445448 0.019696267 0.0019315521 0.035048336
0.022559993 -0.0075310487 0.009253873 0.018399494 0.027905555 0.048518453 0.024158094 -0.024159549
-0.01047086 0.029320667 -0.0062728683 -0.026297562 -0.007842855 0.010706311 0.00073170726 -0.027785078
0.0027938029 -0.008645169 0.021468231 -0.02486636 -0.01680934 0.025663678 0.0067057647 0.0109039
0.016570127 -0.013846919 0.011809259 -0.01836914 -0.0038522661 -0.031790975 -0.010543199 0.0019507913
0.010543518 0.011495973 0.028784545 0.02011996 -0.016556898 0.028902486 -0.00078994327 -0.0025082265
-0.025217567 -0.007668347 0.00027870253 0.032487236 0.012406551 -0.030357536 -0.02776831 -0.02008025
0.018424418 0.009307779 -0.029665733 -0.018003328 -0.0270061 0.022004915 0.011474886 0.011281914
0.0030097214 0.0026121533 -0.019629702 -0.021754509 0.032110076 -0.020266322 0.035885755 0.008559909

bias f4 [64]
00000000: bd6e fc3c f5d7 b73b 2320 253c 366f 723c
00000010: 05bf 1c3d fb77 bdbc 1980 063b 8770 67bc
00000020: 629d 09bd d4d3 b83b d2f9 933c 0161 d13c
00000030: 06f4 fb3c 5985 11bc 408c 9fbc 39c9 66bd
00000040: edaa 08bd 648c 333d 7cdc b13b 4a5b 72bc
00000050: 6939 46bc 0416 4fbc 6513 a43c 99d2 b1bc
00000060: 404f 89ba 740e 533d 7fc9 2dbd 868d 09bd
00000070: aa2a 06bd 6025 0e3d 8ddd afbc d70a 9dbd
00000080: 5548 93bc 8c8f 24bd a97d cabb 4f9f 8ebc
00000090: 1523 82bd 206c 98bb b6a2 f33c 5d52 c6ba
000000a0: d2d1 5b3c 8da5 e8bc e8a1 24bd eba1 1a3d
000000b0: 6482 1ebc 0935 f0bc cf66 f5bc c814 bfbc
000000c0: 0b2c 103d 8f33 903b de18 2d3c c6ec 9f3b
000000d0: 35d7 f83c 9a99 8aba c2cb 293d d365 bc3c
000000e0: a70e 6c3d c74b 4cbc bc81 1d3c dae3 f1bb
000000f0: 821a 5dbc 0f3e edbc 0ea1 8ebc c44d d03c
0.030814523 0.005610461 0.010078463 0.014797023 0.038268108 -0.0231285 0.002052313 -0.01412595
-0.033597358 0.0056404863 0.01806346 0.02555895 0.030756008 -0.00888189 -0.019476056 -0.056344245
-0.033366133 0.04383506 0.005427895 -0.014792273 -0.012098649 -0.012639526 0.02002878 -0.021706866
-0.0010475889 0.051527455 -0.04242849 -0.033582233 -0.03275553 0.034703612 -0.021467948 -0.07668083
-0.017978827 -0.04017596 -0.0061795306 -0.017409949 -0.063543476 -0.0046515614 0.029740673 -0.0015130747
0.013416724 -0.028399253 -0.04019347 0.037752073 -0.009674642 -0.029322164 -0.02995625 -0.023325339
0.035198253 0.0044006775 0.010565011 0.0048805205 0.030376056 -0.0010574341 0.041454084 0.022997772
0.05763116 -0.012469239 0.009613451 -0.0073818984 -0.0134950895 -0.028960256 -0.017410781 0.025427707

weight f4 [10, 64]
00000000: 9199 84bd c29b 123e 154f 5dbd 60c8 773d
00000010: b8a7 753d c5b8 11bd 0be6 d73d 9250 fa3d
00000020: ec03 9d3d 5126 983d e40a 67be 4d8b 173e
00000030: 5622 efbc 5f5c 263e 2f2a 13bb 1a04 bbbd
00000040: 107d cebd 70e1 3bbd 0fe3 3fbd 0bd3 f93d
00000050: 6586 e63d 5106 293e 762e bc3b 91d0 ac3d
00000060: 1a2e 36bd 3f25 a5bd 249f f93d 0738 9d3d
00000070: 5b9e 073e fa26 5dbb fa7d c83d a20e 1d3e
00000080: be54 973d 7bd6 473e b8a7 a33d 5953 5a3d
00000090: 9237 d03d b326 03be d604 52be 61c9 53be
000000a0: 7869 ad3d cc15 883c 5fbc 60bd ad6e d4bd
000000b0: 590f cbbc 67c8 e93d cfcb 083e 6de1 163e
000000c0: d57f e5bd 1d8b 24be de28 dfbd 7274 963d
000000d0: f145 e9bd 9341 1dbe 03cf b2bc d73d 29be
000000e0: 0407 73bd de12 563e 9107 7f3c 999c c9bd
000000f0: 4e5d 0cbe fe34 d73d 5c34 833d 5067 fdbd
00000100: 4829 4dbd be90 7abb 3ee1 21bc 0330 68be
00000110: 8f28 a23d 4ac7 923d 61bd 40bd bff0 c33d
00000120: a235 42be 0ba4 25be 9005 8fbd f701 45be
00000130: 5638 c5bd e4e0 2f3d ac47 97bc 585f 5b3b
00000140: 4dc7 4ebe 7d92 84bd 8469 15be 9132 a23d
00000150: 60b7 8e3e 7fd8 293b 59c1 a3bd d221 6d3e
00000160: 1f9e 16bd 71b1 2b3e c20b 41be 6f20 4bbe
00000170: f106 833e 615d 65bd 73ad 92bd 6fe6 40be
00000180: 4b29 15be 906b e7bd c484 e7bd a229 16be
00000190: 26d6 97bd c4b3 e8bd 719e ffbd 4d1b 43be
000001a0: af15 febd d7d9 8dbd 7220 60be 54ba 51bd
000001b0: 3b23 26be e18e 8b3e df92 aebd 4df1 aebd
000001c0: f9c9 143d fb86 4d3e 1057 14be d0a3 a8bd
000001d0: a32b 69be 73a1 6a3e 9611 4cbe aae7 5abd
000001e0: 300f 283e 9b67 233d f867 fa3c 486b 463e
000001f0: 03b6 3a3e 8713 1abe 0fa2 22be 6870 a0bc
00000200: 934e c93d 1d3b 1cbe 2f2f d23d be18 ba3a
00000210: 14db d73d 04b6 d23d c9ba 50be 4080 4abd
00000220: a04d 273e 9ab3 de3d d84d 133d 874b 863c
00000230: 5406 6bbd 6367 223e 50be 0fbe faa8 13be
00000240: b725 81bd 0191 be3d 975d d33d a59f e8bd
00000250: e806 3f3d 4305 73bd c331 f73d 0082 fc3d
00000260: 52a1 bb3d 8882 a7bd 375f 32be 9d42 853d
00000270: e3aa e63c 407c eb3b d96a 403e 8e42 3f3d
00000280: 4882 1d3e 4d9a 23bd 670b 9ebd 2762 d93a
00000290: e227 c83d b6e1 e3bd d617 eb3d cc91 0d3e
000002a0: 56d7 b4bd bf5e 06be 1df9 b63d e160 c6bd
000002b0: 3b62 33be 6f96 003d 238f d8bc 95fb 9c3d
000002c0: 09d8 fc3d 87a7 2ebe 24e8 1e3d 1420 af3c
000002d0: 3ff5 a13c 58fb 8bbe 4cf8 e93d cff3 b9bd
000002e0: d4b2 6a3d b327 b53d 81a9 debc c4ec f1bd
000002f0: 54ad bfbd 8fd4 19bc a47e d63d f562 a43d
00000300: df25 533d 585d 02be 2bd4 22be 6122 0c3e
00000310: 9af4 073e d07f e63d 85df 36be ca36 d0bd
00000320: 2107 4c3e 05a2 363e a668 21bd 0ce0 76bc
00000330: bb31 1e3d 738c c83c 580a b9bd 9051 17bd
00000340: 89a1 073d cd63 46bb c56f 1e3d 7559 0fbe
00000350: 3077 9e3c 72d4 4e3b 0003 cebd dd4c 11be
00000360: b199 87bd a259 0bbe aff5 11bd c82d 47bd
00000370: 5721 17be 4c45 f23c bbb1 2abd 6dd2 cdbd
00000380: 901d 2abe 3990 b5bd 54cd ca3d ebba d1bd
00000390: 3374 d7bd 4152 cd3d f6ea cc3c f057 9dbd
000003a0: 5a05 b63d 98e8 d83c e379 aabd 3106 cc3d
000003b0: c32d bbbd 6821 36bc be09 0bbe 5d3f 813b
000003c0: 7891 123e f855 273d 7acb eb3d fb35 473d
000003d0: ce0c 6c3d 0b53 f0bd 7f5a 31bd 654e 8c3d
000003e0: ecb9 0f3d 75e6 073a ce8e b83d 291a ee3d
000003f0: 9437 903c 9747 773d 409e f53d c628 673d
-0.06474603 0.1431723 -0.054030497 0.060493827 0.059974402 -0.0355766 0.10541924 0.12222399
0.07666764 0.07429183 -0.22562748 0.14799233 -0.029191177 0.16246174 -0.0022455563 -0.09131642
-0.100824475 -0.04586929 -0.0468474 0.121984564 0.112561025 0.16506316 0.0057428433 0.084382184
-0.04447756 -0.08063745 0.12188557 0.07676702 0.13244002 -0.0033745156 0.09789653 0.15337613
0.0738921 0.19515412 0.07990974 0.053302143 0.10166849 -0.12807731 -0.20509657 -0.20682289
0.08467382 0.016611956 -0.054867145 -0.10372672 -0.024787592 0.11415177 0.13358997 0.1473443
-0.11206023 -0.16068693 -0.10896467 0.07346429 -0.113902934 -0.15357046 -0.021827227 -0.16527496
-0.059332862 0.20905635 0.015565769 -0.09844322 -0.13707468 0.10508154 0.06406471 -0.12373221
-0.050088197 -0.0038233246 -0.009880362 -0.22674565 0.07917892 0.071669176 -0.047055606 0.09567403
-0.18965772 -0.16175859 -0.06983483 -0.19239031 -0.09629886 0.04293908 -0.018466793 0.0033473577
-0.20193215 -0.06473253 -0.14591032 0.07919801 0.2787428 0.0025916395 -0.079958625 0.23157433
-0.03677189 0.16766907 -0.18852141 -0.19836591 0.25591233 -0.055997256 -0.07161989 -0.18837903
-0.14566533 -0.11299813 -0.1130462 -0.14664319 -0.074138924 -0.113624126 -0.12481392 -0.19053383
-0.124064796 -0.06926315 -0.21887377 -0.051203087 -0.16224377 0.27257445 -0.08524107 -0.08542118
0.03632543 0.20071022 -0.14486337 -0.0823437 -0.22770552 0.2291315 -0.19928584 -0.05344359
0.16412044 0.039893728 0.030567154 0.19376862 0.18233494 -0.15046512 -0.15882133 -0.01958485
0.0982944 -0.15256925 0.10262906 0.0014198048 0.10539833 0.10288623 -0.20383753 -0.049438715
0.16338205 0.108741 0.03596291 0.016393436 -0.05737908 0.15859751 -0.14037442 -0.14419928
-0.06306022 0.09305001 0.10320585 -0.11358575 0.046637446 -0.05933119 0.12070038 0.12329483
0.09161629 -0.08179194 -0.17419134 0.06506846 0.028157657 0.0071864426 0.18790759 0.04669433
0.1538173 -0.039942075 -0.077170186 0.0016585038 0.09773232 -0.11127035 0.11479156 0.13825148
-0.088301346 -0.1312208 0.08934233 -0.09686447 -0.1751794 0.031393465 -0.02643544 0.07665173
0.12345893 -0.17056094 0.038795605 0.0213776 0.019770263 -0.27340198 0.11424312 -0.09079706
0.05729945 0.08845463 -0.027180435 -0.118127376 -0.093592316 -0.009389057 0.104733735 0.08026687
0.05154979 -0.1273092 -0.15901248 0.1368499 0.13276902 0.11254847 -0.17858703 -0.101667
0.19924594 0.17835243 -0.03940644 -0.015068065 0.038621645 0.024481034 -0.09035176 -0.03694302
0.033113036 -0.0030271888 0.03868081 -0.13998969 0.019343942 0.0031559733 -0.10059166 -0.14189477
-0.06621111 -0.13608411 -0.035634693 -0.048627645 -0.14758812 0.029574059 -0.041673403 -0.10049901
-0.1661284 -0.08865399 0.099024445 -0.1024073 -0.1052021 0.10025454 0.025014382 -0.07682788
0.088877395 0.026478097 -0.08324029 0.099621184 -0.09139588 -0.011116363 -0.13577935 0.003944321
0.14313304 0.04085347 0.115134194 0.048635464 0.0576294 -0.11734589 -0.043299194 0.0685089
0.03508942 0.0005184182 0.09011613 0.116260834 0.017604627 0.060371008 0.119930744 0.05643537

bias f4 [10]
00000000: f7d3 3dbe 5039 c6bd b0d2 4ebc d296 58bd
00000010: 0512 f53b caf3 08be 3a5f fd3c a551 e3bd
00000020: d7a3 29bd 442e b8bc
-0.1853789 -0.096789 -0.012623474 -0.05287821 0.0074789547 -0.13374248 0.030929197 -0.11099557
-0.041416015 -0.022482999
