tudui_8.pth (torch, 588600 bytes, 10 tensors)

weight f4 [32, 3, 5, 5]
000000 b2 bc 9d bd 94 5b d4 3d c2 ab 7a 3d 1a 9a be 3d
       -0.077020064 0.1036903 0.061198957 0.09306736
000010 78 dc a3 3a 9d ab 3b 3c 3a fc d0 3c 46 f5 7e bd
       0.0012501618 0.01145449 0.025510896 -0.06224563
000020 7f 62 01 3e 45 ba 8a bd c6 85 9d 3d e7 04 ab 3d
       0.1263523 -0.06773809 0.07691531 0.083505444
000030 94 75 ec 3d 87 4e 83 bd 72 9d 2b 3d 62 28 fa b9
       0.11545864 -0.06411462 0.0418982 -0.00047713803
000040 8e 14 d0 bd ec da c7 3d 43 a7 a8 3d f4 5b c5 bd
       -0.101601705 0.09758553 0.08235028 -0.09636679
000050 91 55 9a bd 2a 42 22 be 7a a3 21 be 77 25 10 3c
       -0.07535852 -0.15845552 -0.15785018 0.008797995
000060 88 41 0d be d7 8d bc 3d e8 00 1c bd d1 11 11 3e
       -0.1379453 0.09206741 -0.0380868 0.14166953
000070 bf fd 24 3e 7a 88 02 bd 4d 38 55 bd 4d cb 05 3c
       0.16112421 -0.031868435 -0.052055646 0.008166146
000080 d7 3e c4 3d c4 93 97 bd 7a 6b 5e 3c 90 c7 8e bd
       0.09582298 -0.07401231 0.013575429 -0.06971657
000090 e6 2d ec bb 3e 1a c2 3d f5 0d 13 bd c4 37 45 bd
       -0.00720762 0.094776616 -0.035901982 -0.048148885
0000a0 9f 88 7a bd 7c 86 49 3d fd f2 fc bd 48 b7 6d 3d
       -0.06116545 0.04920052 -0.12351034 0.05803612
0000b0 f8 a3 a7 bc cd 25 46 bd 25 3b d8 bc da 85 3f 3d
       -0.020463929 -0.048375893 -0.02639539 0.04675851
0000c0 65 d8 d2 bd 8a 6d 20 bc 52 25 13 3d a3 17 86 3d
       -0.1029518 -0.009791741 0.035924263 0.06547477
0000d0 89 1d 0c 3e 18 71 9e 3d 12 63 07 3e 1d 3b 88 bd
       0.13683142 0.07736415 0.13221386 -0.066519
0000e0 ae 3e 2e bd 07 6c 9f bd 83 26 01 3e 7c 51 cd 3c
       -0.042540245 -0.077842765 0.12612347 0.025063269
0000f0 0b 7a e1 bd 58 00 d3 bc 34 2f 2d 3d 9b 87 d0 3c
       -0.11009606 -0.025757 0.042281345 0.025455287
000100 a1 01 94 3d e9 af e2 3d a9 5d b4 bd b5 38 e2 bd
       0.07226873 0.110687084 -0.08806927 -0.11045972
000110 58 ee af 3d 66 e6 06 3d 4c 0f 47 bd 35 96 03 be
       0.08590382 0.03293457 -0.048598573 -0.12850268
000120 89 3b d8 3b 0a 2d 05 be bf 10 b1 bd 7c 82 44 bd
       0.006598894 -0.13005462 -0.08645772 -0.047976002
000130 c9 de ad 3d 7e 3b 02 3e ea 2f 83 3d 64 b2 29 3d
       0.084897585 0.12718007 0.06405623 0.041429892
000140 bb 4d 4a 3d c4 96 5f 3e 37 27 1e 3e 48 6b 44 3e
       0.049390536 0.21834856 0.15444647 0.1918155
000150 d6 cc 29 3e d9 49 c4 3c 8d 01 4b 3e 2f fd 13 3e
       0.16582045 0.023960995 0.1982481 0.1445205
000160 ac 00 01 3e d4 5c f9 3d 75 d7 e8 3c c3 c7 07 3d
       0.12597913 0.12175909 0.02842305 0.033149492
000170 32 b2 f0 3c 4c 1e e3 bd 28 98 8f bd b9 b1 d8 3b
       0.029381845 -0.11089763 -0.070114434 0.006612983
000180 71 8f 1f bd f3 6a b0 bd df 63 b8 bd e7 2b f1 bd
       -0.038955156 -0.08614149 -0.09003424 -0.11775952
000190 9f 27 cd bd f0 02 c9 bd 96 af c9 bd 52 2c 09 be
       -0.10017323 -0.098150134 -0.098479435 -0.13395813
0001a0 3c 0e 9b bd 34 7c 7c bd 2f f6 08 bd e2 97 89 3d
       -0.07571074 -0.061641887 -0.033437904 0.067184225
0001b0 99 96 e6 3d 9b 57 f5 3d e1 1b ce 3d 1d 19 83 3d
       0.11259193 0.119796 0.10063911 0.06401274
0001c0 74 5b b7 3d f0 e4 4c 3c 58 1a d9 3d 26 fe fe bd
       0.0895299 0.012505755 0.10600728 -0.12450819
0001d0 26 e1 3d be 1d 25 f2 bb b2 78 de bd 1b a4 e4 bc
       -0.18542919 -0.007389678 -0.108628646 -0.027910283
0001e0 9c 39 25 bc 37 f6 40 be fb 6b 04 be d5 54 b6 bd
       -0.010084536 -0.18843924 -0.12931816 -0.08902899
0001f0 a4 c4 10 be 78 ef 34 bd e7 86 50 bd ac 83 18 be
       -0.14137512 -0.044173688 -0.050909903 -0.14893979
000200 c1 ba 83 bc 83 28 2d be b6 7e 04 bd f9 69 a5 3d
       -0.016080262 -0.16909985 -0.032347403 0.08076853
000210 56 80 a2 bd 25 8e 9e 3d ab 31 f9 3d 4e b3 84 3b
       -0.079346344 0.07741956 0.121676765 0.004049695
000220 42 dd 0d 3e d2 ca 11 3e 1b 1f be 3c d2 26 0a 3e
       0.13853934 0.14237526 0.023208192 0.13491371
000230 ac 8b 0e be e9 f9 1a be 55 42 fb bd e2 2e 9f bd
       -0.13920468 -0.15134396 -0.12268511 -0.07772614
000240 42 64 c2 bd c5 08 af bc 7e c2 ea bd 20 7d ee bc
       -0.09491779 -0.021366486 -0.11462878 -0.029112399
000250 e7 4f 3a bd 91 b2 4c 3b 30 d6 a2 3d 83 5c 64 bd
       -0.045486357 0.0031234364 0.07951009 -0.05575229
000260 d8 8e c1 3d a2 c6 39 3d 15 ec 0e bd 96 63 dc bd
       0.094510734 0.045355447 -0.034893114 -0.10761182
000270 58 ef 93 bd 4a 0b 89 bd 4e 65 8d 3d c5 cf 30 3d
       -0.072233856 -0.06691606 0.06904088 0.043166894
000280 4d 2d 5f bc ef 07 68 3d 0c 38 ed bd 8b c4 0d be
       -0.01362164 0.05664819 -0.11582956 -0.13844506
000290 ed 3e 75 bd 26 73 07 be f8 c4 12 3d 23 1a aa bd
       -0.059874464 -0.1322752 0.035832375 -0.083057664
0002a0 e9 6d 9d bd 58 ad 78 3c f0 de de bd c9 6c 11 bd
       -0.07686979 0.015178047 -0.10882366 -0.035504136
0002b0 e1 8e e0 3c 0f be 97 3d 8c a2 02 3d 03 df 95 3b
       0.02741188 0.07409298 0.031893298 0.004573704
0002c0 d2 18 06 bd bf 56 8f 3d 33 2d 01 3c 84 c7 63 bd
       -0.032738514 0.069989674 0.0078843115 -0.055610195
0002d0 3d a3 90 3d 09 74 bf 3c 71 9d 94 bd 25 71 bf 3c
       0.07062385 0.02337076 -0.07256592 0.023369381
0002e0 3e d1 04 3d eb ea a8 3c bb f0 66 3d 76 fe 19 bd
       0.03242611 0.02061983 0.056381922 -0.03759619
0002f0 df 04 83 3c 6b 50 e1 bd 8b 97 87 3d 82 58 98 3c
       0.015993534 -0.11001667 0.066207014 0.018596891
000300 ff a4 08 bd 3b 8d 5f 3b bc eb 0d be b5 7e b4 bd
       -0.033360478 0.003411128 -0.13859457 -0.0881323
000310 39 58 02 be 92 df 22 be 2b 49 ce bc e1 8d d9 bd
       -0.12728967 -0.15905598 -0.025181374 -0.106227644
000320 bf bf 86 3d 69 a7 e4 bc a4 58 cf b9 c7 0a f3 3d
       0.065795414 -0.027911859 -0.0003954816 0.1186729
000330 7f 5c 24 3e f7 f5 f5 3d 45 31 31 3e 8e 0f 3e 3e
       0.1605091 0.12009805 0.17303951 0.18560621
000340 51 e1 36 3d c4 46 c2 3c 1a ce 55 bd 0b bd ee 3d
       0.044648472 0.023715384 -0.052198507 0.11657151
000350 64 63 bc 3d 86 8f 70 3d b6 78 ad bd c8 47 ca 3d
       0.09198645 0.058730625 -0.084702894 0.098769724
000360 77 4e 80 3d ec fe 92 3d 7c 15 00 3e cf dd f4 3d
       0.06264966 0.07177529 0.12508196 0.11956369
000370 ae b7 b4 bc 3d 0b 1c 3c 6d 7a 7b bd e3 3e 78 3c
       -0.022060242 0.009524164 -0.06139605 0.015151712
000380 5b e1 8f 3d 0e 16 44 bd 7d 96 12 3d fb 85 23 3e
       0.07025405 -0.047872595 0.035788048 0.15969078
000390 3e 9a 01 3d ae cc 81 3c 8f f2 0f 3c a7 4c 9a 3d
       0.031641237 0.01584467 0.008785858 0.075341515
0003a0 b6 e9 c8 bd c3 a0 09 3d 56 49 9f bd 55 f1 0e be
       -0.09810202 0.03360058 -0.077776596 -0.13959248
0003b0 27 c4 dd bc 1c 6f 02 be 0b f4 6d 3d 86 e9 20 bd
       -0.027071072 -0.12737697 0.058094066 -0.039285205
0003c0 e6 e9 e8 bd b6 d7 c9 bd a9 d5 aa bd 8f ca 39 3c
       -0.113727376 -0.09855597 -0.08341534 0.011339798
0003d0 86 85 25 bc d8 7f 79 bc b0 32 b3 bd 8d 5a 9c bd
       -0.010102635 -0.015228234 -0.08749902 -0.07634459
0003e0 ec 63 2b be 03 73 1e be 9f 51 8a 3d 00 b9 59 3d
       -0.16737336 -0.15473561 0.06753849 0.053154945
0003f0 02 ac 4e bd 96 20 8b bb 3d df 96 3d 3f 8c 13 bd
       -0.05045701 -0.004245828 0.07366798 -0.03602242

bias f4 [32]
000000 f1 03 d2 bd c2 dd 11 bd a4 f5 e4 bd c1 13 8c 3d
       -0.10254658 -0.035611875 -0.11179665 0.06839705
000010 3f 88 c3 bd b5 68 66 3e b1 f5 10 3e d1 7b 8b be
       -0.09547471 0.2250088 0.14156224 -0.27242902
000020 b4 31 da 3d 2d bd 43 3c b7 db 20 3d e7 50 07 3e
       0.10654011 0.0119469585 0.039272036 0.13214456
000030 c0 07 d4 be c6 0a 70 3e 0b 9a ec bd f0 d1 ba be
       -0.41412163 0.2344161 -0.11552819 -0.36488295
000040 c4 23 6f bb 70 cb a5 bd f0 a7 79 3e 7a 3f 9c 3c
       -0.0036489824 -0.08095443 0.2438047 0.019073237
000050 d7 62 d1 bd 06 29 44 be b0 5d 9f bb 75 c5 31 3c
       -0.1022393 -0.19156274 -0.0048634633 0.0108503
000060 91 4a 58 3d c1 86 18 bd 60 17 0d bd f6 25 68 bc
       0.052805487 -0.037237886 -0.03444612 -0.014169207
000070 e0 ee 24 3e 08 4c 87 bd f5 f7 fb bd 54 23 86 bc
       0.16106749 -0.06606299 -0.123031534 -0.016374268

weight f4 [32, 32, 5, 5]
000000 fc fb e0 3c 3d 11 e2 bb 84 de 6f 3b 15 9e b1 bc
       0.027463906 -0.0068990276 0.0036601136 -0.021681825
000010 82 4b d9 3c 11 92 08 3d 2c 7b 06 bd 98 99 f8 bc
       0.026525263 0.033342425 -0.03283231 -0.030346677
000020 35 19 ce bc 9f f0 43 bb a7 80 e1 bc af da 22 3c
       -0.025158504 -0.002989806 -0.027527167 0.009939834
000030 2f 92 e8 bc 2c 69 80 3c f5 d7 7f bc 2d 1c c8 bc
       -0.028390018 0.01567515 -0.015615453 -0.024427498
000040 c6 4c 72 bb ba 73 fc 3c 81 56 a7 bc f2 e3 d1 bc
       -0.003697203 0.030816901 -0.02042699 -0.025621388
000050 78 79 cd 3c ad e7 d0 bc 32 91 f7 3c 66 58 1a bc
       0.025082335 -0.025501097 0.030220602 -0.00942049
000060 ad b0 88 bc 8c 09 19 bd d7 3e 0e bd 55 e4 de 3b
       -0.016685808 -0.03736262 -0.034727897 0.0068021216
000070 f6 e1 86 3c f0 47 df 3c 4d df fa bc 8c da b7 3c
       0.016465168 0.027255982 -0.030624056 0.022443078
000080 8b f0 eb 3b c4 88 b2 3c e2 a1 01 bd ef cd 3c 3c
       0.007200306 0.02179373 -0.031648524 0.011523708
000090 9b 07 c4 bc a8 21 4c 39 20 51 d3 3c be da ea bc
       -0.023929408 0.00019467494 0.02579552 -0.028668758
0000a0 7b 19 9c bc f6 e0 ed 3b 09 45 d7 3c 12 bd af 3c
       -0.019055119 0.0072594834 0.026278036 0.02145246
0000b0 45 8a f9 3c 3d 05 39 3c 46 18 6a bc 6a a3 20 bc
       0.03046144 0.011292753 -0.014288014 -0.009804586
0000c0 b7 87 38 3c 37 32 7c b9 a5 87 f6 bc 14 a2 c0 bc
       0.011262826 -0.00024051299 -0.030093977 -0.023514785
0000d0 a2 53 7a bc 31 0f 29 3b 88 be f1 3b ed 1c df bc
       -0.015278729 0.0025796408 0.0073774494 -0.027235473
0000e0 72 57 f2 bc 8c e0 1b 3c bc f8 ea bc 4d 5a ca 3a
       -0.029582713 0.009513985 -0.028683059 0.0015438289
0000f0 d6 79 a6 bc 27 78 c2 bc 04 69 32 bd a3 a4 4d bd
       -0.020321768 -0.023738934 -0.043557182 -0.050205838
000100 88 a5 24 bd 53 83 31 bd 07 5c 38 bd 9a 57 2d bc
       -0.040196925 -0.04333813 -0.04500964 -0.010579968
000110 33 6d e5 bb af 22 1b bd b7 30 8a bc e6 11 91 bb
       -0.007001543 -0.037874874 -0.016868932 -0.0044271825
000120 ea 7f ec ba 30 56 61 3c dd 39 f3 3c f6 38 80 3c
       -0.0018043492 0.013753459 0.029690677 0.015652161
000130 d9 f1 0a 3b 31 4f e9 bc 85 eb b2 bc 71 ee f2 bc
       0.0021201281 -0.028480144 -0.02184082 -0.029654713
000140 c5 72 05 bd 5c 91 9d 3c 0f ba 12 3c a6 75 a0 bc
       -0.032580156 0.019234352 0.008955493 -0.01958735
000150 ba 8a f1 bc cc aa 84 bc 57 9d df bc bd 13 ad bc
       -0.029485095 -0.016194724 -0.027296705 -0.021127576
000160 3e 38 42 bd cd 0b 0d bd 2a 50 01 bd 59 e8 2f bd
       -0.047416918 -0.034435082 -0.03157059 -0.042946193
000170 82 0b 9a 3b b7 52 df 3b 2f f3 e5 ba e1 57 30 bc
       0.004701079 0.0068152803 -0.0017543788 -0.010763139
000180 b1 59 d9 3c 08 6d 7c bc ef 65 b1 bc 0e 69 e3 3b
       0.026532026 -0.015406854 -0.021655051 0.0069400137
000190 15 53 07 bc 21 89 02 3d 74 44 cc bc 85 6c ec bc
       -0.008259554 0.031869058 -0.024934985 -0.02886034
0001a0 37 46 dd 3c 1f e7 e6 3b 92 2c 62 3b 84 9a 8b 3c
       0.02701102 0.0070465948 0.003451143 0.017041452
0001b0 98 fd 15 bc aa 5f 64 3c 05 17 68 bb 13 b0 72 bc
       -0.0091547 0.013938824 -0.0035414111 -0.014812487
0001c0 f9 a1 d3 bc 91 2e 93 3c f8 b5 fb bb 13 cd 53 3c
       -0.02583407 0.01796654 -0.0076816045 0.0129273115
0001d0 5d 40 02 3d 11 53 84 3b e6 5d 08 bd c6 8d a4 3c
       0.031799663 0.0040382226 -0.033292674 0.020087134
0001e0 ca 91 24 3d fd 15 ae bc 2c ed 07 3d c5 33 12 3d
       0.040178098 -0.02125072 0.03318517 0.035693903
0001f0 c8 a8 db 3c 77 d6 d6 3b 8a 44 b4 bc fa 86 22 bd
       0.02681388 0.006556328 -0.022005338 -0.039679505
000200 4b e0 92 bc ff 93 56 3c 11 8b b6 3c 53 ef f2 bc
       -0.017929217 0.013096808 0.022283109 -0.029655134
000210 a0 1e b0 bb 2c c7 3e bc 0d a7 5b 3b b1 25 09 bd
       -0.0053747445 -0.011644166 0.0033516318 -0.03348321
000220 1d 31 b7 3c c6 ad fe bb 9d e3 11 bc 69 73 51 3c
       0.022362286 -0.0077721803 -0.008904365 0.012783864
000230 94 d1 e4 bc b8 d7 45 3c ab 26 c4 3c 24 53 48 3c
       -0.027931966 0.012075357 0.02394422 0.0122268535
000240 86 fe 22 bc 17 cb 01 3d 33 be ea 3c 74 b1 4e 3d
       -0.009948378 0.031687822 0.028655147 0.0504622
000250 9d b9 17 3c 39 dc 2a 3c c1 67 73 bc d5 09 cf bc
       0.009260562 0.010428482 -0.01485628 -0.025273243
000260 9f e3 a8 3c f3 12 93 ba 6e e6 9f 3c 02 88 79 3c
       0.02061635 -0.0011220857 0.019519057 0.015230181
000270 3d fb 1d bd b3 64 68 3c c1 30 0c bd 71 ad ec bc
       -0.038569678 0.014184165 -0.034226183 -0.028891297
000280 3d 4e 7a 3c 55 ef 4e bd 05 ab 0c bd 1d de a4 3c
       0.0152774425 -0.050521214 -0.034342784 0.020125443
000290 55 8f 93 bb ac 2b 9a bc 4c 71 e3 bc e7 a0 59 bd
       -0.0045031705 -0.018819652 -0.027763985 -0.053131964
0002a0 15 6f 8e bc a3 b8 d6 3a f3 e3 cf bc 0b df 21 bc
       -0.017386952 0.001638193 -0.02537725 -0.009879838
0002b0 6b af 2c bd 94 32 ba 3b 8d be fc bc ec be 80 38
       -0.04215948 0.005682299 -0.03085258 6.1390776e-05
0002c0 ee d9 42 bc 01 a6 d3 bc ab 1d e6 3c d7 89 fb 3c
       -0.011892779 -0.025835993 0.028090319 0.030705376
0002d0 28 e7 ae bc 92 f3 26 bc e6 54 fc 3c 98 2c 48 3c
       -0.021350458 -0.010189908 0.030802201 0.012217663
0002e0 0b a0 b8 bb 9a b4 e2 bc 34 fb cb bc ab b2 bb bc
       -0.005634313 -0.027674008 -0.024900056 -0.022912344
0002f0 00 0e 0e 3c 3d 85 11 3d 73 f6 17 bd fe 43 2e bd
       0.00867033 0.035527457 -0.037100267 -0.04254531
000300 da 9e a6 3c d1 c9 d6 bc e8 57 bf 3c fe 3d 10 bd
       0.020339418 -0.02621928 0.023357347 -0.03521537
000310 3b e4 1c bd 71 e3 01 3c a8 23 7d bc 3e a0 ac 3c
       -0.038303595 0.007927761 -0.015450396 0.021072503
000320 0d ad 20 3c 3c 95 2b bb 48 df a7 3b 08 5c 03 bd
       0.0098068835 -0.002618148 0.0051230527 -0.03207019
000330 05 af ef bc 8a f7 c9 bc c3 83 f0 bb ee 4f ad 3c
       -0.02925826 -0.024654169 -0.007339926 0.021156278
000340 09 f4 9d 3c ed dc 9e bc 7a c4 bb bc 1f 55 fb ba
       0.019281404 -0.019392455 -0.022920836 -0.0019175148
000350 34 35 93 ba 0a ed dc bc 08 7a df bc a8 8f 83 3c
       -0.0011231066 -0.026968498 -0.027279869 0.016059712
000360 0b 31 34 3c e6 5c c4 bb 73 23 04 bd 0e 1c 5a 3b
       0.010998021 -0.0059925197 -0.03226037 0.0033280882
000370 31 ee a0 3c 6b ea c1 3c 1f d2 cc bc a5 71 e6 bb
       0.019644829 0.02367135 -0.025002537 -0.0070325905
000380 5b 98 f8 3c fe b9 6d bc e5 d0 cc 3c 5f 17 2f 3c
       0.030346086 -0.014509676 0.025001952 0.010686724
000390 f1 d4 79 bc 05 7a 97 bc 57 48 84 bc 07 14 0e bc
       -0.015248523 -0.0184908 -0.016147776 -0.008671767
0003a0 9c be c3 bc 79 22 99 bc a5 4d 69 bc 84 15 0a bd
       -0.0238946 -0.018693196 -0.014239703 -0.033711925
0003b0 79 d0 a6 bc 8c 79 c7 bb 7e 84 52 bd c5 a4 a4 bc
       -0.02036308 -0.0060874876 -0.051395886 -0.0200981
0003c0 26 c6 fe bc a9 f6 a6 bc d1 f5 3e bb f8 73 d6 3b
       -0.031100344 -0.020381289 -0.0029138217 0.0065445863
0003d0 d7 4f d8 bc c0 04 31 bb 0d 6a 64 bb 37 6e 51 3c
       -0.026405258 -0.0027010888 -0.003485325 0.012782625
0003e0 eb 21 51 3c cc f1 42 ba c8 5a c5 bc ae a7 0a bd
       0.012764434 -0.0007436543 -0.02409114 -0.033851318
0003f0 8e b9 71 3c c3 c5 2b bd 09 c2 70 bc 4e b3 10 bd
       0.014753712 -0.041936647 -0.014694699 -0.03532725

bias f4 [32]
000000 c8 a4 ab bd 34 29 5b bd 50 a2 8f 3d f5 01 98 bd
       -0.08381039 -0.05350609 0.070133805 -0.07422248
000010 7e 14 9b 3d 63 7f 53 3d 5b 8a c7 3b 07 99 a0 3c
       0.07572268 0.051635157 0.0060894913 0.01960422
000020 d1 85 8b 3c d8 8e 83 bd 01 04 ae bd 18 35 9f bd
       0.017031582 -0.0642373 -0.084968574 -0.07773799
000030 01 8f 48 bd d4 33 ad bd 79 f5 37 bb e7 0c cf bd
       -0.048964504 -0.08457151 -0.0028069897 -0.10109883
000040 dc f4 26 bc aa c4 83 bd ee 5b 4d 3d a0 fe 4e bd
       -0.010190215 -0.06433995 0.0501365 -0.050535798
000050 69 77 52 bd ea b5 53 bd ae eb fc bd 98 3d bf 3d
       -0.05138341 -0.05168716 -0.1234964 0.0933792
000060 68 9c 2d 3b 42 35 31 bd 4c 8c 27 bd 73 f1 cf bc
       0.002649093 -0.04326368 -0.040905282 -0.025383687
000070 b0 48 8e bd 98 dc 5c 3d a8 8f 28 bd f6 8b af bc
       -0.06947458 0.053921312 -0.041152626 -0.021429043

weight f4 [64, 32, 5, 5]
000000 0c f9 b0 bc 09 e6 86 3c 34 d1 47 bc b4 cc 43 bc
       -0.02160313 0.016467111 -0.012195874 -0.0119506605
000010 6e b3 26 3a 43 8f 2c bc 27 ea 24 3c 28 07 6d bc
       0.00063591346 -0.010532203 0.010065592 -0.014467038
000020 64 e6 b3 3b e9 6d d9 3c 27 44 21 3d c0 ab ca 3c
       0.005490111 0.026541667 0.039371636 0.0247401
000030 06 28 21 ba fe 62 30 3d 52 bd 2f 3d 34 8d ea bc
       -0.00061476266 0.043063156 0.04290516 -0.028631784
000040 be 6f 08 3d fc 8f 1c bb 1f a7 f5 bc d4 09 ea bc
       0.03330969 -0.0023889532 -0.029986916 -0.02856914
000050 d3 e8 a8 bc ed 9e 30 bd 4e b0 99 bc cc 84 d3 bc
       -0.020618832 -0.043120313 -0.018760826 -0.025820158
000060 38 6b 58 3b c5 b1 28 3b c4 f0 fb ba 6a b7 46 3c
       0.0033022892 0.0025740725 -0.0019221534 0.01212869
000070 00 0f 6b bb f6 25 0d 3d 26 b8 c9 bc f2 6d e8 bc
       -0.0035867095 0.03446003 -0.024623942 -0.028372739
000080 70 21 a4 3c 0c 61 1a bc 2e a0 66 3d a0 cf 36 bc
       0.020035475 -0.009422552 0.056305103 -0.0111579
000090 3a 88 3f 3b 85 56 01 3d ce 5b 31 3d e3 ed 30 bb
       0.0029225484 0.031576652 0.043300442 -0.002699726
0000a0 de 35 b3 3a 10 d5 3c 3d a0 43 a7 bc b2 ef 65 3c
       0.001367267 0.04610163 -0.020417988 0.014034199
0000b0 43 ef b3 bb c6 9c 00 3d c2 98 20 bc 83 04 53 bc
       -0.0054911687 0.03139951 -0.009802045 -0.012879494
0000c0 8a 48 84 bc c7 53 d4 3b fc bb a2 3c d4 20 d3 bc
       -0.01614787 0.0064797136 0.019865029 -0.02577249
0000d0 f3 91 d9 bc d7 fb 20 3c 88 53 44 3d 89 b1 3a 3d
       -0.026558852 0.009825668 0.047931224 0.045579467
0000e0 6c 6b 2f bc c3 c3 1d ba 5a ee 33 3d 28 c0 5a 3d
       -0.010706764 -0.00060182455 0.04392848 0.05340591
0000f0 34 9a 94 3c ba c5 98 3c ea 82 ce 3c af 5d b5 3c
       0.018139936 0.01864897 0.025208909 0.022139398
000100 6a 10 75 bd 08 72 39 3c be 2b 20 bd df ed 86 bd
       -0.059830107 0.011318691 -0.039104216 -0.06588339
000110 bf ca 94 bc 0c ac 34 bd 9f d3 35 3d 0e bc fe bb
       -0.018163083 -0.04410939 0.04439127 -0.0077738827
000120 c7 8e bb bc 80 a7 45 3d 12 6b 26 3b 14 3f e6 bc
       -0.02289523 0.048255444 0.0025393409 -0.02810625
000130 45 68 81 3c c2 2b 94 3c 1a 05 6a bc 46 e7 62 bc
       0.01579679 0.018087272 -0.014283443 -0.013849085
000140 86 57 71 3c dc c8 24 bd 0d d5 3a 3c a6 c2 42 3c
       0.01473034 -0.040230617 0.011403334 0.011887228
000150 92 29 39 bc 8f 1d 02 bd 96 37 27 39 01 7a 39 3c
       -0.011301415 -0.03176647 0.00015947068 0.011320592
000160 53 ee c8 3c c8 c9 ff bb a0 f2 95 3c d0 26 dc bc
       0.024527704 -0.0078060366 0.01830417 -0.026873976
000170 21 dd 92 bc c8 6d 9d b8 9d a8 04 3d c4 4a 8f bc
       -0.017927708 -7.506792e-05 0.032387365 -0.017491706
000180 4c d7 a4 38 fc 5c 17 3d ea d2 e8 3c 66 01 b0 bc
       7.8602316e-05 0.03695391 0.028420884 -0.021485042
000190 31 20 ba bc 01 de 7a bc 15 3f f2 3a 2d 6f 37 3c
       -0.022720428 -0.015311719 0.0018481935 0.01119594
0001a0 8e 57 a5 3c c4 cc db bc f2 a8 ff bc 6a 52 50 bd
       0.02018335 -0.026831038 -0.03120849 -0.050859846
0001b0 c0 d3 a3 b7 22 8e 71 3d a3 ea 66 bc 44 8c b7 b9
       -1.9529718e-05 0.05897344 -0.014094028 -0.00035008986
0001c0 ad c5 0c 3d 00 2f 8d 3c 72 33 a6 3c a2 1e c2 ba
       0.034368206 0.017234325 0.020288203 -0.0014810155
0001d0 27 a3 77 3c 41 af 9b 39 dd 09 30 bd 1f 5e f6 bc
       0.015114582 0.00029694478 -0.042978156 -0.030074177
0001e0 e2 4f 73 3b 73 6f 00 bc cf 7c 85 bc 9e 01 8b 3c
       0.0037126471 -0.007839072 -0.016294865 0.016968545
0001f0 3f e3 2a 3d 9e 98 4e 3c 73 7a f3 3c d7 20 8d 3c
       0.041720625 0.012609629 0.029721474 0.017227573
000200 d6 dc a9 3c bb aa 8c 3b ba 2a 94 3c 8a fd f4 3c
       0.020735186 0.0042928136 0.01808678 0.029906053
000210 9b d1 f6 3c b5 2a 8a 3c ce d9 ad bc eb 34 c0 3c
       0.030129245 0.016866067 -0.021222021 0.023462733
000220 40 d1 b9 3c 51 4d d1 bc 63 31 c2 bc 59 a6 22 bd
       0.022682786 -0.025549563 -0.02370519 -0.039709423
000230 de 6a c2 bb 62 51 f2 bc fc 28 cd bc 72 ac d9 bc
       -0.0059331497 -0.029579822 -0.025043957 -0.026571486
000240 c7 22 ae bb 41 d7 35 3d e8 4f 18 bc 11 cc 43 3d
       -0.0053142044 0.044394735 -0.009296395 0.047802035
000250 06 56 a3 3c b9 f5 b7 3c 3f fc 2c bb c2 85 d6 3c
       0.01993848 0.022456037 -0.0026395468 0.026186828
000260 7b 5e 08 3d 88 94 bb bc e7 67 03 bc 98 ac ed 3c
       0.03329323 -0.022897974 -0.008020378 0.029012963
000270 70 f2 e9 bb 6c 57 98 3c 98 a5 73 bc ad cb bd bc
       -0.0071394965 0.018596373 -0.014871024 -0.02316841
000280 5b 9e 8f 3c 24 c2 38 3c 44 63 ed bb 64 87 e0 bc
       0.017531564 0.0112767555 -0.0072444994 -0.02740831
000290 17 1f 36 bc 40 93 f3 3a a5 7d 2c bd 16 b2 f2 bc
       -0.011115811 0.0018583313 -0.04211201 -0.029625934
0002a0 bb a9 97 3b 69 94 c2 bc cb f4 b5 3c 52 e0 9a bc
       0.0046283877 -0.023752408 0.022211453 -0.018905792
0002b0 5e 1e 18 3c fa 96 b3 bc 87 e2 bd 3b 09 68 51 3a
       0.009284584 -0.021922577 0.0057948264 0.000798822
0002c0 25 2c 01 3d cc 3c d2 bc 16 88 06 bd 0d 0a 08 3d
       0.03153624 -0.025663756 -0.032844625 0.03321271
0002d0 99 2b d1 3c f1 c1 42 3d 9a 03 8d 3c 25 e4 c5 3b
       0.025533484 0.04754824 0.017213631 0.00603916
0002e0 fe f4 fd 3c 78 52 02 3d 23 76 1d 3d 53 be 08 3d
       0.03100061 0.03181693 0.038442742 0.033384632
0002f0 f6 22 b5 3c 7a 3d ad bb d2 b4 0e bd 20 09 87 bd
       0.022111397 -0.0052868696 -0.034840412 -0.06593537
000300 02 28 7b ba 4b 69 02 bd a6 98 41 bd fe b5 e3 bc
       -0.0009580852 -0.031838696 -0.047264718 -0.027796742
000310 3c 20 47 bd b8 82 0a bd b5 23 1d 3d 3d 90 a7 3c
       -0.048614725 -0.03381607 0.03836413 0.02045452
000320 90 55 06 3d 90 ba 03 3c a4 1c 85 bc cf 44 2a 3c
       0.032796443 0.008040085 -0.016249008 0.010392382
000330 a6 f4 3d bb d0 89 9c 3c 8b f0 d4 bc 39 7b d8 3c
       -0.0028984933 0.019108683 -0.025993606 0.026425945
000340 5e 14 b5 3c c7 e0 8c bc d9 39 15 bd 34 de e3 bc
       0.022104438 -0.017197026 -0.03643212 -0.027815916
000350 e0 d8 27 bd 22 8f 86 b8 fc 48 19 bd 4e d5 4c bd
       -0.040978312 -6.4162785e-05 -0.03742312 -0.05000811
000360 29 5d b8 3b c0 dc 81 3c 99 6b 03 bc d6 ee 17 bd
       0.00562634 0.015852332 -0.008021259 -0.037093006
000370 ed 21 04 bd 7b 2c 10 bd c6 82 4b 3d 9a 61 19 3d
       -0.032258917 -0.03519867 0.049685262 0.037446596
000380 ef 57 48 3d 40 46 ee bc 0f de ff 3b 2b b9 40 bb
       0.048911985 -0.029086232 0.007808454 -0.0029407244
000390 0e a0 c4 3c 5e 0c 98 bc 5a 66 34 bc de b5 4a 3b
       0.024002101 -0.018560585 -0.011010731 0.0030931155
0003a0 c9 42 6b 3d 5d 2a 26 bc ed 29 d2 bc bc 3b e8 3c
       0.05743674 -0.010141936 -0.025654757 0.028348796
0003b0 18 28 b7 3c e6 9a 0a 3c f2 16 b6 bc 8e 1b f1 ba
       0.022357985 0.008459782 -0.022227738 -0.0018395053
0003c0 9c 64 0e bd f0 a5 6f 3c 9b f7 31 3c 04 ca 25 bb
       -0.034763917 0.014626965 0.010862256 -0.0025297413
0003d0 36 bd c4 3c ea a0 02 bd 28 9e e2 bb 89 4c 03 bd
       0.024016004 -0.03189174 -0.0069158264 -0.03205541
0003e0 0a 51 15 bd 7e f4 f7 bc bb a1 5d bc 6a 2e bb 3c
       -0.036454238 -0.03026795 -0.013527329 0.02284928
0003f0 69 41 fd 3c aa 4a 79 3c 1d 15 3d 3c 0e 01 69 bc
       0.030914979 0.015215555 0.011540678 -0.014221443

bias f4 [64]
000000 3b d2 c8 3b b9 d7 11 bc 1b f5 d8 bc 2b a6 db bc
       0.006128577 -0.00890153 -0.026484063 -0.026812633
000010 35 bd 35 3c 11 d5 56 bd b5 ef 9e bd 7b bd fa 3a
       0.011092474 -0.05244929 -0.07760564 0.0019129956
000020 a1 56 8d 3c 0a 58 ce bc ba cd 73 bc 56 88 3e bc
       0.017253222 -0.025188465 -0.014880592 -0.011629185
000030 af 1f e5 bb 94 4c 40 bd be 53 af bc 90 a7 3c bd
       -0.0069923024 -0.04694803 -0.021402236 -0.046058238
000040 9d 06 af bd f6 00 a4 3c fb 4e 6e bc 2b c4 6c 3c
       -0.08546183 0.02001999 -0.014545198 0.014451067
000050 09 b8 5e bd 11 d0 9d bd 8c cb bc bc 4b 91 bd bc
       -0.05437473 -0.07705701 -0.023046277 -0.02314057
000060 fc e6 25 bd ac 80 71 bd d2 ad bb bc d9 4f 5f bd
       -0.040503487 -0.0589606 -0.022910032 -0.054519508
000070 c8 1f 18 bd 56 d4 b2 bc 7c ef cd 3c 9b 28 82 bc
       -0.037139684 -0.021829765 0.02513861 -0.015888503
000080 d7 37 02 bd 1e ae 69 3c 57 a8 20 3d de 35 38 bc
       -0.031791534 0.014262704 0.03922304 -0.011243312
000090 92 35 99 bd ee 8c 0c 3c fc 95 40 bc d1 41 87 3c
       -0.07480921 0.008578522 -0.011754509 0.016510876
0000a0 1a 3a b4 bc f0 33 42 bd 5c c1 33 bd 25 49 ad 3b
       -0.022000361 -0.047412813 -0.043885574 0.0052882605
0000b0 4f 30 9a bc 01 18 1d bd 81 d6 b8 bd 10 e0 cb bc
       -0.018821863 -0.03835297 -0.090252884 -0.024887115
0000c0 2a a7 8e bd a9 71 97 bd 26 a3 37 3c 7c 9f c9 bb
       -0.06965478 -0.07394726 0.011208331 -0.006153045
0000d0 06 f0 5e bd db 85 b7 bc 43 a7 58 3c ef 6d da 3b
       -0.054428123 -0.022402694 0.013223472 0.006665937
0000e0 41 e2 77 bd 0a 81 f6 3a 1d 03 1a bd ab 1c f2 bc
       -0.060518507 0.0018806767 -0.037600625 -0.029554686
0000f0 d2 d5 a9 bd f6 43 3a bd ad 91 0c b9 f7 16 81 bd
       -0.08292736 -0.04547497 -0.00013405709 -0.06303208

weight f4 [64, 1024]
000000 c6 de d4 3c fe 08 75 bb df 29 29 bc b3 65 62 bc
       0.025985133 -0.0037389393 -0.010324924 -0.013818192
000010 f7 1d 87 3c 7d 6a 69 bc 2e b7 17 3d 08 3d 73 3c
       0.01649378 -0.01424658 0.03703993 0.014846094
000020 38 a1 b3 3c 6b d2 4a bc a8 93 32 bb c5 6a 31 3c
       0.021927461 -0.012379269 -0.0027248655 0.0108286785
000030 b1 31 3b bd a5 1a 61 bc f0 aa ac bc 40 8a ff bc
       -0.045701686 -0.013739263 -0.021077603 -0.031193852
000040 ea 8d d2 3c fe 7b 25 bc 77 24 32 bb 77 e9 d5 bc
       0.025702436 -0.010100363 -0.002718238 -0.026112301
000050 4e bd 35 bc ae b1 9d bb ec ab 00 3c eb 0d 9a bc
       -0.011092497 -0.004812441 0.007853489 -0.018805465
000060 7b 17 10 bd 6e 48 61 3c 7f 49 ac 3c 25 7d 0c bd
       -0.035178643 0.013750179 0.02103114 -0.034299035
000070 8b 9e 6d bb f1 df cb bb b5 c0 b0 3b 70 d1 58 3c
       -0.003625783 -0.0062217643 0.005394066 0.013233528
000080 3c 95 a4 bc 08 c3 0e bc 17 2f 13 bb 37 90 9a bc
       -0.020090692 -0.008713491 -0.0022458488 -0.018867595
000090 ea 27 05 bc 56 47 24 3c e6 8e 45 bb 26 b8 40 bd
       -0.008127192 0.010026773 -0.0030144989 -0.047050618
0000a0 df 71 9c 3c 88 53 1e bc ee 60 bf 3c 0c 6f bc bc
       0.019097267 -0.00966347 0.02336165 -0.02300217
0000b0 2a 01 dc 3b 8c c4 50 bc d0 eb 9c 3c 6a 42 cd bc
       0.006714006 -0.012742173 0.019155413 -0.025056083
0000c0 24 9b cb bb a7 4a d5 bc 67 99 10 3c 21 ca 6c 3c
       -0.0062135626 -0.026036574 0.0088256365 0.014452488
0000d0 8c 6d 79 3b a1 37 e4 3c 99 0f 67 bc dc 00 37 3c
       0.003805968 0.027858557 -0.01410284 0.0111696385
0000e0 b5 79 33 3d b2 7a e1 3b e9 71 83 ba 40 11 c3 3c
       0.04381724 0.0068810815 -0.0010028455 0.023811936
0000f0 3d ee 77 bc 35 a2 d9 bc 2f ea e6 bc 21 a0 e9 3c
       -0.015132484 -0.026566604 -0.02818784 0.028518738
000100 f9 4c 3f 3b d4 45 17 3d f9 09 b9 3c e0 bf c6 bc
       0.0029190166 0.036931828 0.022587763 -0.024261415
000110 12 75 e9 3c a7 48 26 bc 37 59 35 bb 74 ea e1 3b
       0.028498206 -0.010149158 -0.0027671584 0.006894404
000120 fc a3 94 b9 c7 83 a5 3b 8a 7b 5d 3c 63 1d af 3b
       -0.00028350938 0.0050511095 0.013518224 0.0053440793
000130 46 39 a0 3c ae f9 16 bd 7d 2a 13 bd 86 91 6f bc
       0.01955856 -0.036859207 -0.03592919 -0.014622098
000140 7c e9 8a 3c cb 1d 13 3b 37 64 9d 3c 68 b9 c5 3c
       0.016957037 0.0022448178 0.019212825 0.02413626
000150 e4 9b 11 bd 61 52 0c bd 9c e1 5d b9 08 f3 22 3c
       -0.03554906 -0.03425825 -0.00021160248 0.0099456385
000160 27 e9 b2 bc 6f 9a ad ba f2 a2 8d 3c b0 03 ba 39
       -0.021839691 -0.0013244877 0.017289612 0.00035479432
000170 b5 27 83 3c 83 9e 06 3d 0d 0f 96 3c 6b 37 78 bc
       0.016010145 0.032866012 0.018317724 -0.015149931
000180 a2 15 05 bd ba 55 b2 bc 01 54 dd 3b 21 51 18 bd
       -0.032491334 -0.021769393 0.006754399 -0.037186746
000190 6d f9 03 3c 64 ca ac bb 1c 56 b9 bb 8f f0 43 bd
       0.008055073 -0.0052731503 -0.005656017 -0.047836836
0001a0 aa 61 21 ba 55 8e 89 3a 1b 31 9c 3b 26 ed 6f bb
       -0.00061562157 0.0010494689 0.004766596 -0.0036609857
0001b0 be 37 bb 3c d5 04 bd 3c 44 38 0d bc 6a f4 eb 3c
       0.022853728 0.023073593 -0.008619372 0.02880307
0001c0 11 31 ed bc 6f d8 12 3d 78 9d cc 3c 42 5a 90 3c
       -0.02895406 0.03585094 0.02497743 0.017621163
0001d0 15 2d 21 bd f9 85 54 bc 18 81 a9 3c 12 70 15 bd
       -0.039349634 -0.012971395 0.02069144 -0.03648383
0001e0 c5 b2 44 bd 02 c7 1f 3c 20 77 4d bd 59 37 69 bd
       -0.04802205 0.009752037 -0.050162435 -0.05693755
0001f0 cf 2b 94 bc a9 f4 bd 3a 53 e2 42 bc 22 b0 0e bb
       -0.018087296 0.001449247 -0.01189478 -0.0021772464
000200 e0 bb 37 3c 0a 5b 3e 3c b7 e3 63 3c 4a 13 bc 3c
       0.0112142265 0.011618385 0.013909272 0.022958416
000210 9d dc 86 3c 53 f6 4f bc aa 09 cf bb d2 a1 a2 3c
       0.016462618 -0.012693006 -0.0063182907 0.019852553
000220 9c f2 c0 bc 2a 14 a9 3c b6 ce 1d bd 3a 82 41 bb
       -0.023553185 0.020639498 -0.038527213 -0.0029527084
000230 e2 89 ff bc 03 f7 42 bd 2a 4a 42 bd 69 0c 2a bc
       -0.031193677 -0.04759885 -0.04743401 -0.010378935
000240 2f 06 e4 3c 88 37 ad bc 20 d9 73 bb 39 f7 8f bc
       0.02783498 -0.021144643 -0.0037208274 -0.01757394
000250 a8 24 8d bc 06 5d 2d 3c 36 f4 54 bb bc 5d ca bc
       -0.017229393 0.010581261 -0.0032494194 -0.0247029
000260 59 2f 1c bd ec 21 bf bc fd e0 f1 bc 72 48 fa 3c
       -0.03813109 -0.023331605 -0.029526228 0.030552123
000270 fd fe 0e 3d d9 e6 ae bb 7f b6 48 bc 9f 9d 04 3d
       0.034911145 -0.005337578 -0.012250542 0.03237688
000280 2c 76 ad 3c f8 a4 85 3c 48 5f a0 bc 84 20 e5 3c
       0.021174513 0.016314015 -0.019576684 0.027969606
000290 f9 13 bf 3c 01 21 0e 3d 84 72 12 3d 44 8a fd bb
       0.023324953 0.034699444 0.03575374 -0.00773743
0002a0 32 a9 8d bb 6e 66 f5 bc 26 2f fe bc c7 c5 9f 3c
       -0.004323148 -0.029956069 -0.031028342 0.019503487
0002b0 dd be 7c 3c 6a f2 7b bb 41 03 12 3b 1e c5 25 3c
       0.015426365 -0.003844405 0.0022279772 0.010117797
0002c0 c3 6f e7 bc 4b b9 83 b9 d1 26 b9 bc e1 89 c4 3b
       -0.028251534 -0.0002512432 -0.022601517 0.0059978818
0002d0 4c 06 82 3c 18 32 0c 3d d2 a3 61 3a a2 12 cb bc
       0.015872143 0.03422746 0.000860748 -0.024789158
0002e0 d2 0d f5 bb db f9 7c 3b b0 21 00 3c e8 be b2 3c
       -0.007478454 0.0038601074 0.007820532 0.021819547
0002f0 93 d0 65 3c 23 61 a5 3c 36 8f 9d 3a 29 db 15 3d
       0.014026779 0.02018792 0.001202083 0.03658596
000300 3b f3 a3 3c 1c 11 ef bb 5f a0 06 3c 22 d4 91 3c
       0.020013442 -0.007295741 0.008216946 0.017801348
000310 10 50 e5 3c c3 ec 51 3d 83 cf d8 3c f1 f5 c4 bc
       0.027992278 0.051251184 0.026466137 -0.024043055
000320 67 00 22 bc 94 04 fc 3c 65 93 7e bb a8 fd d0 bc
       -0.009887791 0.030763902 -0.0038845178 -0.025511578
000330 df 0f 25 bc c5 d2 d4 3b 31 6d 32 bb dd 49 fa bc
       -0.010074585 0.0064948522 -0.0027225728 -0.030552799
000340 10 ab 1c 3b 68 f0 eb bb 92 74 b6 3c 8c d8 d5 bc
       0.0023905672 -0.0072002895 0.022272382 -0.026104234
000350 41 12 89 bc cb 8e cd 3c 6f 6a f5 3b 8b f0 19 3c
       -0.016732337 0.025092503 0.0074894945 0.009395729
000360 78 3e 89 3c 5d 7d 78 bc 1b 4b 3f 3c ad 08 95 bc
       0.01675342 -0.015166608 0.011675621 -0.018192613
000370 de 81 58 bb 6b 1e 07 bd ba 81 26 bc 8e 01 fb 3a
       -0.0033036391 -0.032987993 -0.010162765 0.0019150244
000380 15 1b 0d 3c db 2f 2c 3c 4a 04 ec 3c 3f a5 b2 3c
       0.008612414 0.0105094565 0.028810639 0.021807311
000390 5a 85 94 bc 4b eb f4 3c 1e 4b 66 ba eb 2c ed ba
       -0.018129993 0.029897353 -0.0008784997 -0.0018095052
0003a0 07 31 db bc 78 08 10 bc 1e 26 a9 b8 d8 94 0b 3d
       -0.026756776 -0.008791082 -8.065648e-05 0.034077495
0003b0 f4 67 3b 3c d8 59 04 bd 5d 33 ef bc a7 ff aa bc
       0.011438359 -0.032312244 -0.029199297 -0.020873858
0003c0 09 69 94 3c 35 82 0b 3c d2 e6 f9 bc ba d8 98 bc
       0.01811649 0.0085149305 -0.030505572 -0.01865803
0003d0 78 b0 d9 bc ab 85 c0 3c 8e ab 40 3c 6f 39 2e 3c
       -0.026573405 0.023501238 0.011759652 0.01063381
0003e0 29 8f 4f 3b 1e ed a6 3b cc a0 93 bc c7 d9 a7 bc
       0.0031671023 0.0050941845 -0.01802101 -0.020489587
0003f0 47 cd 00 3d 81 88 be bc 7a 9c 0b 3d 24 e1 07 3c
       0.031445768 -0.02325845 0.034084775 0.008293424

bias f4 [64]
000000 03 e0 fb 3c 7d 25 08 3c 7e f9 2b 3c 0d d6 6f 3c
       0.030746466 0.008309719 0.010496495 0.014638436
000010 0b 38 1c 3d 10 1f cf bc c6 37 5e 3b 38 e0 72 bc
       0.038139384 -0.025283366 0.0033907755 -0.014823966
000020 ea 31 10 bd 23 f2 dc 3b e9 a9 8a 3c b7 17 e2 3c
       -0.03520385 0.006742732 0.016926723 0.027599199
000030 73 84 fe 3c 44 07 21 bc 9f 97 a9 bc 9c 83 6b bd
       0.031069016 -0.009828392 -0.020702181 -0.05749856
000040 78 9b 0c bd 37 a9 32 3d 59 73 a8 3b 0a 69 73 bc
       -0.034327954 0.043618407 0.0051407036 -0.014856586
000050 8b cf 61 bc 67 31 49 bc af 30 a5 3c 5f 7c c2 bc
       -0.013782392 -0.012279845 0.020164816 -0.023740945
000060 d8 c3 a5 39 f5 66 55 3d 73 ae 2a bd c1 f6 0a bd
       0.00031617167 0.05210014 -0.041670274 -0.03392673
000070 53 9e 0c bd b1 f7 10 3d 4e 64 bf bc 64 7b 9f bd
       -0.034330677 0.035392467 -0.023363259 -0.07787207
000080 4f 80 93 bc 88 89 1f bd 55 3f f6 bb 38 d1 8f bc
       -0.018005518 -0.03894952 -0.007514874 -0.017555818
000090 7b 36 84 bd 47 16 8f bb e5 8e e8 3c cd 2d ec ba
       -0.06455704 -0.0043666693 0.02838845 -0.0018019021
0000a0 9e 63 76 3c 6a e7 e0 bc 12 90 27 bd 07 ec 1d 3d
       0.015038399 -0.027454097 -0.04090888 0.03855517
0000b0 ba 5e 17 bc 9d bc f8 bc 89 60 f8 bc 2e 3b ca bc
       -0.009238893 -0.030363375 -0.030319469 -0.024686422
0000c0 db 40 0c 3d 9b a0 89 3b a9 7f 31 3c b8 ce bc 3b
       0.03424154 0.004200054 0.010833659 0.0057619475
0000d0 f5 f3 fe 3c 59 6e c0 39 97 67 2f 3d 3e fd bf 3c
       0.031122187 0.0003670331 0.0428234 0.023436185
0000e0 be 96 6a 3d 2a 18 51 bc b6 09 21 3c b8 b0 14 bc
       0.057272665 -0.012762109 0.009828975 -0.009075336
0000f0 f9 1f 69 bc ff 55 f0 bc 51 ca 97 bc 47 49 c1 3c
       -0.014228814 -0.029337881 -0.01852909 0.023594512

weight f4 [10, 64]
000000 53 9b 8b bd 00 63 17 3e c8 51 59 bd 81 86 86 3d
       -0.06816735 0.14783859 -0.05305651 0.06568623
000010 d9 d1 73 3d 26 43 1a bd 70 49 e6 3d e5 da 03 3e
       0.0595263 -0.037661694 0.11244476 0.1287647
000020 f1 af ae 3d 04 59 96 3d 77 22 6a be 12 97 1e 3e
       0.08529652 0.07341197 -0.2286471 0.15487316
000030 a7 c6 eb bc c3 db 30 3e 3c a4 b2 bb d6 b4 c1 bd
       -0.028781248 0.17271332 -0.005451707 -0.0945832
000040 6f 00 c3 bd 6b 58 30 bd 6a 98 1e bd 2b 2a fe 3d
       -0.09521567 -0.043053072 -0.038719572 0.12410387
000050 65 f9 e2 3d 16 89 2a 3e f1 cb ab 3b 2b e4 b5 3d
       0.110827245 0.16653857 0.0052428176 0.0888141
000060 0f 73 4d bd c7 6c b2 bd fa e3 00 3e 1c 72 aa 3d
       -0.050158557 -0.08712154 0.12586966 0.08322546
000070 f5 e1 08 3e ae 71 ee b9 ca 26 d2 3d 39 ea 23 3e
       0.13367446 -0.00045479595 0.10261305 0.16007318
000080 c3 c2 a6 3d 18 50 4a 3e c5 42 b7 3d f7 ef 72 3d
       0.081426166 0.19757116 0.08948282 0.05931088
000090 f7 eb d9 3d de bb 09 be 5a 82 59 be 6d f0 55 be
       0.1064071 -0.13450572 -0.21241131 -0.20892496
0000a0 18 44 bb 3d 36 92 94 3c 6d 83 4f bd 5b 73 dd bd
       0.09143847 0.018136125 -0.050662447 -0.10813018
0000b0 cd c5 a3 bc 5f da eb 3d 10 ef 11 3e a3 40 1b 3e
       -0.01999178 0.1151626 0.14251351 0.15161376
0000c0 12 73 e7 bd 63 eb 28 be 44 57 e7 bd 04 d6 9b 3d
       -0.11301245 -0.16496043 -0.112959415 0.076091796
0000d0 3c 66 ed bd 88 33 28 be e3 a4 e7 bc 9c 56 31 be
       -0.11591765 -0.16425908 -0.028276866 -0.17318195
0000e0 c0 32 73 bd 58 a5 61 3e 44 36 49 3c 2f b3 c1 bd
       -0.05937457 0.2203573 0.012281004 -0.09458005
0000f0 aa 4b 0b be 87 56 d3 3d 73 e8 84 3d 84 ed f9 bd
       -0.13603082 0.10319238 0.06489649 -0.12203506
000100 89 3f 4d bd 10 6e c5 b8 76 2e 2b bc fc d3 6d be
       -0.05010942 -9.414193e-05 -0.010448089 -0.23225397
000110 1b 53 aa 3d 42 53 93 3d 32 ab 41 bd 87 11 d1 3d
       0.08316632 0.071936145 -0.047282405 0.10208421
000120 ea 6e 47 be 40 c8 2c be a7 5b 90 bd 16 e9 4c be
       -0.19475904 -0.16873264 -0.07048731 -0.2001079
000130 65 69 ce bd 16 6a 36 3d 9e 40 b1 bc ae 0d 4b 3b
       -0.10078696 0.044534765 -0.021637257 0.0030983496
000140 94 ce 56 be ef 13 8c bd d7 45 18 be 75 a0 9e 3d
       -0.20977241 -0.068397395 -0.14870392 0.077454485
000150 d6 5c 92 3e 3e 42 25 3b 3e 2f af bd 4b 09 74 3e
       0.28586453 0.0025216485 -0.085539326 0.2383167
000160 f8 df 12 bd eb 9e 33 3e 3d d2 47 be a1 f7 54 be
       -0.035858124 0.17541091 -0.19513793 -0.20797588
000170 01 2a 85 3e dd dd 63 bd bc b5 9b bd d3 55 4d be
       0.2600861 -0.055631507 -0.076030225 -0.2005227
000180 2a 26 1c be 10 9b f4 bd 80 dd f1 bd 98 a8 1d be
       -0.15248933 -0.11943638 -0.11809826 -0.15396345
000190 24 d5 a8 bd 5b 6c ee bd da 68 05 be ae 73 48 be
       -0.08243778 -0.11641761 -0.13028279 -0.19575378
0001a0 b7 4f 02 be 13 18 98 bd 6f e4 67 be 0d 05 4b bd
       -0.12725721 -0.07426467 -0.22645734 -0.049565364
0001b0 1d cf 2a be 9b dd 8d 3e ac b6 ba bd 50 14 c3 bd
       -0.1668057 0.27708134 -0.09116873 -0.09525359
0001c0 e3 7c 24 3d 3f 04 58 3e d9 9f 16 be f4 39 ae bd
       0.040158164 0.2109537 -0.14709415 -0.085071474
0001d0 2e 29 6f be 31 da 72 3e 8f 6d 56 be cc 4d 64 bd
       -0.23355553 0.23716046 -0.20940231 -0.055738255
0001e0 3e c9 32 3e d5 79 21 3d c4 68 07 3d af 7d 50 3e
       0.1745958 0.03942283 0.033058897 0.20360444
0001f0 19 d8 48 3e 1c 91 23 be 71 fd 2a be 26 9a 91 bc
       0.19613685 -0.15973324 -0.16698243 -0.017773699
000200 3a 73 cc 3d 1f bd 1f be bb c2 e2 3d 77 de 0a 3b
       0.09982915 -0.15599488 0.11072298 0.0021189728
000210 88 1d e1 3d bf 7f de 3d b8 2c 58 be c6 f2 56 bd
       0.10991961 0.108642094 -0.21110809 -0.05247762
000220 19 00 31 3e 0b 23 ec 3d 8a 8a 18 3d c7 10 9e 3c
       0.17285194 0.115301214 0.037241496 0.01929511
000230 10 1f 6c bd d7 3f 23 3e fe 64 12 be 63 8a 1a be
       -0.05764681 0.15942322 -0.14296338 -0.15091853
000240 18 9a 6d bd 88 44 ce 3d a6 39 df 3d e8 e6 f4 bd
       -0.058008283 0.10071665 0.108996674 -0.11958104
000250 1e fe 3b 3d bf 8d 81 bd f1 65 01 3e 63 d8 00 3e
       0.045896642 -0.06325864 0.12636544 0.12582545
000260 ff bb c8 3d 1c a3 a8 bd 4a c5 37 be b0 96 92 3d
       0.098014824 -0.08234236 -0.17946354 0.071576476
000270 dc da b0 3c 62 97 9f 3b 48 6a 48 3e 1f 24 4f 3d
       0.021588735 0.004870341 0.19571793 0.050571557
000280 ad 65 26 3e 79 a8 32 bd 70 e0 9f bd 5f f1 ac 39
       0.16249724 -0.0436177 -0.0780648 0.00032986232
000290 b7 20 d3 3d 20 de e5 bd e0 67 fc 3d b3 7c 1a 3e
       0.10308974 -0.112240076 0.123245 0.15086631
0002a0 e6 17 ba bd 4e a5 0d be 5a 47 c5 3d ad 73 c9 bd
       -0.090865895 -0.1383259 0.0963275 -0.098365165
0002b0 35 b0 36 be dd 42 e1 3c f4 27 cd bc c3 37 9d 3d
       -0.17840655 0.027497703 -0.025043465 0.07676651
0002c0 34 d4 00 3e 64 a4 38 be ce f8 36 3d 8d 92 f4 3c
       0.12580949 -0.1803146 0.044670872 0.029855037
0002d0 61 3b c2 3c da 4c 93 be 33 09 f0 3d 52 02 c4 bd
       0.023709955 -0.2876957 0.117205046 -0.09570755
0002e0 7a 36 71 3d 17 f3 bb 3d ac 98 ed bc 64 64 f9 bd
       0.058889844 0.09177225 -0.029003464 -0.12177351
0002f0 84 83 c9 bd 2a 0f 58 bc 4f 1f d8 3d 18 55 b0 3d
       -0.09839538 -0.013187209 0.10552847 0.0860998
000300 72 4f 5c 3d 7b 18 04 be d0 10 2a be b8 5a 13 3e
       0.053786702 -0.12899964 -0.16607976 0.14390075
000310 50 33 0b 3e 85 0f e6 3d 49 8d 3b be e5 56 cd bd
       0.13593793 0.11233429 -0.18315615 -0.100263394
000320 d2 30 4d 3e 83 fa 37 3e 15 b7 1d bd ec 7c 74 bc
       0.20038155 0.17966656 -0.03850468 -0.014922362
000330 e9 75 27 3d aa 64 91 3c f3 bd af bd c7 4b 0c bd
       0.040883932 0.017748196 -0.08581152 -0.034251954
000340 66 d4 0c 3d ed 04 41 bb ce 6b 10 3d 3d fb 0c be
       0.034382246 -0.00294524 0.03525906 -0.13767715
000350 5b f6 b1 3c 0e 3f c3 3b b3 3a d7 bd 73 46 15 be
       0.021723917 0.0059584444 -0.10509243 -0.14577655
000360 41 84 85 bd b6 5f 0f be 9d 39 f9 bc 50 ac 4d bd
       -0.06519366 -0.14001355 -0.03042298 -0.050213158
000370 a1 52 16 be 94 25 e7 3c 81 10 2f bd 3b e8 cb bd
       -0.14679958 0.02821616 -0.04274035 -0.09956404
000380 26 1a 32 be d7 e9 ac bd db ac cf 3d 8a 57 dc bd
       -0.17392787 -0.08443039 0.101403914 -0.10758884
000390 3e 57 e3 bd 2a 8e d2 3d fb d9 db 3c 37 19 a8 bd
       -0.111006245 0.10281022 0.02683734 -0.08207934
0003a0 cd 93 b9 3d 45 85 fd 3c e1 f6 a8 bd bc 57 ca 3d
       0.09061394 0.030947337 -0.082502134 0.09880015
0003b0 5c 92 bd bd d3 ba 09 bc 56 b4 0b be 1e 8c b1 3b
       -0.092564315 -0.008406359 -0.13643011 0.0054183146
0003c0 4f 21 0e 3e 63 50 33 3d 63 c2 ed 3d 30 aa 3c 3d
       0.13879894 0.043777835 0.11609342 0.04606074
0003d0 1b 95 77 3d 73 4f f6 bd 4d 91 2d bd 1e bf 8e 3d
       0.060444932 -0.120268725 -0.042374898 0.069700465
0003e0 a0 c6 07 3d 32 07 26 bb 53 a6 c6 3d c8 bb e7 3d
       0.033148408 -0.0025333879 0.096996926 0.11315113
0003f0 fb 02 93 3c 38 10 8e 3d 2c 98 fe 3d 2a 1f 65 3d
       0.017945757 0.06936687 0.12431368 0.055937923

bias f4 [10]
000000 3e 68 3d be 86 8e c9 bd fe 57 84 bc c5 95 5a bd
       -0.18496796 -0.09841637 -0.01615524 -0.053365488
000010 0a b1 4d 3c f8 0c 0d be 98 26 0d 3d 4b e6 e0 bd
       0.012554416 -0.13774478 0.034460634 -0.10981425
000020 eb 44 23 bd f9 6d c9 bc
       -0.039860647 -0.024588572
