tudui_9.pth (torch, 588600 bytes, 10 tensors)

weight f4 [32, 3, 5, 5]
000000 0b 19 a2 bd 65 7a d5 3d 90 23 82 3d 36 e5 c3 3d
       -0.07914933 0.104237355 0.06354439 0.09565203
000010 36 6b 8d b9 89 2a 11 3c 7e 76 d2 3c f7 65 7a bd
       -0.00026973494 0.008860239 0.025691267 -0.061132398
000020 30 52 02 3e 0e 84 8e bd 8f 55 9b 3d b5 d7 ac 3d
       0.12726665 -0.06958781 0.075846784 0.0843958
000030 4d 18 ef 3d ec 8f 84 bd 8b 09 25 3d d2 81 4b 3a
       0.11674557 -0.064727634 0.040292304 0.000776318
000040 88 1e d1 bd 06 97 c7 3d e1 5f a9 3d 87 4a c8 bd
       -0.102109015 0.09745602 0.082702406 -0.0977984
000050 14 ea 9e bd b6 ec 26 be aa f3 25 be ca d1 90 3b
       -0.077594906 -0.16301236 -0.16206232 0.00441954
000060 4b af 11 be cd 01 bb 3d d0 af 13 bd 61 79 15 3e
       -0.14227025 0.09131203 -0.03605634 0.14597084
000070 0e c0 29 3e c1 6d ff bc 27 d0 5b bd bf 31 1d 3c
       0.1657717 -0.031180264 -0.053665306 0.00959438
000080 21 4d ca 3d 05 9f 91 bd 84 7b 65 3c 50 61 8f bd
       0.098779924 -0.07110409 0.014006499 -0.07000983
000090 2e 69 ad bb a4 e5 c7 3d c3 95 0d bd fe fb 41 bd
       -0.0052920794 0.09760597 -0.034566652 -0.04735946
0000a0 2f 4d 71 bd e2 b1 4c 3d a6 fb f9 bd af 08 77 3d
       -0.0589115 0.04997433 -0.12206201 0.060311016
0000b0 87 53 9f bc 10 7d 4b bd 97 4c f1 bc a6 af 35 3d
       -0.019449009 -0.049679816 -0.029455466 0.044356965
0000c0 93 2a d8 bd fa 94 44 bc 37 6b 0d 3d b5 0e 88 3d
       -0.105549954 -0.011998409 0.034526076 0.0664343
0000d0 60 0c 0f 3e d4 87 a5 3d 62 7c 07 3e 6d fd 8c bd
       0.13969564 0.08082548 0.13231042 -0.06884275
0000e0 64 68 2d bd 3b a6 9c bd 25 e3 02 3e ca ec cb 3c
       -0.042335883 -0.076488934 0.12781961 0.024893183
0000f0 40 25 e3 bd 5e 27 cb bc 45 e5 33 3d 84 9e d5 3c
       -0.11091089 -0.024799045 0.04391982 0.026076563
000100 08 fa 94 3d 97 d5 e6 3d 77 6a b3 bd 84 a7 e0 bd
       0.07274252 0.11271208 -0.08760541 -0.10969451
000110 d0 72 b3 3d 0c 48 0a 3d 8a a0 4c bd fb 92 06 be
       0.08762133 0.033760116 -0.04995779 -0.13142006
000120 e1 fc 7c 3b bc 2f 08 be ef da b5 bd 65 65 41 bd
       0.0038602876 -0.13299459 -0.08879649 -0.047215838
000130 25 df aa 3d 23 ba 00 3e fe 42 82 3d ee bd 1c 3d
       0.08343343 0.12571006 0.06360434 0.03826707
000140 25 68 59 3d b2 50 66 3e 3c 83 26 3e 3d 81 50 3e
       0.053077836 0.2249172 0.16261 0.203618
000150 f3 2e 30 3e eb bb f5 3c 75 87 56 3e bd cd 1f 3e
       0.1720541 0.029996833 0.2095011 0.15605827
000160 60 83 0c 3e 86 86 02 3e 27 82 f7 3c f8 2b 03 3d
       0.1372199 0.12746629 0.030213429 0.032024354
000170 c6 cd cf 3c 15 3e ed bd b2 fa 9c bd a5 5e 2a 3c
       0.025366675 -0.11584107 -0.07665004 0.010398542
000180 b7 ef 26 bd 53 0d bf bd ef e5 c2 bd 52 05 f9 bd
       -0.040755954 -0.09328713 -0.095165126 -0.12159218
000190 f2 ab d2 bd ba 91 d4 bd 11 48 d6 bd 67 c2 0d be
       -0.10286702 -0.10379358 -0.10462964 -0.1384369
0001a0 b2 d7 a7 bd 14 e8 7e bd 19 1a 02 bd 72 ab 8f 3d
       -0.081954375 -0.062233046 -0.03176317 0.070151225
0001b0 d3 15 f6 3d 54 39 fb 3d 00 38 d4 3d f2 fe 92 3d
       0.120158814 0.12266794 0.10362244 0.07177533
0001c0 0f 37 c7 3d 07 67 ac 3c 82 d3 e0 3d 5e 13 00 be
       0.097272985 0.021045221 0.10977842 -0.12507388
0001d0 4a 8f 41 be a0 00 61 bc 40 07 eb bd 31 f5 0f bd
       -0.18902317 -0.013733059 -0.11475992 -0.035145942
0001e0 5c 01 f6 bb 5f df 43 be df 9c 0c be 2c 57 c0 bd
       -0.0075074863 -0.19128178 -0.13731717 -0.09391627
0001f0 76 2f 14 be 26 a7 43 bd 78 c9 6f bd 78 88 21 be
       -0.1447123 -0.047766827 -0.058541745 -0.15774715
000200 cf af bf bc 2b b0 35 be 9b c8 09 bd 27 39 a4 3d
       -0.023399262 -0.17742984 -0.033638578 0.080187134
000210 05 ec a2 bd 53 b3 a6 3d 3c bd f9 3d 47 fc e2 3b
       -0.079551734 0.08139672 0.12194297 0.0069270465
000220 2b 7a 14 3e 9d 0a 18 3e 3f 9e f5 3c 31 c8 0c 3e
       0.14499728 0.14847799 0.029982684 0.13748242
000230 23 4b 0e be c3 eb 1d be 92 37 03 be ed 79 a9 bd
       -0.1389585 -0.15421967 -0.12814167 -0.082752086
000240 ce bd ce bd 50 67 94 bc 40 23 ee bd 91 43 12 bd
       -0.10094796 -0.01811567 -0.11627817 -0.035708968
000250 fe 06 49 bd 2c 64 8a 3a ef 1e a0 3d b7 10 74 bd
       -0.049078934 0.0010558418 0.078184 -0.059586253
000260 e5 e9 be 3d a8 82 3a 3d e5 96 10 bd 34 41 de bd
       0.093219556 0.04553476 -0.035300154 -0.1085228
000270 30 52 96 bd 6c 85 8b bd ea e4 8b 3d 73 cf 29 3d
       -0.07339895 -0.068125576 0.06830771 0.041457605
000280 eb 79 5d bc 2e fd 6b 3d 99 60 f2 bd ff ca 11 be
       -0.013517837 0.057614498 -0.11834831 -0.14237593
000290 81 6f 83 bd 4c c9 06 be 3f d4 10 3d 66 07 af bd
       -0.06417752 -0.13162726 0.035358664 -0.08546333
0002a0 74 7b 9f bd 66 a3 6d 3c ce 84 e3 bd f9 f9 22 bd
       -0.07787219 0.014504289 -0.11109315 -0.039789174
0002b0 e9 3a c8 3c dc d3 99 3d af ba 0c 3d 50 20 9d 3b
       0.024442153 0.07511112 0.034357723 0.0047951117
0002c0 cd 43 0e bd 18 53 90 3d 89 fa 22 3c bd 3a 60 bd
       -0.03473263 0.07047099 0.009947428 -0.054743517
0002d0 de d0 94 3d d9 c5 d3 3c bb 22 90 bd 1b 75 d2 3c
       0.07266401 0.025851177 -0.07037874 0.025690606
0002e0 0c 9c 05 3d 7d d6 c2 3c 1c cc 7a 3d 44 e3 14 bd
       0.03261952 0.023783917 0.06122981 -0.03634955
0002f0 1c a5 79 3c 5f d1 e6 bd 3d 6c 8d 3d a6 9f a9 3c
       0.015237119 -0.11270403 0.069054104 0.02070601
000300 b2 ef 08 bd 4e 01 8d 3b 1b 12 0e be 50 35 b8 bd
       -0.033431716 0.004303134 -0.13874094 -0.089945436
000310 06 52 06 be 5d d6 25 be d1 32 c7 bc 02 44 d6 bd
       -0.13117227 -0.16195054 -0.024316223 -0.1046219
000320 5e 3c 86 3d 00 16 f3 bc 78 53 29 39 fa 7f f7 3d
       0.06554483 -0.029673576 0.0001614819 0.120849565
000330 46 ee 24 3e 66 68 fa 3d 7b b6 34 3e 3e 62 41 3e
       0.16106519 0.12226944 0.17647736 0.18885133
000340 be 96 43 3d 3f 23 c4 3c 70 8b 48 bd d2 7c fa 3d
       0.04775118 0.023942588 -0.048961103 0.12230839
000350 cf a3 c1 3d 38 60 72 3d ea 35 b2 bd b8 cb cf 3d
       0.09455072 0.059173793 -0.087016895 0.10146278
000360 9f e3 85 3d a2 84 94 3d ea c7 01 3e 41 af f4 3d
       0.06537556 0.0725186 0.12673917 0.119474895
000370 31 43 c7 bc f4 85 c0 3b bc a6 83 bd dc 41 81 3c
       -0.024324032 0.0058753435 -0.064282864 0.015778475
000380 b4 77 91 3d 4f 38 43 bd af ed 18 3d f1 3d 26 3e
       0.0710291 -0.047661122 0.037336048 0.16234566
000390 ac cd 06 3d c8 03 78 3c 23 86 d2 3b 0b e5 94 3d
       0.032910988 0.01513762 0.0064246817 0.07270249
0003a0 66 4e cd bd 8b 7b ff 3c 34 17 a6 bd e2 48 11 be
       -0.10024719 0.03118684 -0.081098944 -0.14187959
0003b0 30 15 00 bd f6 ca 06 be 33 9a 65 3d 9e 20 21 bd
       -0.031270206 -0.13163361 0.05605526 -0.039337747
0003c0 f3 5b eb bd a4 1e d0 bd 77 25 b4 bd d6 e9 0e 3c
       -0.11492147 -0.10162094 -0.08796208 0.008722743
0003d0 cb d6 1c bc 8d e7 8b bc 0b 9d bd bd df 2a ab bd
       -0.009572695 -0.017078185 -0.09258469 -0.083577864
0003e0 d1 ea 31 be 01 e7 20 be bc 43 8e 3d de 33 68 3d
       -0.17374732 -0.15713121 0.06946513 0.05669009
0003f0 dc 61 3c bd 3b a7 b3 ba 2e f5 97 3d 8a 63 11 bd
       -0.045991763 -0.0013706455 0.07419811 -0.03549532

bias f4 [32]
000000 27 a1 d1 bd 09 20 1f bd 9d 4d e4 bd fa 1e 95 3d
       -0.102358155 -0.03884891 -0.11147616 0.07281299
000010 e9 bc c8 bd 01 c7 68 3e 9d a0 11 3e b5 ef 8f be
       -0.09801657 0.22732164 0.14221425 -0.2811257
000020 0d b0 de 3d d6 be 50 3c 04 07 2f 3d 26 85 0a 3e
       0.10873423 0.012740811 0.0427313 0.13527355
000030 9e 4f d7 be e9 c2 72 3e 6e 38 f5 bd aa d8 bd be
       -0.4205293 0.23707165 -0.11973654 -0.37079364
000040 7e a7 f9 ba 94 15 a8 bd cf 9b 7d 3e 14 b6 be 3c
       -0.0019047109 -0.08207241 0.24766468 0.023280181
000050 89 07 e6 bd 71 a9 4a be 5c f9 95 bb a6 d6 30 3b
       -0.11231906 -0.197912 -0.004576845 0.002698341
000060 6e 5b 77 3d 73 8c 3d bd 9f ac 17 bd 14 46 47 bc
       0.06038993 -0.04627652 -0.03702986 -0.012162704
000070 56 49 21 3e 49 ae 89 bd 61 18 02 be ac c1 8f bc
       0.15750632 -0.067226954 -0.12704612 -0.017548405

weight f4 [32, 32, 5, 5]
000000 fb 7d de 3c 2b 6f de bb 34 e1 84 3b 05 d8 aa bc
       0.027159682 -0.0067881546 0.0040551666 -0.02085496
000010 28 d8 e2 3c b6 c0 05 3d b9 24 07 bd 45 0d f3 bc
       0.027690962 0.032654487 -0.032994006 -0.029669413
000020 7c 10 c6 bc 95 a0 d8 ba 4f 53 e5 bc 26 57 2d 3c
       -0.024177782 -0.0016527349 -0.027993826 0.01057986
000030 db 1e e0 bc 21 00 85 3c d2 f4 7a bc d2 67 d6 bc
       -0.027358463 0.016235413 -0.015317159 -0.026172552
000040 fa 1d af bb aa 03 fb 3c 20 3b aa bc 1b 3d d5 bc
       -0.0053441497 0.030641396 -0.020780146 -0.026030114
000050 08 e9 ca 3c 77 b3 da bc d8 70 f0 3c 38 99 1f bc
       0.024769321 -0.026696904 0.029350683 -0.00974112
000060 cb a3 87 bc ee 06 20 bd 0f 9c 14 bd bb 09 ba 3b
       -0.016557595 -0.03906911 -0.03628164 0.0056774295
000070 5c da 80 3c 94 c1 e2 3c 24 6a 06 bd 45 a7 ad 3c
       0.015729122 0.027680196 -0.032816067 0.021197924
000080 45 a3 e8 3b 50 c1 b1 3c 74 7e f7 bc 4a 03 37 3c
       0.0070995414 0.021698624 -0.030211665 0.011170218
000090 81 d4 b6 bc 60 09 b9 3a 7e b9 d7 3c 88 bf e4 bc
       -0.022318127 0.0014117174 0.026333567 -0.02792336
0000a0 05 e8 b5 bc ee 82 90 3b b7 3f ce 3c a9 7a ac 3c
       -0.022205362 0.0044101393 0.025176866 0.021054583
0000b0 e0 94 f2 3c 33 88 3d 3c f2 f7 6d bc fc 40 29 bc
       0.029612005 0.011568117 -0.014524447 -0.010330435
0000c0 45 a3 30 3c bd 31 aa 39 98 e5 f2 bc a3 08 bc bc
       0.010781114 0.00032461985 -0.029650494 -0.022953337
0000d0 f0 c2 6a bc 86 69 75 3b 42 04 09 3c d3 55 e2 bc
       -0.014328703 0.003744693 0.008362832 -0.027628815
0000e0 94 82 f9 bc cf bc 18 3c cf 1b ec bc 24 28 d4 3a
       -0.030457772 0.009322359 -0.028821854 0.0016186279
0000f0 2c f6 b0 bc 50 4d d1 bc 7f ae 38 bd ab 3a 55 bd
       -0.021601759 -0.02554956 -0.045088287 -0.052057903
000100 99 9f 2a bd f8 83 33 bd a5 85 3e bd af 1d 4e bc
       -0.04165611 -0.043827027 -0.046514172 -0.012580319
000110 ab 72 14 bc 6f 34 22 bd 19 59 84 bc 37 91 9b bb
       -0.009060542 -0.039600786 -0.016155766 -0.0047475356
000120 a8 b3 28 bb 7d ee 49 3c 60 87 ee 3c 8f b6 83 3c
       -0.002574185 0.012324926 0.029117286 0.016078262
000130 37 64 1e 3b f0 cc e2 bc c0 9f a9 bc 48 20 e7 bc
       0.002416862 -0.027685612 -0.020706058 -0.028213635
000140 b8 af 06 bd 00 f3 98 3c ce fd 13 3c 78 e2 9c bc
       -0.032882422 0.018670559 0.00903268 -0.019150957
000150 42 05 e9 bc ad 1b 84 bc f8 b5 e1 bc a3 56 b1 bc
       -0.02844489 -0.016126478 -0.02755259 -0.021647757
000160 87 1b 44 bd ab 82 0d bd 64 81 03 bd 9c 6e 32 bd
       -0.047877815 -0.034548443 -0.03210582 -0.043562517
000170 e1 39 92 3b e8 f7 be 3b ae 80 4c bb b9 4b 0f bc
       0.004462466 0.0058278926 -0.0031204629 -0.008746081
000180 83 0c e4 3c da f4 72 bc 64 5a ae bc 72 0c f7 3b
       0.027837997 -0.014828885 -0.021283336 0.0075393254
000190 69 b2 13 bc f6 5a 01 3d a2 9e d1 bc 94 ea f3 bc
       -0.009014704 0.031580888 -0.025588337 -0.029774942
0001a0 ba ac da 3c 2f 31 ba 3b ed 02 18 3b 6c 70 83 3c
       0.02669369 0.0056821327 0.0023195103 0.016044818
0001b0 01 cf 1c bc 5d c1 67 3c 73 c3 94 bb 36 13 82 bc
       -0.009570838 0.0141452225 -0.004539901 -0.015878301
0001c0 44 08 df bc 38 e4 8a 3c 6b 94 05 bc f3 06 56 3c
       -0.027225621 0.016954526 -0.008153061 0.01306318
0001d0 ab c1 05 3d 39 35 8f 3b 7a 2a 08 bd fc cc a6 3c
       0.0326554 0.0043703583 -0.033243634 0.020361416
0001e0 2f fe 22 3d 67 cd b1 bc 9b ee 09 3d 74 c9 14 3d
       0.03979319 -0.021704389 0.033674818 0.036324933
0001f0 5f 61 df 3c db 54 d8 3b 02 f0 ba bc 34 ae 27 bd
       0.02726811 0.0066019124 -0.022819523 -0.040937617
000200 64 9e 94 bc a9 ee 5e 3c 93 9b b8 3c cb 6e f7 bc
       -0.018141933 0.013606706 0.022535121 -0.030204197
000210 78 41 c3 bb 39 75 31 bc 15 41 a2 3b 24 86 05 bd
       -0.005958732 -0.010831171 0.004951606 -0.03259863
000220 44 dd bb 3c 1c 6e e7 bb 4f 16 f9 bb e3 93 7a 3c
       0.022932656 -0.0070626866 -0.0076015363 0.015294048
000230 9c e0 e7 bc 1d 89 48 3c cf 62 c7 3c 14 11 4d 3c
       -0.028305344 0.012239722 0.024339108 0.012516279
000240 9a 63 0d bc a0 a5 01 3d e6 89 f3 3c 88 6b 4e 3d
       -0.008629704 0.031652093 0.029728841 0.05039552
000250 eb aa 10 3c f3 ef 3f 3c fd 4d 70 bc 17 52 cf bc
       0.0088298125 0.011714923 -0.014667031 -0.025307698
000260 f5 16 a7 3c 79 ec 93 ba 21 4e 95 3c 76 5e 68 3c
       0.020396689 -0.0011285684 0.018225731 0.0141826775
000270 c7 40 21 bd 45 3b 5e 3c 49 8a 0d bd eb 78 f5 bc
       -0.039368417 0.013563936 -0.034555707 -0.029964885
000280 df 82 4d 3c 7a 6b 5b bd e9 72 16 bd 41 c9 96 3c
       0.012543409 -0.053569295 -0.03673068 0.018406512
000290 05 7d b1 bb e7 6a ad bc fd cd f8 bc d6 7b 64 bd
       -0.005416515 -0.02116914 -0.03037166 -0.05578216
0002a0 91 e9 99 bc dc d7 63 3a 53 69 de bc d0 c4 3f bc
       -0.018788131 0.00086915283 -0.027149832 -0.011704639
0002b0 45 c5 2f bd a6 7a 9f 3b de 45 fd bc 45 cf e0 b8
       -0.04291274 0.0048669158 -0.030917104 -0.00010719759
0002c0 66 89 35 bc 4f 71 c8 bc a6 66 ee 3c 74 58 00 3d
       -0.011080122 -0.024468092 0.029101681 0.031334355
0002d0 7d 39 b4 bc 57 ed 27 bc b5 9c fd 3c 53 77 3b 3c
       -0.022000069 -0.010249457 0.030958513 0.011442023
0002e0 6c bc de bb ca f9 f7 bc ef ae da bc 9b e6 c2 bc
       -0.006797364 -0.030270476 -0.026694743 -0.023791602
0002f0 54 a9 06 3c 3a 74 12 3d 2d 3a 20 bd 1f 7a 35 bd
       0.008219082 0.035755374 -0.03911798 -0.044305917
000300 96 64 91 3c 67 46 e3 bc 14 cd bb 3c e9 14 13 bd
       0.017748158 -0.027743531 0.022924937 -0.035908613
000310 4c 6b 1e bd 3b 8f d8 3b 41 fc 86 bc 43 1a ab 3c
       -0.038676545 0.0066088713 -0.016477706 0.020886546
000320 4a 7e 04 3c a6 29 5e bb 90 45 96 3b 2b 8f 06 bd
       0.00808675 -0.0033899336 0.004585929 -0.03285138
000330 57 51 f1 bc b4 5f d7 bc c9 3e 05 bc db 40 aa 3c
       -0.029457731 -0.026290752 -0.008132645 0.020782879
000340 8f 9e 9d 3c 6a af 96 bc 71 39 c5 bc 29 48 48 bb
       0.019240646 -0.01839419 -0.024075242 -0.003056059
000350 48 81 0e bb 14 60 e5 bc 33 bb e2 bc ef 42 77 3c
       -0.0021744538 -0.027999915 -0.027677154 0.015091642
000360 fb 3d 2f 3c 33 0b c5 bb ff 5e 06 bd 9f 7c 43 3b
       0.01069593 -0.006013298 -0.03280544 0.0029828919
000370 77 86 94 3c 92 34 b3 3c 64 d2 d3 bc 7a d8 e2 bb
       0.018130524 0.021875653 -0.025857158 -0.0069227787
000380 5f e3 f8 3c 0e 93 65 bc b0 bd ca 3c 50 71 2d 3c
       0.030381856 -0.014012111 0.024748653 0.010586098
000390 e5 0e 6b bc 9f ec 90 bc 71 7d 8c bc c8 6c 28 bc
       -0.014346813 -0.017690955 -0.017149659 -0.010279842
0003a0 26 5d c8 bc 52 d0 98 bc 34 ff 64 bc eb fc 0f bd
       -0.02445848 -0.018654022 -0.013976861 -0.03515331
0003b0 4c 17 b6 bc 37 3c fe bb 54 d6 59 bd 66 2d ab bc
       -0.022227906 -0.007758643 -0.053182915 -0.020895671
0003c0 3b 6d 07 bd 2d 58 b8 bc 74 25 ae bb ce 44 83 3b
       -0.033063155 -0.022502983 -0.0053145234 0.004006005
0003d0 31 56 e7 bc 7a b8 07 bb ce af 76 bb b9 cb 3e 3c
       -0.028239341 -0.0020709322 -0.003764141 0.011645251
0003e0 5e 0b 3b 3c c0 c7 6c ba ff 8c ce bc 76 18 0c bd
       0.011416284 -0.00090324506 -0.025213717 -0.034203015
0003f0 b5 03 68 3c 38 31 2d bd 78 ab 74 bc f6 d0 17 bd
       0.01416104 -0.042283267 -0.014933459 -0.037064515

bias f4 [32]
000000 2e c0 bb bd df f3 78 bd 1f b1 95 3d 81 67 a1 bd
       -0.09167515 -0.06077945 0.07309174 -0.0788107
000010 b6 25 a1 3d 99 d8 53 3d 98 41 1a 3c e9 bb 96 3c
       0.07868521 0.051720235 0.009415053 0.01840015
000020 93 2d 78 3c 65 75 82 bd fd cf b2 bd 53 e1 a3 bd
       0.0151475845 -0.063700475 -0.08731077 -0.080019616
000030 94 cf 57 bd 1e 74 b8 bd a2 de 1e bc 9f 77 da bd
       -0.052688196 -0.090065226 -0.0096966345 -0.10667347
000040 dc 7b 48 bc 08 a4 87 bd 10 9b 3d 3d 29 47 61 bd
       -0.012236562 -0.06623083 0.046290457 -0.054999504
000050 53 c7 62 bd 11 9e 54 bd 06 fb 05 be 85 56 c0 3d
       -0.05536587 -0.051908556 -0.13084039 0.09391502
000060 96 4c 8f 39 44 7e 51 bd 0d 5b 2e bd 15 04 c1 bc
       0.00027332146 -0.051145807 -0.0425673 -0.023561517
000070 aa b0 a0 bd 4c ed 66 3d 4f ee 5a bd 1c 73 c4 bc
       -0.07846196 0.056378648 -0.053449925 -0.02398067

weight f4 [64, 32, 5, 5]
000000 d8 5c af bc 56 cf 6a 3c 88 8a 5b bc 7c f1 45 bc
       -0.021406576 0.014331659 -0.013399728 -0.0120815
000010 33 2c 91 39 fb dc 02 bc 04 6e 36 3c a5 b2 41 bc
       0.00027689486 -0.007987256 0.011134628 -0.011822377
000020 01 5b 08 3c 69 c3 e8 3c 1e 78 26 3d 11 f8 e3 3c
       0.008322478 0.028413491 0.040641896 0.027828248
000030 2f 89 4f 3b 35 de 3c 3d 73 59 3a 3d 23 39 e6 bc
       0.003166746 0.04611035 0.04549546 -0.028103417
000040 3b f6 03 3d e6 8a 2b bb 0c 99 fb bc 11 7a eb bc
       0.032217246 -0.002617532 -0.030712627 -0.02874473
000050 fc 79 b5 bc e7 f4 3c bd 12 b8 a8 bc 2d 18 dc bc
       -0.022152893 -0.046131995 -0.020595584 -0.026866997
000060 4f ca 08 3b 84 17 8b ba 4e e5 28 bb 03 6b 83 3c
       0.0020872538 -0.0010611867 -0.0025771442 0.016042238
000070 7e e7 8d bb 0c 43 15 3d 78 a1 ad bc c4 09 e2 bc
       -0.0043305745 0.036440894 -0.021195158 -0.027592547
000080 e7 85 ba 3c c4 02 13 bc 05 a3 78 3d 99 0b 03 bc
       0.022768928 -0.008972827 0.060702343 -0.007998371
000090 bc ef c3 3a 52 0e 00 3d ed 6e 2c 3d d2 36 3d ba
       0.0014948766 0.031263657 0.042097975 -0.00072179467
0000a0 89 83 82 3b 91 02 36 3d 7c 7f b1 bc 54 c4 42 3c
       0.0039829654 0.04443604 -0.021667235 0.011887629
0000b0 20 16 13 bc 0b 28 0e 3d 94 5f 19 bc 40 89 52 bc
       -0.008977443 0.034706157 -0.0093611665 -0.012850106
0000c0 57 80 80 bc cf 2d 4b 3b a4 ad 9f 3c 94 88 a8 bc
       -0.015686197 0.0031002646 0.019491978 -0.020572938
0000d0 ea 26 d1 bc 4b 70 24 3c 19 15 4b 3d c0 f2 42 3d
       -0.025531251 0.010036538 0.049580667 0.047594786
0000e0 b5 35 32 bc c8 ce 39 bb fa 17 3c 3d c1 95 6a 3d
       -0.010877063 -0.002835201 0.045921303 0.057271723
0000f0 49 d2 85 3c be 04 86 3c cc 19 a5 3c e3 59 89 3c
       0.016335623 0.016359683 0.020153902 0.016766494
000100 bc 5f 81 bd 0a 63 15 3c ea 41 2c bd fc 75 92 bd
       -0.06317088 0.009117851 -0.042055048 -0.0715141
000110 37 3f c5 bc e1 b2 4c bd f0 29 4c 3d 52 61 5a bb
       -0.024077995 -0.04997528 0.049844682 -0.0033322168
000120 a9 e6 aa bc f1 9f 50 3d 36 99 f1 3a d1 f7 d9 bc
       -0.02086194 0.050933782 0.0018432501 -0.026607426
000130 7d 1a 8e 3c 36 78 9e 3c f2 7a 3c bc bf a9 59 bc
       0.017346615 0.01934443 -0.011503922 -0.0132850995
000140 1a b0 5f 3c df 6d 20 bd 61 ed 18 3c a4 78 4b 3c
       0.013652826 -0.03916728 0.009333939 0.0124189
000150 ec 6e 78 bc 6a 0f 01 bd fa 89 ed b9 84 0f 10 3c
       -0.015163165 -0.03150884 -0.00045306963 0.008792762
000160 16 43 da 3c 4f 39 e1 bb eb 5c 96 3c bd cf eb bc
       0.026643317 -0.006873287 0.018354854 -0.02878558
000170 e5 fe 9f bc 9c 15 e2 39 ba d7 03 3d 05 82 8c bc
       -0.019530723 0.0004312218 0.032188155 -0.017151842
000180 93 68 9d ba 2c 15 12 3d 54 5e f0 3c bc c3 a8 bc
       -0.0012009315 0.035664722 0.029341854 -0.020601146
000190 36 63 ca bc 00 09 6d bc 08 5b e8 3a 56 67 34 3c
       -0.02470551 -0.014467478 0.0017727325 0.011010965
0001a0 61 51 a9 3c eb 66 e3 bc a1 96 f1 bc 24 b5 60 bd
       0.020668687 -0.027759036 -0.02949077 -0.05486025
0001b0 37 bc 62 bb f5 bc 71 3d cf 28 6c bc 25 1e 54 3a
       -0.0034597048 0.059018094 -0.014414026 0.000809165
0001c0 2a 23 05 3d 40 32 91 3c 7d f3 a9 3c de 2f bc ba
       0.03250424 0.017724156 0.020745987 -0.0014357527
0001d0 ae 80 67 3c 78 4d 65 bb b7 bb 3e bd 42 cc 09 bd
       0.014129801 -0.0034988802 -0.046565738 -0.03364206
0001e0 aa 2f d5 3b 07 6d 98 bb 46 da 5c bc b1 00 a3 3c
       0.006505926 -0.004651669 -0.013479775 0.01989779
0001f0 e6 52 2a 3d 25 2d 72 3c df c3 06 3d 3b e5 89 3c
       0.041582964 0.014781271 0.03290164 0.016832938
000200 61 be bb 3c 7a 8a 01 3c eb 3c a7 3c b4 1b fd 3c
       0.022917928 0.007906551 0.02041479 0.030896999
000210 67 41 fa 3c 07 57 a0 3c 98 85 a0 bc b7 82 bb 3c
       0.030548764 0.019572748 -0.019594952 0.022889478
000220 31 f9 b5 3c 7d 0b ee bc ae 13 c1 bc ae a9 2c bd
       0.02221355 -0.029058212 -0.023568954 -0.042154007
000230 ec 0b a1 bb c8 bc f5 bc c4 b5 ea bc 85 d2 ff bc
       -0.0049147513 -0.029997244 -0.028651126 -0.031228313
000240 e0 a9 d5 bb 70 4d 45 3d 33 9d e5 bb cc 0e 42 3d
       -0.006520495 0.048169553 -0.007007265 0.047377393
000250 3e bf 99 3c 60 8c b1 3c 9f b3 f7 ba fc 32 e5 3c
       0.01876795 0.021673381 -0.0018898136 0.027978413
000260 d4 35 0e 3d d1 47 ae bc 88 b4 e2 bb 55 9d fe 3c
       0.034719303 -0.02127448 -0.0069184937 0.031080881
000270 a6 1b 04 bc e3 09 79 3c c5 df 7b bc f8 83 bd bc
       -0.0080632325 0.015200111 -0.015373175 -0.023134217
000280 6e 1c 97 3c ae dd 55 3c 82 6a df bb 02 a5 da bc
       0.018446174 0.013053341 -0.0068181166 -0.02669001
000290 5d c9 54 bc 9e 0b 69 3a 52 75 39 bd 88 cc 09 bd
       -0.012987462 0.0008889976 -0.0452779 -0.03364232
0002a0 ab 54 fc 3a 17 e0 c9 bc bd db ca 3c 37 43 8f bc
       0.0019251307 -0.024642987 0.024762983 -0.017488105
0002b0 b2 ca 0f 3c 95 7d ab bc 7a a7 de 3b e2 cc b3 ba
       0.008776354 -0.020933906 0.006794867 -0.0013717676
0002c0 80 56 06 3d 30 d4 ea bc d2 4c 16 bd e8 fd f6 3c
       0.032797337 -0.028665632 -0.036694355 0.030150369
0002d0 fc 85 db 3c bf b4 3d 3d e2 5b 72 3c 62 a5 db 3b
       0.026797287 0.04631495 0.014792414 0.006703065
0002e0 ff f5 ff 3c 66 c8 04 3d a8 65 1e 3d c9 e1 f9 3c
       0.03124523 0.032417677 0.038671166 0.03050317
0002f0 5f ff 91 3c 01 02 1c bc 88 e7 1c bd 79 29 8b bd
       0.017821966 -0.009521962 -0.038306743 -0.0679502
000300 c5 44 a8 ba 54 7e 0a bd 52 b3 4f bd 04 ef be bc
       -0.0012837878 -0.033811882 -0.050708123 -0.02330733
000310 80 eb 3f bd 0d 26 fd bc ee b8 2c 3d 4c 3b be 3c
       -0.04685545 -0.030901933 0.04216855 0.023221634
000320 da 5f 16 3d f5 f9 4d 3c 4b 65 7b bc de 22 2a 3c
       0.036712505 0.012571801 -0.015343974 0.01038429
000330 78 0f 1b bb 04 b6 a2 3c 2b b5 c7 bc 0b 55 cb 3c
       -0.0023660343 0.019862182 -0.02437838 0.024820825
000340 2e 10 b0 3c c1 52 96 bc c6 53 18 bd e7 93 f8 bc
       0.02149209 -0.018350007 -0.037189268 -0.030343963
000350 a6 b6 33 bd 62 bd 5a bb 0e 23 24 bd 72 73 55 bd
       -0.04387536 -0.003337704 -0.040072493 -0.05211205
000360 49 b9 27 3b 48 55 30 3c 66 be 40 bc cc 89 1e bd
       0.0025592616 0.01076252 -0.0117641445 -0.038705632
000370 6c ad 04 bd e3 24 09 bd 00 1c 56 3d f1 e7 23 3d
       -0.03239195 -0.033482444 0.052272797 0.04001612
000380 e7 05 56 3d 66 f8 e7 bc 01 a3 09 3c 76 13 7f ba
       0.052251723 -0.028316688 0.00840068 -0.0009730378
000390 3a 88 db 3c b8 0a 77 bc 59 38 5a bc 9c d4 5b ba
       0.026798356 -0.015078239 -0.013319098 -0.0008385868
0003a0 66 cb 65 3d ca bf e3 bb 7c 3d c9 bc fd 72 f3 3c
       0.05610218 -0.0069503533 -0.02456545 0.029717917
0003b0 ac eb ce 3c 44 87 36 3c 11 40 a9 bc 56 80 bf ba
       0.025258861 0.011140648 -0.020660432 -0.0014610391
0003c0 c1 c7 10 bd fe 65 43 3c 7e f8 ff 3b fd 3e 88 bb
       -0.03534675 0.011926172 0.007811605 -0.0041578994
0003d0 ba 8c c7 3c 6b 59 ef bc 37 c2 cb bb d2 8f 07 bd
       0.024359096 -0.029217442 -0.0062182206 -0.033096142
0003e0 19 9a 15 bd b2 83 f8 bc d4 bb 99 bc b3 34 b0 3c
       -0.036523912 -0.030336235 -0.018766321 0.021509504
0003f0 63 54 13 3d 4c d1 89 3c 43 e1 52 3c 38 71 4d bc
       0.03596915 0.016823433 0.012871089 -0.0125392005

bias f4 [64]
000000 c6 38 5e 3b c8 7a 47 bc 0f 66 f3 bc 3d 3a f0 bc
       0.0033908351 -0.012175269 -0.029711751 -0.029324645
000010 2a 90 0a 3c 97 9b 62 bd 41 ed a5 bd 9b 85 3b 3a
       0.008457223 -0.055324163 -0.08101893 0.00071533927
000020 ec ab 65 3c 4c 92 f0 bc b4 18 95 bc 0a 20 58 bc
       0.01401804 -0.029366635 -0.018200256 -0.013191232
000030 18 8b 0e bc ba 85 48 bd ec 06 bc bc d5 7e 48 bd
       -0.008700155 -0.048955657 -0.02295252 -0.04894908
000040 80 1a b9 bd 18 56 97 3c 04 a5 8d bc 84 c2 42 3c
       -0.090382576 0.01847367 -0.0172906 0.011887196
000050 a7 7f 6a bd ad a2 a2 bd 53 ae d2 bc 16 28 d1 bc
       -0.057250645 -0.07941184 -0.02571789 -0.02553181
000060 dc ba 30 bd 8a 7c 81 bd c2 91 cb bc ed 56 68 bd
       -0.043146953 -0.06322582 -0.024849776 -0.056723524
000070 50 e4 26 bd 18 65 c2 bc 3c 71 b9 3c 62 59 ad bc
       -0.04074508 -0.023729846 0.022637002 -0.021160785
000080 65 b9 0b bd 9f 2b 30 3c a7 85 22 3d 2f c8 55 bc
       -0.034112353 0.010752588 0.039678242 -0.013048216
000090 23 85 9c bd 76 05 bb 3b f4 62 86 bc 5c da 7f 3c
       -0.07642581 0.005707438 -0.016404606 0.015616026
0000a0 86 6e cf bc aa dc 46 bd 94 80 3d bd 9c e9 54 3b
       -0.025321256 -0.048550285 -0.0462652 0.0032487875
0000b0 5e 98 a6 bc 94 dd 24 bd 79 2b c3 bd 9c cc e7 bc
       -0.020336326 -0.040250376 -0.09529776 -0.028295808
0000c0 18 57 94 bd 6a e0 9d bd 2c f7 35 3c 1e 1d 0d bc
       -0.07243174 -0.07708819 0.011106294 -0.008612899
0000d0 cd 85 6a bd 8b 0c ca bc e3 5e 29 3c 5b 15 9a 3b
       -0.05725651 -0.024664184 0.010337564 0.004702253
0000e0 2c e0 80 bd 4f 78 28 3a 22 8a 23 bd 7b fe 06 bd
       -0.062927574 0.0006426619 -0.039926656 -0.032957535
0000f0 61 5e b4 bd 40 a0 44 bd 8f 29 89 ba b8 8f 87 bd
       -0.08807064 -0.04800439 -0.0010464656 -0.06619209

weight f4 [64, 1024]
000000 2a 9f d5 3c 52 e3 5f bb 4f 08 03 bc 7b 0f 52 bc
       0.026076872 -0.0034162593 -0.007997586 -0.012821074
000010 56 d0 a2 3c e7 22 78 bc 1d 74 12 3d c4 0a 82 3c
       0.019874733 -0.01514504 0.035755266 0.015874274
000020 40 3b b7 3c ce 67 3d bc 97 4e 06 bb 56 30 2e 3c
       0.02236712 -0.0115603935 -0.002049362 0.010631641
000030 28 15 46 bd 00 60 76 bc 94 dd b4 bc f1 a0 0a bd
       -0.04836002 -0.015037537 -0.022078313 -0.033844892
000040 1a f3 d6 3c af da 24 bc 6b 6f e4 ba 65 02 d7 bc
       0.026238967 -0.010061904 -0.0017428225 -0.026246259
000050 f0 5f 3f bc ca f1 71 bb d3 37 cf 3b 77 19 8f bc
       -0.011680588 -0.00369178 0.0063237934 -0.017468197
000060 c1 3c 11 bd 0a 84 4e 3c 73 89 bc 3c 63 8a 05 bd
       -0.03545833 0.012604723 0.02301476 -0.03260268
000070 da cf 6f bb ec c5 ee bb 58 b9 a7 3b de 5f 51 3c
       -0.0036592395 -0.0072867777 0.0051185302 0.012779204
000080 9b 2a a9 bc 24 ab 0c bc c2 0d d6 ba 9e f7 a3 bc
       -0.020650199 -0.008585725 -0.0016331004 -0.020015534
000090 4e f9 fe bb 7f 05 4d 3c 62 f3 4d bb 48 2c 44 bd
       -0.0077811843 0.012513517 -0.0031425585 -0.047893792
0000a0 90 17 90 3c 99 0e 34 bc 2b 7f bd 3c e9 0a c0 bc
       0.01758936 -0.0109898085 0.023131927 -0.023442702
0000b0 e4 94 f7 3b 05 80 62 bc 82 16 b6 3c 79 38 c2 bc
       0.007555591 -0.013824468 0.02222753 -0.023708569
0000c0 72 81 d2 bb de cd d9 bc 02 b2 2f 3c 24 a2 85 3c
       -0.0064241225 -0.026587423 0.010723593 0.016312666
0000d0 63 a3 8b 3b f9 8f ee 3c c6 b1 49 bc 36 5a 48 3c
       0.0042614206 0.029121386 -0.012310451 0.012228539
0000e0 43 38 2b 3d 5e a1 b5 3b e0 29 b1 39 76 af bf 3c
       0.041801702 0.005542918 0.0003379127 0.023399096
0000f0 36 19 7f bc 53 d7 f7 bc f9 4f fa bc ee ba ea 3c
       -0.015569976 -0.030254042 -0.030555712 0.028653588
000100 49 da 8e 3b d5 91 15 3d 5e 2f c0 3c c0 30 c6 bc
       0.0043595177 0.03651603 0.023460086 -0.024193168
000110 b8 2c e9 3c 64 bf 13 bc 4d ac 2d bb c1 ca fe 3b
       0.028463706 -0.009017799 -0.0026500404 0.007775635
000120 a8 20 46 bb 49 60 9b 3b 11 25 67 3c 02 cd d9 3b
       -0.0030231867 0.0047417027 0.014107958 0.0066467533
000130 6a 67 9a 3c 88 6b 1f bd d7 12 1d bd db a8 89 bc
       0.01884814 -0.03892091 -0.038348045 -0.01680415
000140 a0 a8 8e 3c 5e 37 67 3b fb a9 a0 3c e7 b0 ce 3c
       0.017414391 0.0035280804 0.019612303 0.025230838
000150 be de 13 bd 75 b6 14 bd fa 13 d9 ba 69 7e 22 3c
       -0.036101095 -0.036306817 -0.001656174 0.009917834
000160 ac 17 b1 bc 02 b5 bb ba bc 69 8a 3c ab 43 7c 39
       -0.021617733 -0.0014320912 0.016896121 0.00024057801
000170 d8 82 7d 3c d0 af 07 3d 6d 52 8c 3c 50 ff 83 bc
       0.01547309 0.033126652 0.017129147 -0.016112953
000180 38 13 04 bd 9b e3 bc bc 83 11 d9 3b ed f8 17 bd
       -0.03224489 -0.02305775 0.006624402 -0.03710263
000190 15 a2 e3 3b 38 05 aa bb 68 a4 b1 bb bc 06 49 bd
       0.006946812 -0.0051886104 -0.00542121 -0.049078688
0001a0 6c 9f a0 ba 42 44 da 3a 54 8e de 3b d1 03 85 bb
       -0.0012254543 0.0016652422 0.006791869 -0.004059293
0001b0 07 38 d0 3c a3 e5 d5 3c 08 7c c6 bb b6 4d 00 3d
       0.02541734 0.026110476 -0.006057266 0.03132411
0001c0 92 2a e6 bc 82 fa 0f 3d 7e 8a c1 3c 72 30 9b 3c
       -0.028096471 0.035151012 0.023625609 0.018943999
0001d0 8a 4c 24 bd 5f 14 44 bc aa c3 aa 3c 33 29 18 bd
       -0.040112056 -0.0119677475 0.020845253 -0.037148666
0001e0 6a d3 44 bd 8a 48 13 3c 59 d7 4c bd af 3f 6e bd
       -0.048053183 0.008989463 -0.05001006 -0.058166202
0001f0 42 21 a3 bc c2 1d 64 ba bb 26 68 bc 51 7d 69 bb
       -0.01991332 -0.0008701944 -0.01416939 -0.0035627673
000200 38 7d 23 3c 9c ce 23 3c 6f 36 61 3c 4d d9 bd 3c
       0.009978585 0.00999799 0.013745888 0.023174906
000210 b0 b6 7f 3c 61 b0 51 bc 36 a3 ab bb 2e a7 a6 3c
       0.015607521 -0.0127984 -0.005237962 0.02034339
000220 70 4e cc bc 4b 6e a0 3c bd aa 1d bd 32 32 e8 ba
       -0.024939746 0.019583842 -0.038492907 -0.0017715155
000230 a6 ed 0c bd 53 30 50 bd e5 65 52 bd 59 4d 1c bc
       -0.034406327 -0.050827336 -0.051366705 -0.0095399255
000240 b8 92 ec 3c 73 ac b4 bc 36 ad 82 bb 07 fc 92 bc
       0.028878555 -0.022054886 -0.0039879335 -0.017942442
000250 89 49 8d bc 9c 97 23 3c 4e f0 82 bb 5a 66 c5 bc
       -0.017246978 0.009984877 -0.0039959317 -0.024096657
000260 c3 89 1a bd 74 6d b3 bc 22 9b ee bc 14 2e 02 3d
       -0.037729036 -0.021902777 -0.029126707 0.031782225
000270 8f d8 12 3d b3 44 ae bb da 99 3e bc d9 81 0a 3d
       0.035851058 -0.005318248 -0.011633361 0.03381524
000280 53 05 ae 3c f3 f6 85 3c 81 de 9e bc 43 b8 e3 3c
       0.021242773 0.016353106 -0.019393208 0.027797824
000290 45 6f bd 3c ec 38 10 3d 67 01 0d 3d 80 7a 01 bc
       0.023124347 0.035210535 0.034425166 -0.007902741
0002a0 18 25 a0 bb f5 1b 00 bd 06 c5 0f bd 25 8e a5 3c
       -0.0048872344 -0.031276662 -0.035100006 0.020209381
0002b0 66 ee 88 3c 85 c9 98 bb ff 33 98 3a 81 34 18 3c
       0.01671524 -0.004662695 0.0011612176 0.009289862
0002c0 cf f1 da bc 1e 65 e0 ba 74 13 bb bc b4 cd d6 3b
       -0.026726631 -0.0017119979 -0.022836424 0.0065552834
0002d0 50 74 83 3c 76 a0 15 3d 4e d8 25 3b 40 80 cf bc
       0.016046673 0.03652998 0.002530593 -0.025329709
0002e0 59 66 0a bc 9b 9d 70 3b 84 08 01 3c c9 74 ba 3c
       -0.008447253 0.0036715034 0.007875565 0.022760766
0002f0 75 c0 5f 3c a6 e6 ab 3c db 26 4d 3a 62 15 1c 3d
       0.013656725 0.020984005 0.00078259193 0.03810633
000300 0b 79 92 3c 5e d6 db bb 34 a7 f2 3b 21 32 8e 3c
       0.017879983 -0.006708904 0.007405186 0.017357888
000310 a7 a8 e2 3c 5c 4a 5b 3d c3 ce e7 3c ab 26 c4 bc
       0.02766831 0.05353771 0.028296834 -0.02394422
000320 0d 3e 1e bc 79 85 02 3d f5 94 aa ba 5c 14 c8 bc
       -0.009658349 0.03186557 -0.0013014363 -0.02442377
000330 b4 24 4f bc 8b 9b fe 3a ff f7 c9 bb 8f 97 09 bd
       -0.012643028 0.0019425018 -0.0061635966 -0.033591803
000340 62 ca 05 3b bf b0 bb bb 4b 5f be 3c 09 6b e0 bc
       0.002041482 -0.005727857 0.023238799 -0.027394788
000350 35 ca 88 bc b3 de c9 3c 9a f5 06 3c de b5 00 3c
       -0.016697982 0.024642324 0.008237267 0.0078558605
000360 86 b5 8a 3c 5c 90 83 bc 3d 0a 39 3c 43 89 94 bc
       0.01693226 -0.016060047 0.011293945 -0.018131858
000370 a7 04 40 bb f8 95 0c bd e0 8f 24 bc f7 1d 09 3b
       -0.0029299648 -0.03432271 -0.010044068 0.0020922401
000380 f4 45 e0 3b cf 0e 20 3c 41 ca ec 3c 62 b8 c0 3c
       0.0068442766 0.009769156 0.028905036 0.02352542
000390 de 25 a1 bc 5e 9f fc 3c 28 67 8b ba 26 e3 90 ba
       -0.019671377 0.030837711 -0.0010635601 -0.0011054024
0003a0 62 71 e5 bc 7c 71 1d bc 3c db 66 ba a3 98 10 3d
       -0.028008167 -0.009609576 -0.0008806472 0.035301816
0003b0 9d 8d 2b 3c 74 b0 0d bd 6f 31 fd bc 42 70 b3 bc
       0.010470775 -0.034592107 -0.03090736 -0.021904115
0003c0 5b 28 93 3c 75 4a 05 3c 09 9c ff bc 59 4b 9e bc
       0.017963579 0.008135428 -0.031202333 -0.019323038
0003d0 2e 2b d5 bc 49 80 cb 3c 05 13 3b 3c 7f 1e 21 3c
       -0.026021566 0.024841445 0.011418109 0.009833931
0003e0 a8 8e 57 3b a4 1a fe 3b 5f 14 84 bc f8 27 9e bc
       0.0032891426 0.0077546407 -0.016122995 -0.019306168
0003f0 1e 87 f8 3c 3e b9 d9 bc 83 53 03 3d 94 77 00 3c
       0.030337866 -0.026577588 0.032062065 0.00784101

bias f4 [64]
000000 02 ed fa 3c c3 67 2f 3c 42 e6 38 3c b7 91 70 3c
       0.030630592 0.010705891 0.0112853665 0.014683179
000010 b1 fa 1b 3d d3 db dd bc 98 0b 9a 3b 9a 1b 79 bc
       0.038080875 -0.02708236 0.004701089 -0.015204335
000020 4e fd 13 bd 53 1c fc 3b 2a 65 82 3c a1 8e ef 3c
       -0.036130242 0.007693806 0.01591738 0.029242815
000030 2f a5 00 3d 56 8a 27 bc 61 f1 b1 bc 2e 28 71 bd
       0.03140753 -0.010225853 -0.021721544 -0.05887621
000040 f1 bf 0d bd 81 77 33 3d 85 a2 b6 3b 54 36 75 bc
       -0.034606878 0.04381514 0.005573573 -0.014966566
000050 ac 11 80 bc 97 85 44 bc d7 e2 a4 3c fc 16 cf bc
       -0.015633427 -0.011994741 0.020127697 -0.025279514
000060 11 b6 ce 3a d1 f0 55 3d 94 4c 28 bd 72 8d 0a bd
       0.0015770813 0.052231614 -0.041088656 -0.0338263
000070 4d 41 12 bd 17 f1 12 3d 6d ce c9 bc 15 9e a0 bd
       -0.035706807 0.035874452 -0.024634564 -0.07842652
000080 db 22 92 bc d1 7f 1b bd 35 9f 06 bc eb 82 91 bc
       -0.017838886 -0.037963692 -0.008216669 -0.017762622
000090 a5 98 85 bd 33 42 90 bb 5f 01 e0 3c 2e c1 d6 ba
       -0.06523255 -0.004402423 0.027344404 -0.0016384476
0000a0 ee 29 86 3c 63 d6 d6 bc 10 94 29 bd 0e 12 20 3d
       0.016377416 -0.026225274 -0.04140097 0.03907972
0000b0 16 11 0f bc 9a af ff bc 61 45 f8 bc 4e 91 d1 bc
       -0.008732101 -0.031211663 -0.03030652 -0.025581982
0000c0 14 33 08 3d dc d2 7e 3b de f8 39 3c 3d 5f d7 3b
       0.033251837 0.0038883006 0.0113508385 0.0065726326
0000d0 96 22 02 3d f1 ab 98 3a a8 51 33 3d 8f a0 be 3c
       0.031771265 0.0011647922 0.043779045 0.02326992
0000e0 ea 83 69 3d 5a bf 4d bc 27 99 21 3c 90 47 2e bc
       0.05701057 -0.012557829 0.0098631745 -0.010637179
0000f0 ea 0b 72 bc 00 cf f2 bc 8a ec 9c bc 78 b0 b6 3c
       -0.014773348 -0.02963972 -0.01915576 0.022300944

weight f4 [10, 64]
000000 d7 0a 95 bd 72 d8 1b 3e 4e 2d 59 bd 94 96 8d 3d
       -0.07277458 0.15219286 -0.05302172 0.06913486
000010 6b 74 6f 3d 45 a3 1f bd d2 be f5 3d 9c 6b 0a 3e
       0.058460634 -0.038974065 0.11999287 0.13517612
000020 d2 6f bd 3d e0 19 8f 3d 3b ab 6c be 25 b7 23 3e
       0.09249844 0.06987357 -0.23112194 0.15987833
000030 d4 f7 f0 bc 2a 17 3a 3e 60 41 01 bc 36 2a c5 bd
       -0.029415049 0.18172899 -0.007889122 -0.09627192
000040 b5 67 ba bd 97 7d 2a bd 6c 53 05 bd c7 b1 01 3e
       -0.09101812 -0.041623678 -0.03255026 0.12665473
000050 93 95 e1 3d 14 44 2c 3e e2 2a a4 3b f2 f7 c2 3d
       0.11014857 0.16822845 0.005009995 0.09519948
000060 fe 87 66 bd 6f 3f bc bd 82 ea 03 3e 7d 55 b5 3d
       -0.056282036 -0.091917865 0.12882426 0.08854196
000070 5d dd 0c 3e 7f dd f5 3a 3e be db 3d 8e a2 29 3e
       0.13756318 0.0018758028 0.10729645 0.16565916
000080 f8 01 b6 3d 8e 5e 4c 3e 33 f2 c8 3d 92 1a 87 3d
       0.08887094 0.19957945 0.09811821 0.06596865
000090 c1 85 e4 3d 81 13 11 be 9c 41 62 be f4 18 59 be
       0.11158324 -0.14167596 -0.2209534 -0.21200925
0000a0 c5 a1 c6 3d ca eb 96 3c c4 d3 42 bd 2d 6a e8 bd
       0.09698824 0.01842298 -0.047565237 -0.113483764
0000b0 43 77 76 bc bf e9 f1 3d 32 a5 1a 3e 0a 8b 1e 3e
       -0.015043083 0.11812162 0.1510208 0.15482727
0000c0 7e 67 e9 bd bf 06 2d be 3a 2f f3 bd 22 e5 9f 3d
       -0.11396693 -0.16897105 -0.11874242 0.078073755
0000d0 a2 fd f5 bd 92 27 31 be a3 a0 13 bd 0c 89 38 be
       -0.12011267 -0.17300251 -0.036041867 -0.18021029
0000e0 09 37 76 bd 9b 01 6d 3e 1b 20 0a 3c 5a 0f b6 bd
       -0.06011108 0.23145144 0.008430506 -0.08889647
0000f0 54 dc 09 be 20 05 cd 3d f1 44 82 3d 31 ff f7 bd
       -0.13462955 0.10010743 0.06360806 -0.12109221
000100 9c ab 48 bd 19 d2 6d 3b a1 9e 3a bc 8f 96 71 be
       -0.048991784 0.0036288558 -0.011390359 -0.2359259
000110 06 8c b1 3d da 22 92 3d 1e c3 42 bd 49 4a de 3d
       0.086692855 0.07135554 -0.04754936 0.108540125
000120 dc fc 4c be 51 88 32 be 3f 33 94 bd 7e 73 52 be
       -0.20018333 -0.17434813 -0.07236337 -0.2055187
000130 92 84 d2 bd 98 64 43 3d 45 10 e0 bc 4f c0 10 3b
       -0.10279192 0.047703356 -0.027351508 0.002208728
000140 76 37 5f be 75 12 91 bd 46 12 1a be 68 bf 9b 3d
       -0.217985 -0.070835985 -0.15046033 0.07604867
000150 7b f8 94 3e 4c a0 ac 3a 14 53 bc bd 56 df 79 3e
       0.29095826 0.0013170331 -0.091955334 0.24401602
000160 14 6a 10 bd 5e 25 39 3e fc 3a 4d be 80 0e 5e be
       -0.035257414 0.1808066 -0.20042032 -0.21685219
000170 9a 90 87 3e 55 8a 61 bd 1d cf a4 bd 8f 5f 58 be
       0.2647751 -0.055063564 -0.08047316 -0.21130203
000180 5b 1c 23 be 84 39 fd bd 7b 05 fb bd 5b 54 25 be
       -0.15928786 -0.12364486 -0.12256905 -0.1614546
000190 5e 70 b9 bd 1e 3d f5 bd 37 9c 0b be 7e 80 4b be
       -0.090546355 -0.11974548 -0.1363381 -0.19873235
0001a0 a5 2f 06 be 2f 2a 9e bd 82 81 6e be 09 05 42 bd
       -0.13104112 -0.0772289 -0.23291591 -0.047368083
0001b0 71 14 30 be 1e 5e 8f 3e 8d 36 c6 bd 28 ff d5 bd
       -0.17195298 0.28001493 -0.096783735 -0.10449058
0001c0 60 8c 32 3d c5 07 61 3e 14 ad 18 be 6e 22 b1 bd
       0.043590903 0.2197562 -0.14909774 -0.08649145
0001d0 d6 e0 73 be 17 03 79 3e da 20 5f be a5 29 73 bd
       -0.23816237 0.24317585 -0.21789876 -0.059365887
0001e0 6a 86 3b 3e 9b 45 25 3d 05 39 15 3d 92 55 59 3e
       0.18312994 0.040349584 0.03643133 0.21224049
0001f0 64 3b 56 3e eb 9c 2a be 27 59 32 be d8 c1 84 bc
       0.20921093 -0.16661422 -0.17416821 -0.016205713
000200 77 2c ce 3d 75 7c 24 be ad de f5 3d c0 13 a2 3a
       0.10067075 -0.16063102 0.12005363 0.0012365505
000210 11 f7 e7 3d bf ef ea 3d 8e 78 5f be d2 42 64 bd
       0.11326421 0.11471509 -0.21823332 -0.055727787
000220 34 5d 39 3e 31 79 f6 3d 32 86 20 3d a4 0d af 3c
       0.1810196 0.12034834 0.03919048 0.021368809
000230 da be 6f bd 81 23 24 3e f6 dc 14 be 49 a5 20 be
       -0.05853162 0.16029169 -0.14537415 -0.15688051
000240 2e 22 58 bd 77 b1 db 3d 48 82 ea 3d 63 29 00 be
       -0.05276697 0.10727208 0.114506304 -0.12515788
000250 4c 72 3e 3d 82 47 89 bd 9b e5 07 3e 54 aa 04 3e
       0.04649572 -0.06703092 0.13271181 0.129556
000260 72 88 d3 3d 35 e3 aa bd e0 d6 3d be aa 56 9e 3d
       0.10328759 -0.083441176 -0.18539 0.077313736
000270 a3 3a 84 3c 9f 6b 18 3b 52 23 51 3e ad 33 62 3d
       0.016141241 0.0023257507 0.2042363 0.055225063
000280 41 11 30 3e e5 26 43 bd ed 48 a1 bd 78 1c 0c ba
       0.17194082 -0.047644515 -0.078752376 -0.00053448183
000290 59 81 e0 3d cd 11 eb bd 2c ed 06 3e 9e 5d 27 3e
       0.10962171 -0.114780046 0.13176411 0.16344306
0002a0 fd 4f c0 bd 58 1b 16 be 21 af d4 3d 89 70 cd bd
       -0.093902566 -0.14658868 0.10384966 -0.1003123
0002b0 49 de 39 be 42 1f cc 3c e9 51 ba bc e7 92 9e 3d
       -0.18151201 0.024917249 -0.022744136 0.07742863
0002c0 af 54 04 3e db e1 42 be 89 78 45 3d 55 5e 16 3d
       0.12922929 -0.1903147 0.048210654 0.036711056
0002d0 a5 bd d8 3c 72 cf 99 be 6e 52 f5 3d 01 1b d0 bd
       0.026457617 -0.3004108 0.11978613 -0.101614006
0002e0 e1 7b 7a 3d 54 60 c2 3d 9e 81 06 bd 8a fc ff bd
       0.061153296 0.094910294 -0.032838456 -0.1249934
0002f0 84 3e d3 bd 18 52 94 bc eb 61 da 3d 8a a9 bd 3d
       -0.10314658 -0.018105552 0.106632076 0.09260853
000300 b2 f7 64 3d a1 b5 06 be 18 49 32 be 29 4f 1a 3e
       0.055900283 -0.13155223 -0.17410696 0.1506926
000310 b8 ab 0e 3e d9 23 e8 3d c0 ed 40 be 67 f1 c9 bd
       0.13932693 0.113349624 -0.18840694 -0.09860497
000320 fe 09 4e 3e 50 b2 38 3e 8c 6d 1b bd c6 3a 80 bc
       0.20120999 0.18036771 -0.03794627 -0.015653025
000330 56 eb 36 3d 4d fb 49 3c 9d cc a8 bd 3e 70 03 bd
       0.044658028 0.012327981 -0.08242152 -0.032089464
000340 a0 76 14 3d 79 fb 45 bb f5 9a 06 3d b4 3c 0b be
       0.036245942 -0.0030209704 0.032862622 -0.13597375
000350 b9 30 c1 3c 5c 92 f7 3b d2 94 e3 bd e3 3e 19 be
       0.023582803 0.007555289 -0.111123696 -0.14965396
000360 26 70 86 bd 39 65 14 be cf 32 d7 bc 6f b3 51 bd
       -0.06564359 -0.14491738 -0.026269345 -0.05119651
000370 77 4d 16 be ce 15 eb 3c 49 62 34 bd ba c7 cb bd
       -0.14677988 0.02869692 -0.044039045 -0.09950204
000380 4a 31 3a be b0 50 a7 bd e6 3b d8 3d 96 b2 e8 bd
       -0.18182865 -0.08169687 0.105583 -0.113621876
000390 a3 c4 ef bd 46 b5 d8 3d 97 99 dd 3c ba d1 b4 bd
       -0.11707427 0.1058145 0.027050776 -0.08829065
0003a0 49 23 c0 3d be 87 12 3d 5c 93 a8 bd 1c 3c cd 3d
       0.0938173 0.035773985 -0.082312316 0.100212306
0003b0 db 83 bf bd 70 c0 e1 bb 40 99 0d be 4c d1 c6 3b
       -0.09351321 -0.0068893954 -0.13827991 0.0060674306
0003c0 6d 00 0b 3e 39 a3 44 3d d3 a9 ef 3d bb 48 35 3d
       0.13574381 0.048007224 0.11702313 0.044258814
0003d0 a7 a6 80 3d c3 0e fc bd cd 4e 37 bd 3f ce 92 3d
       0.062817864 -0.12307503 -0.044752885 0.071682446
0003e0 1b 0b 02 3d fe 17 b9 bb 6b ae d4 3d 0a 50 e9 3d
       0.031748872 -0.005648612 0.1038483 0.11392219
0003f0 83 9c a3 3c 19 db 9d 3d 37 b7 02 3e e6 9e 66 3d
       0.019972092 0.07707805 0.12765203 0.05630388

bias f4 [10]
000000 56 2c 3c be b8 8d cd bd 34 b9 96 bc e4 32 5d bd
       -0.18376288 -0.10036796 -0.018398859 -0.05400361
000010 ed f1 78 3c 11 48 10 be 7b c4 1c 3d f2 37 de bd
       0.015194398 -0.14089991 0.038273316 -0.108505145
000020 a4 27 20 bd f2 ab d7 bc
       -0.039100304 -0.026327107
