tudui_3.pth (torch, 588600 bytes, 10 tensors)

weight f4 [32, 3, 5, 5]
00000000: 71f1 9abd 613e c23d 39f5 353d 462e 973d
00000010: 3813 baba cf34 8d3c c88b b13c 7725 8fbd
00000020: e1af ef3d 7b9e 89bd 563d a03d ac81 9e3d
00000030: f7a7 d93d 8891 89bd d256 283d 1259 65bb
00000040: a532 bebd d163 d13d dc90 a43d 8ef6 bdbd
00000050: c855 76bd 8f2c 03be 58c3 05be 2085 073d
00000060: 0fbd efbd 2d53 ae3d b5fe 60bd 1184 ea3d
00000070: 3d6c 053e ee5d 41bd 564b 51bd b234 4cba
00000080: 06f2 a43d 67a0 bcbd cf43 4a3b 5bd1 94bd
00000090: 8a73 94bc 5a9c a23d 7b5c 40bd ae00 77bd
000000a0: 5435 93bd 63a2 4b3d e6bf 01be 255f 3f3d
000000b0: e850 f1bc f22c 2dbd 6e89 ecbb e64e 813d
000000c0: 6984 b6bd 7c33 9fba 4b22 153d da0a 6d3d
000000d0: 41ef f63d d100 663d cbbf fa3d f199 71bd
000000e0: de06 30bd a3de aabd d772 ec3d d7b5 973c
000000f0: 8dfa ddbd 5a85 fabc ae27 0a3d 2a9a 973c
00000100: d1e5 7c3d 8b84 cd3d bfd6 b2bd 5ebd e4bd
00000110: 6498 9b3d 3e14 c03c adc8 37bd 5c05 e7bd
00000120: 18c9 b13c c023 f0bd 1f72 a3bd f1e9 3bbd
00000130: a8a9 b63d 0b7e 083e c5bf 933d d268 5a3d
00000140: 6e81 e63c ae24 363e 875b e13d 6cb8 103e
00000150: 1cab 013e b804 30bc 4b8d 0e3e 34e4 b33d
00000160: dcb9 a03d a43a a93d a59a df3c 82bc 313d
00000170: 1901 4c3d 9bd3 a7bd 283a 38bd b007 fc38
00000180: e27a a3bc 6cbc 43bd 3a9d 64bd eb1b c5bd
00000190: e652 acbd 1c87 98bd ce26 90bd 57f6 ddbd
000001a0: 5d64 55bd dacf 84bd 0a75 50bd 3ed4 3f3d
000001b0: 29d4 a33d 2c7e bc3d c292 a23d 221d b63c
000001c0: d21c 503d cf41 bebc dbbc 953d 96a4 e8bd
000001d0: f743 24be d025 d73c 958f 95bd 6096 6239
000001e0: 16e5 17bc f438 25be 1130 adbd 49f9 5fbd
000001f0: 8204 f9bd b05c 80bc 9e7c 14bc e3c8 c8bd
00000200: 8021 053d b9fb ffbd 25b4 c4bc ba9c a83d
00000210: d2c8 99bd fca2 903d e04e ee3d 3378 36bc
00000220: 02e1 db3d 564d ef3d eba4 4c3a f2e8 e93d
00000230: 5c80 07be 0387 06be 779b c0bd f372 45bd
00000240: 232a 93bd d89b e6bc 7640 cbbd 90d0 5b3b
00000250: c1bf babc 5e81 4a3c e994 aa3d dafd 60bd
00000260: a824 b73d 7abc 333d 01ea 2bbd 2395 cfbd
00000270: 3222 89bd 425f 82bd ec87 a03d b121 423d
00000280: 4c86 03bc b5de 8b3d 9260 c8bd f86a e0bd
00000290: b8b5 17bd 5a14 01be 4f4a 5a3d 5fec 85bd
000002a0: 7c49 74bd 6d18 da3c 50db bfbd df06 4bbc
000002b0: 3606 2b3d 71ae a23d dcd3 eb3c 2435 1cbb
000002c0: 8f59 35bd 89f4 583d fe3b b8bb d425 94bd
000002d0: 1f23 693d 9e6e ad3b 6812 bbbd 9f34 5d3c
000002e0: 7675 c13c 4f1c ce3b d8e4 353d 6888 2fbd
000002f0: 2f3f ce3c 5dea c8bd f388 683d 8d3a 9d3c
00000300: 3793 febc 027f ef3b 8f92 08be 938a a0bd
00000310: aed4 debd 57b4 16be a40f adbc 7393 dbbd
00000320: 7538 7e3d 140d 26bd ae8c 8fbc ea8c d63d
00000330: 9114 163e 1b26 d43d 9ee8 153e c43c 223e
00000340: 27fd e73c 2360 613c a927 93bd 7c71 be3d
00000350: 2fd4 973d 4c0f 683d 79e0 a0bd 0421 a73d
00000360: 4c1d 4e3d 3db4 793d 8675 ee3d 4b43 ef3d
00000370: 7712 93bc fe8d 973c f4a3 6abd 29ac 4d3c
00000380: 13c9 873d 6c15 88bd f8ef 7b3c 0c13 0b3e
00000390: 9cc1 5c3c 5e17 c93b a07e 103c af0b af3d
000003a0: 0122 b9bd bb5b 243d 1747 8cbd 5598 febd
000003b0: 474b a53b babe c8bd 640b 973d 19d6 0bbd
000003c0: fcab c9bd a732 8bbd 090f 49bd 3f87 033d
000003d0: f2c8 06bb c81a 4a3b 34ae 4ebd 72ea f8bc
000003e0: 3221 06be 923e 07be 086f 123d c5ad a03c
000003f0: 79c1 b1bd 5bae 09bd 18a6 5d3d 0431 56bd
-0.075655825 0.09484554 0.044423316 0.07381873 -0.0014196401 0.017237095 0.021673098 -0.06989568
0.11703468 -0.06719681 0.07824199 0.07739577 0.1062774 -0.06717211 0.041098423 -0.0034995717
-0.092870034 0.102241166 0.08035442 -0.09275542 -0.0601404 -0.12809967 -0.13062799 0.033085942
-0.11705982 0.08511958 -0.054930408 0.11450971 0.13029571 -0.04720872 -0.051097237 -0.00077898346
0.08053975 -0.09210282 0.003086317 -0.07266494 -0.0181215 0.07939978 -0.046963196 -0.060303383
-0.07187906 0.04971541 -0.1267086 0.046721596 -0.029457524 -0.04227919 -0.0072185313 0.06313877
-0.08911974 -0.0012146081 0.036409657 0.057871677 0.12057353 0.056153122 0.12243613 -0.0589847
-0.0429753 -0.08343246 0.115453415 0.018519325 -0.108388044 -0.030581165 0.033729248 0.018506128
0.061742608 0.10035046 -0.08732366 -0.111689314 0.075974256 0.023447152 -0.044869114 -0.11280319
0.021702334 -0.11725569 -0.07980751 -0.0458774 0.08919078 0.13329332 0.072143115 0.05332262
0.028137889 0.1778743 0.110037856 0.14132851 0.1266293 -0.010743313 0.13921086 0.08783761
0.0784795 0.08263138 0.02729542 0.043392666 0.049805734 -0.081946574 -0.044977337 0.00012017728
-0.019956056 -0.047787115 -0.055814005 -0.096244656 -0.08414249 -0.07447645 -0.070386514 -0.10838001
-0.052097667 -0.06484957 -0.050892867 0.04683327 0.07999451 0.09203753 0.07938148 0.022230688
0.050808735 -0.02322474 0.07311412 -0.11359517 -0.16041552 0.026263148 -0.07302777 0.00021609059
-0.009270927 -0.16135007 -0.084564336 -0.054681096 -0.12159063 -0.015669197 -0.009062914 -0.09803941
0.03250265 -0.12499184 -0.02401168 0.08233018 -0.075090066 0.07062337 0.11636138 -0.011137056
0.10736276 0.116846725 0.0007806557 0.11421384 -0.13232559 -0.1313744 -0.094046526 -0.048205327
-0.07185771 -0.028150484 -0.09924404 0.003354106 -0.022796514 0.012359945 0.083291836 -0.05492959
0.089425385 0.043880917 -0.04197121 -0.101358674 -0.06695975 -0.06365825 0.07838425 0.047395412
-0.008027624 0.06829587 -0.09784044 -0.10957903 -0.037038535 -0.1260542 0.053293522 -0.06539225
-0.059640393 0.026622975 -0.093680024 -0.012391775 0.04175397 0.07943428 0.028787546 -0.0023835385
-0.044274863 0.052967582 -0.005622386 -0.07233778 0.05691826 0.0052927276 -0.0913437 0.013501315
0.02361558 0.0062899957 0.044407696 -0.042854697 0.025176613 -0.09810326 0.05677123 0.019192958
-0.031076057 0.0073088417 -0.13337158 -0.07838931 -0.10880409 -0.14717232 -0.021125622 -0.10721483
0.06206556 -0.040539816 -0.017523136 0.10476096 0.14656283 0.103588305 0.14639518 0.15843493
0.028318955 0.013755831 -0.07185299 0.09298989 0.07413518 0.056655213 -0.07855315 0.08160594
0.05032091 0.060962904 0.116435096 0.11682757 -0.01795314 0.018500324 -0.057285264 0.012553253
0.06630149 -0.06644711 0.015377037 0.13581485 0.013473894 0.006136819 0.008819252 0.0854715
-0.09039689 0.040126543 -0.06849497 -0.12431399 0.005044374 -0.09802003 0.073752195 -0.034139726
-0.098472565 -0.067967705 -0.049086604 0.032111403 -0.002056655 0.0030838717 -0.0504591 -0.03038523
-0.130986 -0.13207462 0.03575042 0.01961411 -0.0867948 -0.033613544 0.054113477 -0.05229284

bias f4 [32]
00000000: cb31 d3bd 0c0f c0bc a1e7 cebd e1ea e53c
00000010: 1cd2 a4bd f39b 083e 7a85 0d3e f08d 42be
00000020: 16dd 8e3d 04fb 803c 0a87 dabc d283 603d
00000030: 8bc1 97be 2f00 3f3e a56f 9dbd 2e6c 8bbe
00000040: 88d0 b5ba 643a 29bd 11ce 583e 3c18 c63b
00000050: b37a d5bc be5d 14be 665a 49bc d42d ea3c
00000060: 07c4 12bc 4a20 383d 7a13 8cbd 1a57 6abc
00000070: f174 283e 1831 02bd 72f9 e1bd 3988 0cbc
-0.10312232 -0.023444675 -0.101027735 0.0280661 -0.08047888 0.1334074 0.13820449 -0.18999457
0.069757625 0.015744694 -0.02667572 0.054813214 -0.2963985 0.18652414 -0.0768731 -0.27230972
-0.0013871351 -0.04131545 0.21172358 0.0060453694 -0.026059484 -0.14488885 -0.012289619 0.028586306
-0.008957869 0.04495267 -0.06839652 -0.014302993 0.1645086 -0.0317851 -0.11033906 -0.0085774

weight f4 [32, 32, 5, 5]
00000000: f958 cd3c 0c2b 32bc 0440 92ba ca71 eabc
00000010: 6585 b03c 1180 0f3d c39e 0cbd 6127 07bd
00000020: eaa0 ecbc 7a98 b6bb 0f98 cabc cffe 253c
00000030: 4e86 e2bc 6694 8e3c 75d8 54bc 6fd0 a9bc
00000040: 990a c43a f321 053d 25c8 b3bc 08df debc
00000050: 854d e23c 1970 a2bc 4fa3 0f3d 48ef 23bc
00000060: d7b1 82bc 1baf 12bd dc10 08bd b1f0 603b
00000070: 90ba 3b3c 317f a63c bf97 c2bc 27c1 e63c
00000080: 78b3 273c c96a ce3c 1b6e 04bd 7c6a 3c3c
00000090: 6907 e9bc 7d47 25bb 88e6 ca3c 8ad2 01bd
000000a0: 31e8 6abc 00b8 5b3c d525 d43c 204b 8b3c
000000b0: f471 d73c d7d6 5e3c 68a6 27bc 16fe b0bb
000000c0: 23b8 4c3c 2f69 833a 6104 ebbc d603 b5bc
000000d0: a4f3 8bbc c87a 73b9 2c51 c33b e53a a4bc
000000e0: 1b2a afbc cccc 703c eeca c5bc f18c ea3b
000000f0: b07f 0cbc 1a58 23bc 411c fbbc 4516 16bd
00000100: 51b9 e4bc 600d 07bd 8f0c 03bd fc83 6f3b
00000110: e682 833b 1e35 ebbc 196a 2abc 6719 9c3b
00000120: 3bc2 033c 3d8b bc3c d76a 153d 90e8 873c
00000130: 949d 843b 0193 fbbc a575 c8bc a7b6 fdbc
00000140: c341 e1bc 8df4 d33c da89 373c d927 92bc
00000150: b159 e3bc c06b e4bb 1ca3 83bc b917 21bc
00000160: e0a4 0fbd e473 bcbc 4ccf c6bc 97cb 08bd
00000170: b844 3a3c ac3c 773c 14b1 a63b 1e99 2abc
00000180: 2d4f f43c d078 4fbc dc2f a4bc f4a8 113c
00000190: 70a0 c1bb b235 073d 05df adbc ea28 d1bc
000001a0: 30f8 f03c 2770 543c d30d 0f3c eefd ae3c
000001b0: 8cdd 12bc d923 573c 3a9f 293b 8d9a f6bb
000001c0: 562e 99bc 9bc1 ce3c 4c22 acb9 ea4e 7e3c
000001d0: a4b8 0c3d f542 d53b ba3d f0bc a7b3 bb3c
000001e0: 271c 203d aaa2 a8bc f74a f93c 633d 0b3d
000001f0: 462b d83c a447 113c 3a0a a1bc 6809 0bbd
00000200: 4173 80bc a060 103c 5fb1 b93c 25b9 e5bc
00000210: e2fd 8ebb cd01 53bc e740 98ba 987e 0fbd
00000220: e420 a73c 8df6 dcbb d71a f0bb 7f3a 1f3c
00000230: f7d5 edbc 0bbf ea3b 88d8 ad3c 43f9 173c
00000240: 058b a1bc 8793 f23c 1853 b33c 5209 3d3d
00000250: 5501 e93b a30a 4eb9 5565 2abc 5f37 a5bc
00000260: 96e7 e73c b96d 6b3b 801c e13c 1e05 ae3c
00000270: a06d 07bd 8c6b ab3c b62d f5bc 7f5f bbbc
00000280: b7a2 d23c 7c1c 25bd d7b4 cfbc 3c7a d03c
00000290: 5603 83ba dba2 11bc 78f7 89bc 949c 26bd
000002a0: f832 f2bb 0664 293c 28be 9cbc 9412 55bb
000002b0: 58b8 13bd ae9f 2d3c 7f62 d7bc 73d4 0e3b
000002c0: 90aa 41bc 3863 e9bc 05e4 ce3c 6948 d93c
000002d0: 2b0d 96bc e082 f2bb decc 063d 8253 8c3c
000002e0: 9b1a 60bb a2e4 b2bc 3dba 9fbc f8dc b5bc
000002f0: d717 e03b effa f33c 64d4 e0bc 6317 0dbd
00000300: e817 003d 9178 97bc 82d4 e43c 7aa2 02bd
00000310: c353 14bd 04cf 753c c0fb 18bc 4d0c c33c
00000320: 7a7b 5c3c 2a0e c5ba ae95 e63b bd64 efbc
00000330: 2178 e5bc a86b afbc 51c0 b4bb 6431 bb3c
00000340: 7c10 923c e947 c5bc a695 a7bc a9c8 183b
00000350: 3dc4 853b 338b b0bc 6e4a b6bc 5378 863c
00000360: 3465 593c 0519 86bb 4862 f9bc e81d ad3b
00000370: 40f3 9f3c c652 ce3c f526 cabc 3268 34bc
00000380: d9f0 ea3c a5a3 3ebc 31fe fa3c 9c6d 573c
00000390: 9829 81bc 0c16 8cbc 558e babb cf2d 863b
000003a0: 429d 7cbc e020 2bbc 1166 aebb 179e a5bc
000003b0: 335f c5bb 5667 063c d70f 19bd 6b32 14bc
000003c0: 72d0 82bc f5c0 adbb 72bf 433c 7384 a13c
000003d0: c7eb 8ebc 6ec7 ce3b ea4c fc3b 12cd cf3c
000003e0: b83b c23c 77bf 013c a81d 5dbc 46ea d0bc
000003f0: 68bc c33c 84d1 12bd f655 42bc cf40 d3bc
0.02506684 -0.010874521 -0.0011157994 -0.028618712 0.021547982 0.035034243 -0.034331094 -0.03299654
-0.028885324 -0.005572376 -0.02473071 0.010131552 -0.027651932 0.017404746 -0.0129910605 -0.020729272
0.0014956772 0.03250308 -0.021946022 -0.027205959 0.027624855 -0.019828843 0.035067853 -0.01000578
-0.015953941 -0.035811525 -0.033219203 0.003432315 0.011458054 0.020324321 -0.023753999 0.028168274
0.01023566 0.025197404 -0.032331567 0.011499997 -0.028445916 -0.0025219612 0.024768129 -0.031694926
-0.014337585 0.013410568 0.025896946 0.017003596 0.026299454 0.0136010265 -0.010232545 -0.005401383
0.0124950735 0.0010025854 -0.028688611 -0.022096556 -0.01708395 -0.00023220025 0.005960604 -0.020047614
-0.021382382 0.014697265 -0.024144616 0.007157915 -0.008575365 -0.0099697355 -0.030653121 -0.03664233
-0.027920397 -0.03297174 -0.0319944 0.0036547175 0.004013407 -0.028711852 -0.010401272 0.0047637704
0.008041914 0.023015613 0.036478844 0.016590387 0.004047105 -0.030709745 -0.02447016 -0.030970884
-0.027497178 0.025873447 0.0112023 -0.017841266 -0.02775273 -0.0069708526 -0.016068988 -0.009832316
-0.035069346 -0.02300448 -0.024268769 -0.033397283 0.011368923 0.015090149 0.0050870273 -0.010412483
0.02982291 -0.012663081 -0.020042352 0.008890379 -0.005909018 0.033010192 -0.021224508 -0.025532205
0.02941522 0.012966192 0.008731323 0.021361317 -0.008963954 0.013131105 0.002588226 -0.007525748
-0.018698853 0.025238803 -0.0003283195 0.015521744 0.034355775 0.006508226 -0.029326309 0.022912813
0.03908935 -0.020585377 0.030431254 0.03399409 0.026387822 0.008867178 -0.019658197 -0.033944517
-0.015679957 0.0088121 0.022667585 -0.028042385 -0.0043637613 -0.012878847 -0.0011616022 -0.03503284
0.020401426 -0.0067432583 -0.0073274183 0.009718536 -0.02903269 0.0071638874 0.021221414 0.009275737
-0.01971961 0.029611362 0.021890208 0.046151467 0.0071107545 -0.00019649653 -0.010400136 -0.020168005
0.028308671 0.0035923554 0.02747941 0.021242674 -0.03306353 0.020925306 -0.029929023 -0.022872685
0.025712354 -0.040310368 -0.025354786 0.02544891 -0.0009995501 -0.008888925 -0.016841635 -0.04067667
-0.00739133 0.010338789 -0.019133642 -0.0032512294 -0.036064476 0.010597153 -0.026292084 0.002179411
-0.01182045 -0.028489694 0.025255213 0.026523786 -0.018316826 -0.0074008554 0.03291022 0.017129663
-0.0034195546 -0.021837536 -0.019497985 -0.022200093 0.0068387794 0.02978274 -0.027445026 -0.03444613
0.0312728 -0.018490108 0.027933363 -0.03189323 -0.036212694 0.01500297 -0.009337366 0.023809576
0.0134571735 -0.0015034128 0.007036886 -0.02922284 -0.028011383 -0.02141364 -0.00551609 0.0228507
0.017830126 -0.024082141 -0.0204571 0.0023312962 0.0040822313 -0.02155075 -0.022252288 0.016414797
0.013268758 -0.004092338 -0.030442372 0.005283106 0.01952517 0.025185954 -0.02467678 -0.01101117
0.028679298 -0.011635696 0.030638786 0.0131486915 -0.015766904 -0.017100357 -0.005693237 0.0040948163
-0.015418353 -0.01044485 -0.005322226 -0.020216985 -0.0060233115 0.008203348 -0.03736862 -0.009045224
-0.015968535 -0.0053025433 0.0119475 0.019716477 -0.017446412 0.006310395 0.0076995986 0.02536634
0.023710117 0.007919184 -0.01349584 -0.025502335 0.02389355 -0.03584434 -0.011861315 -0.02578774

bias f4 [32]
00000000: c9d1 41bd 5979 64bc 0907 4c3d da67 43bd
00000010: 4e63 6c3d f0c2 2f3d 9cb8 dcbb 53e0 853c
00000020: 1dca bc3c 27c5 88bd 6888 85bd f1e4 8ebd
00000030: 7f10 03bd ae85 2fbd 681f e43c 0c02 93bd
00000040: bfef 91bb ec59 4dbd 6730 8f3d 324a 27bd
00000050: 48bd 33bc 04d4 50bd ba38 a3bd a524 8b3d
00000060: afc5 e43c ce27 6bbc 13da 05bd 2f3f 2bbd
00000070: 1c0c dcbc 5056 333d b974 1dba 92d4 aabb
-0.047319207 -0.013944947 0.049811397 -0.047706462 0.05771189 0.042910516 -0.0067358743 0.016342318
0.023045594 -0.06678229 -0.06520158 -0.06977261 -0.031998154 -0.042852096 0.027847007 -0.07178125
-0.004453629 -0.050134584 0.06991654 -0.040842243 -0.010970421 -0.050983444 -0.07969804 0.06794099
0.027926294 -0.014352752 -0.032678675 -0.041808303 -0.026861243 0.043783486 -0.0006006468 -0.0052133286

weight f4 [64, 32, 5, 5]
00000000: c663 b3bc 8735 c83c efaf ffbb d424 0bbc
00000010: 57d1 173c 14fa c4bc 7101 2dbb 8dc9 05bd
00000020: e30f f5bb e270 bc3c f13e e63c 1d1b 4b3c
00000030: 0564 90bc 0743 dc3c 58b0 f83c dfd0 f2bc
00000040: a2c9 103d 65b1 daba c5c0 e2bc 4066 eabc
00000050: e4d8 3ebc 5c85 00bd 4317 30bc 15aa 9fbc
00000060: cfd5 173c 03d0 b23c f42a edba 2347 fc3a
00000070: 73e2 42bb b9bd e03c c34a 0cbd 4326 bdbc
00000080: dd51 423c 0794 71bc 977d 243d 701c c4bc
00000090: 3d49 233c 03b0 cc3c e1da 333d 6d96 66bb
000000a0: 411c 81bc fe94 3c3d c689 a3bc f363 723c
000000b0: f62e ff3b 5abc c13b 191b 77bc fd35 8dbc
000000c0: 1df5 cebc 1456 a83c b7b2 803c 7d2e 0abd
000000d0: 9a5e 77bc a159 093c 5fd0 e33c 1e30 253d
000000e0: 84bf 8fb9 ca13 7e3c bfc8 2a3d f6a0 113d
000000f0: 66ab cb3c 3ed7 f03c 2be7 483d 3618 453d
00000100: 8761 13bd b0c5 763c 25a7 8bbc 05e8 febc
00000110: 96ff 2038 a61d 8ebc b49a 9b3c f11b 65bc
00000120: 2953 9bbc 2a50 143d d75d 513b f636 dfbc
00000130: 753d 963c e126 103c 543f bebc ffd1 84bc
00000140: d2f5 9c3c 461c 21bd 3b02 013c 2977 013c
00000150: 8ff7 0cbc 544b dbbc 3124 5d3b cdb2 643c
00000160: 20db 883c 7393 5bbc ee13 993c d2d3 efbc
00000170: 51b1 acbc b979 85bb 2784 e03c 4e28 87bc
00000180: 7a00 7cba ea58 d83c f61e cf3c 7c4b fcbc
00000190: ba4f ffbb 6c5c 98bb f646 2f3c 207d a03c
000001a0: 7a64 763c b4cf d2bc c5d5 b0bc 9c2c e0bc
000001b0: 6f94 7a3c 2d38 453d 13cc 35bc 5bb5 69ba
000001c0: 45e8 263d 359a 9a3c 00a8 703c b9b0 3739
000001d0: 3825 973c ea2a 4a3c fbf4 e2bc 7269 75bc
000001e0: 8f5d 21bc e43e 7cbc df87 dbbc d075 f93a
000001f0: f4b9 113d 1585 213b 7924 bd3c fb46 3f3c
00000200: dd72 983b 0e6b 8bbc 7d2c 743c dd82 003d
00000210: 9fad c63c d496 3738 bc5e fabc edbe ff3c
00000220: 5913 fa3c 64b9 13bc 07e9 a6bc 5a2d e7bc
00000230: 80db 03bc ae7d c3bc 85d2 49bc 657a 8abc
00000240: 5453 b93a 0e6a 063d 6041 81bc 99f8 193d
00000250: be2e 9b3c a698 c33c 1458 85bc 927f a33c
00000260: 9c7c 053d 487e d3bc 5265 2ebc cafd fb3c
00000270: 42d2 dbbb 83a5 b63c aefd 17bc f162 70bc
00000280: 19fa 233c e452 123c 0e0d 76ba 54b8 d1bc
00000290: 0b10 fbbb 11a1 893b 772d 14bd a2e5 a1bc
000002a0: d96a 083c 79dd c9bc 4ca5 883c 4206 9bbc
000002b0: a24d 3c3c 5903 bebc 8097 83ba ea49 3f3a
000002c0: db67 223d 29ea b83a 42a9 72bc a772 343d
000002d0: f64a 893c 770a 5f3d 304c 103d 9255 4a3c
000002e0: 9f02 0d3d ca0c 003d 8217 263d d8d5 253d
000002f0: f925 173d 18f3 993c 00fc afbc ca8a 30bd
00000300: 06cd 313c 4711 fbbc 159c 1dbd 74d0 34bd
00000310: c9a5 24bd b50e d9bc cf7e 003d dcee 8c3c
00000320: 3f49 8e3c f4a1 89b9 6bb5 91bc 094d 083c
00000330: 2e87 2bbc 6cc8 833c eee0 a1bc 9da1 253d
00000340: 54ac d23c baab 6bbc 3d1f cdbc 24a9 23bc
00000350: 1696 83bc 0df9 4b3c 8a48 c7bc 5088 14bd
00000360: b7a7 b83c 5ba7 ee3c 38f7 013b d493 febc
00000370: 4be7 f4bc f56c 07bd d01e 0b3d 6f9a 883c
00000380: e4ff 103d 91e1 f8bc b74a 6f3c b01e b1bb
00000390: 1961 8e3c bdf3 bebc cc01 0939 c5f4 753b
000003a0: ab63 373d 8b1c c5bc 0de5 c9bc ee9c 9f3c
000003b0: 5b81 853c 69cf 8a3b b5c8 dfbc 760f eeb9
000003c0: 93cf f6bc 2afa a23c ce72 833c ab3a b23b
000003d0: 6520 bd3c 204c 1dbd 91cd bcbb 0d59 d9bc
000003e0: 63fe f5bc 32d4 11bd 6d31 063c 64bd 913c
000003f0: db19 343c 3a53 063c b437 563c 79ce 82bc
-0.021898162 0.024439586 -0.0078029553 -0.008492667 0.009266219 -0.024045028 -0.0026398564 -0.032662917
-0.0074787005 0.023003045 0.028106185 0.012396601 -0.017625818 0.02688743 0.030357525 -0.029640613
0.035348542 -0.0016684948 -0.02767981 -0.02861321 -0.01164839 -0.03137718 -0.0107477335 -0.019490281
0.009267285 0.021827703 -0.0018094466 0.0019247275 -0.0029737025 0.027434217 -0.034250986 -0.023089534
0.011860338 -0.014744765 0.040158834 -0.023939341 0.009966192 0.024986273 0.04390991 -0.0035184876
-0.015760543 0.046040528 -0.019963156 0.014794338 0.0077875806 0.005912346 -0.015082144 -0.017237658
-0.025263363 0.020548858 0.015710218 -0.03373574 -0.015098238 0.008383186 0.02780932 0.04032909
-0.00027417776 0.015507648 0.041695353 0.035553895 0.024862003 0.02939951 0.049048584 0.048118792
-0.03598168 0.015061781 -0.017047474 -0.031116495 3.8385006e-05 -0.017348122 0.018994667 -0.0139837125
-0.018960552 0.036209263 0.0031946802 -0.027247887 0.018339852 0.008798332 -0.023223557 -0.016213415
0.019160185 -0.039333604 0.007874067 0.007901945 -0.008603944 -0.026769318 0.0033743496 0.013958645
0.01670605 -0.013401854 0.018686261 -0.029275808 -0.021080645 -0.0040733484 0.027406765 -0.016498711
-0.0009613108 0.026409585 0.025283318 -0.030797713 -0.0077914866 -0.0046496894 0.010698071 0.019590914
0.015038604 -0.025733806 -0.021586308 -0.027365021 0.015294178 0.048149277 -0.011096018 -0.00089152687
0.040748853 0.01887236 0.014688492 0.00017518074 0.018450364 0.012339333 -0.027704706 -0.014978753
-0.009848966 -0.015395854 -0.026798187 0.0019032303 0.03557773 0.0024645973 0.02308868 0.011674638
0.0046523646 -0.017018821 0.014903185 0.0313748 0.02425271 4.377107e-05 -0.030562751 0.03121897
0.030526804 -0.009016369 -0.020374788 -0.028219867 -0.008047938 -0.02386364 -0.012318258 -0.016904065
0.0014139214 0.032815985 -0.015778244 0.037590597 0.018943187 0.0238765 -0.01627735 0.019958291
0.03258954 -0.025817052 -0.010644274 0.030760664 -0.0067084143 0.022295719 -0.009276791 -0.014672027
0.010008358 0.0089308955 -0.00093861006 -0.02560059 -0.0076618246 0.004200109 -0.03617617 -0.019762818
0.008326256 -0.02464174 0.016680382 -0.018923882 0.0114931185 -0.023194956 -0.0010039657 0.0007297086
0.039649826 0.0014107871 -0.014810862 0.044054653 0.016759377 0.05445334 0.035228908 0.012349503
0.034426328 0.031262197 0.040549763 0.04048714 0.036901448 0.018792674 -0.021482468 -0.04310111
0.010852104 -0.030647887 -0.03847893 -0.04414411 -0.040197168 -0.02649627 0.031370934 0.01720374
0.01736891 -0.0002625134 -0.017786702 0.008319148 -0.010469241 0.01608678 -0.019760575 0.04043733
0.025716938 -0.0143842045 -0.02503931 -0.009989057 -0.016062777 0.012449515 -0.024326582 -0.03626281
0.02254091 0.029132536 0.0019831192 -0.03107635 -0.029895445 -0.033062894 0.033964932 0.016675202
0.035400286 -0.030380996 0.014605216 -0.0054052696 0.017380284 -0.023309583 0.00013066008 0.0037529927
0.044772785 -0.024061462 -0.024645353 0.01948401 0.016297033 0.004236151 -0.027317384 -0.00045406417
-0.030128276 0.019894678 0.016045954 0.0054391227 0.023086736 -0.038402677 -0.00576181 -0.02653172
-0.030028528 -0.035602756 0.008190495 0.017790504 0.010992493 0.008198554 0.013074804 -0.015967594

bias f4 [64]
00000000: f629 f93b 5770 5fba 9124 adbb 9d23 5fbc
00000010: 8e79 693c a233 c2bc 73bb 6ebd 0ca0 073b
00000020: f3a6 8d3c 7f39 febb a547 84bb 1249 f2bb
00000030: d66c a9bb 4bfe 05bd 49c3 2fbc fb46 01bd
00000040: 0638 6bbd c539 c23c 3233 ad3b 374a 3e3c
00000050: 2214 17bd a40a 6ebd 62c9 e3bb ce86 75bc
00000060: 4f18 e2bc b5db 21bd cbde 11bd bed9 43bd
00000070: 2282 70bc 549c eebb cee4 1d3d fad2 c03c
00000080: 1569 3bbc 2750 f93c 5059 da3c 3791 f43b
00000090: 6ebd 80bd 482f a63c 4049 9c3c a716 ac3c
000000a0: 7c5d 86bb 6b69 e3bc 82d4 10bd 20cc aa3c
000000b0: 9c6e 87bc 4d95 fbbc f34b 89bd 44df 9d3a
000000c0: 4d92 64bd 4a25 49bd b0f8 493c c7ae 353c
000000d0: 920e dcbc 49d2 18bc f468 ba3c 1a28 b63c
000000e0: c57b 30bd 7dd6 613c 3157 c8bc b1d2 09bc
000000f0: 69ac 1bbd 5f01 04bd 67e0 06bc 5661 26bd
0.007603879 -0.0008523515 -0.0052839 -0.013619331 0.014250172 -0.023706261 -0.058284234 0.002069476
0.017291522 -0.007758319 -0.004036861 -0.0073939646 -0.005170445 -0.032713216 -0.010727712 -0.031561833
-0.057426475 0.023709187 0.005285644 0.011614374 -0.036884435 -0.058115616 -0.006951497 -0.014985753
-0.027599482 -0.03951617 -0.035612863 -0.047815077 -0.014679464 -0.0072818194 0.038548283 0.023538101
-0.011438628 0.030433727 0.026653916 0.0074636 -0.06286131 0.020286217 0.019077897 0.021006895
-0.0041004997 -0.027760228 -0.035358913 0.020849288 -0.016532235 -0.03071084 -0.06703939 0.0012044688
-0.055803586 -0.049107827 0.012327358 0.011089033 -0.026862416 -0.00932748 0.022755124 0.022235919
-0.043086786 0.013784048 -0.024455639 -0.008412049 -0.03800622 -0.03222787 -0.008232213 -0.04062017

weight f4 [64, 1024]
00000000: 0d57 c23c 46e7 5dba fc28 9dbc 4386 aebc
00000010: 3cdc 123c f0d3 26bc 5d44 1e3d c861 583c
00000020: e835 853c d1e1 a7bc 909b 3fbc e414 193c
00000030: 349d 02bd 11f5 f8bb abd0 94bc 15d3 92bc
00000040: d994 a33c 195f adbc ac1f 16bc 184c e2bc
00000050: 300c 43bc fb1c 26bc 6f51 8a3b 926c cbbc
00000060: f88a 0fbd 25c9 ed3b 3e03 8d3c d54c 09bd
00000070: 550f c7bb 831c f5bb ae52 ba3b d1df 633c
00000080: 4ebe 60bc bd16 14bc 8012 7bb9 b1db 7cbc
00000090: 413b abba f46a e53b 43e5 c93b 4bdd 23bd
000000a0: 69b9 c03c 353e 8bbb b927 bd3c 8331 b8bc
000000b0: 081c b03b a758 0dbc 9a7e 1d3c 2a67 e8bc
000000c0: 0a89 623b 0a9e a6bc 389a 923b a7d6 093c
000000d0: 0afe cf3b 312a db3c bc6e 86bc a68f 283c
000000e0: be77 343d a4db 4a3c 3ac6 fcbb 7d7c d23c
000000f0: 15eb 36bc 08e0 83bc 0137 6bbc c90e d33c
00000100: 2cca 72bb cc54 0e3d ae63 9c3c 4a54 c3bc
00000110: 746f e23c 2b9a 94bc 2c35 86bb bc01 083c
00000120: 4c10 0b3c fbd4 333b 13eb 413c 931c b73b
00000130: 2afc 963c b09e e0bc d3b5 d3bc 86ac 3cbb
00000140: 44d6 3e3c 5d28 b1ba d3ce 913c 8d5a a23c
00000150: a82e f5bc 2281 82bc f455 213c 0156 673c
00000160: d772 9abc 1fe1 cb3a 5d92 943c ea44 83ba
00000170: f5f1 aa3c 1404 073d f67a ac3c a1d9 1bbc
00000180: bd7d 05bd 2014 8dbc b07b d23b 6b8a 0dbd
00000190: 9745 0c3c 9603 ffbb 968e e9bb 1e2d 1ebd
000001a0: 6ee6 dd3a 1b82 6d3b b0a4 89ba 81d6 173a
000001b0: 10d3 403c 236a 1d3c bcc2 7dbc 57f7 803c
000001c0: 0fc4 03bd bca5 023d 1c74 c93c afa4 5b3c
000001d0: afa4 28bd 15ad cfbc ebfb 433c 1453 12bd
000001e0: 542d 33bd fe76 1b3c 667d 4abd 18d2 40bd
000001f0: b10f 38bc 5530 873c 4574 cb3b 80e5 433c
00000200: ab19 583c 9e8d 4a3c b6ce 283c bcbb a13c
00000210: f428 aa3c 4b71 9dbc 1d77 63bc 1943 a53c
00000220: 640a 93bc 2fd5 d23c 41fc 0bbd defc dabb
00000230: 09ea b9bc 297c 07bd fd4a 04bd 6e58 88bc
00000240: 016b af3c 7f1a a8bc 9a32 1abb 8160 76bc
00000250: 8f0e 6ebc b5ea 4d3c adfc f939 7bba fbbc
00000260: 4cf1 14bd bd70 d1bc f7a3 dfbc 2d6d a43c
00000270: c59a d73c 3be0 efbb 008f 39bc 7dfe a73c
00000280: 909a ad3c c0b4 833c 87ed 97bc 7dc6 e93c
00000290: 5ae3 dc3c 0ca3 de3c 7805 193d ea4e 15bc
000002a0: 43fe 23ba 7879 c1bc 0f8e 94bc 2491 873c
000002b0: 1159 403c 80ef abb8 7b1f 8c3b e1ea 1f3c
000002c0: 4158 03bd b451 bf3a 01d1 bbbc df04 033b
000002d0: e351 513c 0784 cc3c 799a edbb 92d0 a0bc
000002e0: bae7 31bc fe01 54bb 7c09 f83b eff1 c23c
000002f0: 3056 6e3c edee 843c c8d9 543b 536f df3c
00000300: 90fe e33c df7b c7bb d2c7 413c 801b a53c
00000310: afd7 ef3c 3b1b 143d 4997 803c 9d17 d2bc
00000320: 96b9 70bc 433d bc3c ca89 5ebc 6d99 e9bc
00000330: 2dca d1bb 5845 8c3c b8da a03b 1af5 c5bc
00000340: 04ec ae3b 1fd5 47bc 20fb c43c 05ab 96bc
00000350: 9ce1 71bc acd0 ef3c 1bca 183c 6b4d 843c
00000360: 7b8d 773c 892b ffbb 4752 c33b 0764 90bc
00000370: 8578 8bbb 0c61 f5bc ed4e 0ebc dbb8 383b
00000380: d976 8c3c d117 963c 5185 eb3c 55dd 853c
00000390: fdbf 31bc d505 b43c bc0e 6f3b 380a 80bb
000003a0: 57ca afbc 2143 e3ba c2db feb9 6198 dd3c
000003b0: 136a 663c 5210 e1bc e354 e8bc 5f93 afbc
000003c0: 8c10 a43c 2c0e 3f3c 8944 e0bc 6577 8cbc
000003d0: 9bd8 cebc ae2b 9a3c c1ea 143c d377 743c
000003e0: 8e65 8d3a 5a6c 00bb f253 b1bc 7406 cbbc
000003f0: 34fc d13c 0524 a2bc 3457 0d3d 6292 c53b
0.02372315 -0.00084649434 -0.019184582 -0.021304255 0.008963641 -0.010182366 0.038639415 0.013206907
0.016261056 -0.02049342 -0.011694804 0.00934336 -0.0318882 -0.0075975736 -0.018165907 -0.017922917
0.019968437 -0.02116351 -0.009162825 -0.027624175 -0.011904761 -0.010138745 0.0042211334 -0.024832044
-0.03504464 0.0072566443 0.01721346 -0.03352054 -0.006074826 -0.0074802055 0.0056861257 0.013908342
-0.013717247 -0.009038624 -0.00023944117 -0.015433238 -0.0013063924 0.007001275 0.0061613633 -0.040005963
0.02352591 -0.004249359 0.02309023 -0.022484547 0.0053744353 -0.008627093 0.009612704 -0.028369505
0.0034566545 -0.02033903 0.0044739507 0.0084129935 0.0063474225 0.026753517 -0.016410224 0.010288155
0.044059508 0.012381468 -0.00771406 0.025694126 -0.011164446 -0.016098037 -0.014356376 0.025763886
-0.0037046773 0.034748837 0.0190905 -0.023843903 0.027641036 -0.01813992 -0.004095694 0.008301195
0.008487772 0.0027440179 0.011835831 0.005588123 0.018430788 -0.027419418 -0.025843536 -0.0028789355
0.011647765 -0.0013516058 0.017798817 0.019818569 -0.029929474 -0.015930716 0.009847153 0.014119626
-0.018853588 0.0015554762 0.018136198 -0.0010015045 0.020867327 0.032962874 0.021054726 -0.009512336
-0.032590616 -0.01722151 0.006423436 -0.034555834 0.008561513 -0.00778241 -0.0071275933 -0.038617246
0.0016929635 0.003624088 -0.0010501351 0.00057921564 0.011769071 0.0096078245 -0.015488323 0.01574294
-0.032169398 0.031896338 0.024591498 0.013405963 -0.04117268 -0.025351087 0.011961917 -0.03572376
-0.0437444 0.009488819 -0.049435996 -0.04707536 -0.01123421 0.016502539 0.006208929 0.0119565725
0.0131897135 0.012362866 0.01030319 0.019742839 0.020771481 -0.019219061 -0.013883379 0.020173596
-0.01794929 0.02573642 -0.034176115 -0.006682976 -0.022694604 -0.033077393 -0.032298077 -0.016643729
0.021413328 -0.020520447 -0.0023528696 -0.015037657 -0.014529838 0.012568166 0.0004768124 -0.03072857
-0.03636293 -0.025566453 -0.027299864 0.02007159 0.026318917 -0.0073204315 -0.011325598 0.020507092
0.021191865 0.0160774 -0.018545879 0.02853703 0.026963878 0.027177356 0.03735873 -0.009113053
-0.00062558445 -0.023617491 -0.018134145 0.0165487 0.011739985 -8.198526e-05 0.0042762137 0.009760589
-0.032066587 0.0014596493 -0.02292681 0.0019991917 0.012775871 0.0249653 -0.0072510806 -0.019630704
-0.010858471 -0.003234982 0.00756949 0.023797004 0.014546916 0.01622721 0.003247844 0.027274763
0.027831346 -0.0060877646 0.011827426 0.020154715 0.02927765 0.03615878 0.015697138 -0.025646025
-0.014692685 0.02297843 -0.013582656 -0.028515542 -0.006402275 0.01712291 0.004908886 -0.024164725
0.005338194 -0.012196808 0.024045527 -0.018392095 -0.014763262 0.029274307 0.009325529 0.016150197
0.015109415 -0.007787172 0.005960736 -0.017625822 -0.0042563104 -0.029953502 -0.00868581 0.0028186354
0.017146515 0.018321903 0.028750094 0.01634089 -0.010848996 0.021975437 0.0036477288 -0.003907468
-0.021458788 -0.0017338732 -0.00048610388 0.027050199 0.014063376 -0.027473602 -0.02836079 -0.021432577
0.020027421 0.011661094 -0.02737643 -0.017146775 -0.02524977 0.018819656 0.009089173 0.014921146
0.0010787712 -0.0019595833 -0.021646474 -0.02478335 0.025632955 -0.019792566 0.03450699 0.006029413

bias f4 [64]
00000000: 1b83 f83c 77c6 96bb 2b89 403c bb39 623c
00000010: 9f3e 1a3d ab3f 62bc 4a7c 263a ccf3 86bb
00000020: cdd6 bbbc baa7 a5bb bab8 ae3c cdf4 883c
00000030: a9dd e43c fae8 8c3b b422 73bc 6ba9 5ebd
00000040: 8601 dabc f38b 3a3d 8c28 4b3c 474b 35bc
00000050: 24d3 31bb d3b7 81bc 6c6d b03c 41cb 44bb
00000060: f7e2 0abc 14d5 3f3d 2190 41bd 2ec6 d7bc
00000070: 345b 94bc e5b7 073d 7231 a3bb 38d5 81bd
00000080: 2572 26bc 126b 32bd 071c ab3b 0357 41bc
00000090: 3301 4cbd 6654 5ebc e0b1 023d fdda 6b3b
000000a0: cdf3 783b f763 06bd a967 07bd 9998 f73c
000000b0: 2e1b 2dbc 956d b6bc c1ec bcbc fe53 62bc
000000c0: 70b9 203d 404d 6437 98e9 743b bd5d 043a
000000d0: cad2 ba3c cc2a 5cbc eef5 fa3c 092a 3d3c
000000e0: 5151 713d f4c0 65bb a934 783b 548b 3d3a
000000f0: a332 35bc 5cdc f8bc 8e5f 4ebc 3ba4 153d
0.030335953 -0.0046012956 0.011751453 0.013807709 0.037657376 -0.013809125 0.0006350918 -0.0041184183
-0.022929573 -0.005055395 0.021328319 0.016718293 0.027937727 0.004300234 -0.014839817 -0.05436079
-0.026612055 0.045543622 0.012399804 -0.011065311 -0.0027133906 -0.015834725 0.021536551 -0.0030028375
-0.008476964 0.046834067 -0.047256593 -0.026339617 -0.018109895 0.03313436 -0.0049802596 -0.063394964
-0.01015905 -0.04355914 0.005221847 -0.01180053 -0.04980583 -0.013569927 0.031907916 0.0035988681
0.0037987113 -0.032810178 -0.033057842 0.030224131 -0.010565562 -0.02226905 -0.023062112 -0.013813971
0.039239347 1.3607845e-05 0.0037370678 0.00050493685 0.02280559 -0.013437938 0.030634847 0.0115456665
0.05891544 -0.0035057636 0.0037873185 0.00072305393 -0.011059436 -0.030378513 -0.012596024 0.036533576

weight f4 [10, 64]
00000000: b47e 68bd c0db d03d 71af 63bd ce21 3c3d
00000010: 7c68 273d 87aa e2bc 3777 d23d c0ae c33d
00000020: 2ba7 003d 3d19 463d 0687 31be e3b4 d63d
00000030: 9b83 08bd a4f5 f23d bbd1 613c 7962 37bd
00000040: 357f d6bd 87d4 9cbd 72c6 9abd 910c ea3d
00000050: b056 dc3d 5366 053e 3a17 39bb 9f29 ad3d
00000060: d960 0fbd 3ea3 69bd 8304 d03d 42b1 2e3d
00000070: 294b 203e 93ad efba 7bbc 893d 7daa 013e
00000080: ed03 4c3d 2dbe 2a3e 6ec4 7b3d 2cc9 693d
00000090: f73f bb3d d3ca cbbd 46f9 31be f192 34be
000000a0: 3458 613d e424 193c c79e 50bd 213e b9bd
000000b0: 4c9f 06bd b938 e03d 7256 cb3d 2eec f03d
000000c0: cddb c3bd 0365 fcbd 509f dcbd bc2b 5b3d
000000d0: e4c9 dabd 5489 bbbd 912c 51bc 44c0 dbbd
000000e0: 5fe9 a1bd 8faa 1d3e 5f35 243c d3dd a4bd
000000f0: 2b8f 09be dcfe cd3d 5de0 103d 733f ebbd
00000100: b36f 1abd 7338 50bc e712 f7ba 5534 3dbe
00000110: 0da8 853d f24c 5c3d 4f49 26bd eae8 8e3d
00000120: 9424 28be 35b0 f7bd d0de a5bd 3979 0ebe
00000130: b3d0 6dbd 316f 703d 81e6 1fbd 23bc afbc
00000140: d19a 28be 6f2d 3abd ebf9 e8bd a9a1 963d
00000150: a4b5 613e 995d c9bb 8877 82bd 3850 493e
00000160: db08 0cbd f62a f53d cc2a 1cbe 77f8 14be
00000170: ea65 613e 6e23 3abd ccb4 6ebd 084d 0abe
00000180: 0962 d7bd 4236 a0bd 94be b4bd ca50 f8bd
00000190: a04f 25bd e361 d9bd 20bf febd 18b9 1abe
000001a0: 150a d2bd 012b 05bd 7598 3fbe f3be 3fbd
000001b0: fa1a 12be 3a0b 723e 19d8 89bd 28f6 64bd
000001c0: 0797 e83c d88a 1c3e 1875 febd 8d4e 6cbd
000001d0: 442a 49be a5c5 333e 41b0 22be ff99 82bd
000001e0: dd13 f33d 2774 6d3d 9a82 d83c ab98 163e
000001f0: a776 0c3e 5f4e f4bd f794 01be 4d23 c3bc
00000200: afd5 c33d ccf2 0fbe db60 9a3d 5bc2 18bc
00000210: 865e ba3d 1d6e 9b3d 9804 3fbe 35f3 24bd
00000220: 14fc 0b3e 0fb3 a93d caee 253d 3667 953b
00000230: 57c9 4abd 9366 1b3e bc35 12be 8e38 f0bd
00000240: c387 a2bd 74b0 893d 4203 b63d 8258 cabd
00000250: e743 483d 0ad8 3abd 55fb e43d efea e33d
00000260: 55e4 833d aecf 9abd a411 1cbe ece7 1b3d
00000270: a167 3c3d bace 133c a167 253e 67ee d73c
00000280: 027a f23d 57c2 2dbd adf7 98bd 5686 5a3b
00000290: d9ca a93d 9e48 d8bd 46a1 a73d 4223 d93d
000002a0: 6f73 98bd 42b8 ebbd 497a 903d b3a4 a3bd
000002b0: 4055 25be b711 1d3d 03e3 f8bc cab1 8a3d
000002c0: 8b2b fa3d 9a0b 08be d2e9 243c 5dd4 953a
000002d0: 0440 253c 1141 6cbe 28f6 e43d 0c7c b2bd
000002e0: 3d85 4d3d 95b6 883d 71a7 dcbc 7273 debd
000002f0: b5ba 93bd 69f7 01bc b108 c33d 1ba6 af3d
00000300: dfb9 2c3d 1d31 03be 03c0 0fbe b935 e63d
00000310: 9b08 de3d 53a0 ea3d 967c 26be 790a dabd
00000320: 57c5 473e 2915 213e 560d 1abd 0b43 ecbc
00000330: 33f3 d93c a0af 4c3d 94ed ccbd c567 36bd
00000340: 8b56 0d3d 0f5d 00bb 8a6c 393d 1085 18be
00000350: 67ef 363c e61b 9abc fc7c d6bd e346 f3bd
00000360: ab4c 93bd bd95 05be c65b 68bd b083 30bd
00000370: 76b2 1dbe a7b0 2c3d cbd8 43bd 553b dfbd
00000380: 997f 15be 8494 e4bd f0e4 c93d e48b b7bd
00000390: b1e8 c1bd 89f4 c33d 587f ac3c f7db 66bd
000003a0: 91ba a73d 629f 483c 0b1b b3bd 0623 da3d
000003b0: 7036 9fbd 54cd 8bbc 344d 0abe 6dc5 c3bb
000003c0: a076 253e 2079 433d a942 e53d 1c59 343d
000003d0: ce75 4f3d ab66 bebd 5b7e 84bd 6501 863d
000003e0: cc5a 2b3d 941d c63b 95ae 813d 2d88 0d3e
000003f0: 71fa c93c 9831 b93c 1a00 db3d 4af7 853d
-0.05676146 0.10198164 -0.055587236 0.045930676 0.04087113 -0.027669204 0.10276645 0.09554815
0.031409424 0.048363913 -0.17336664 0.1048372 -0.033328634 0.118632585 0.013782914 -0.044771645
-0.104734816 -0.07657724 -0.07557382 0.11428178 0.10758722 0.13027315 -0.0028242604 0.08455204
-0.03500447 -0.057040446 0.101571105 0.042649515 0.15653671 -0.0018285982 0.06725403 0.12662692
0.04980843 0.16674109 0.061466627 0.057076618 0.0914306 -0.09950795 -0.17380247 -0.17634179
0.055015758 0.009347174 -0.050932672 -0.09045053 -0.03286676 0.10948319 0.099285975 0.11763798
-0.09563408 -0.12323954 -0.10772574 0.053508505 -0.10683039 -0.09157053 -0.012766973 -0.10730031
-0.0790584 0.15397094 0.01002249 -0.08050122 -0.1343352 0.10058376 0.03537022 -0.11486711
-0.03770418 -0.012708771 -0.0018850238 -0.18476994 0.06526194 0.05378432 -0.040597256 0.069780186
-0.16420203 -0.12094156 -0.08099139 -0.1391343 -0.05806036 0.05869979 -0.039038185 -0.021452015
-0.16465308 -0.045453485 -0.11375793 0.07355053 0.22041947 -0.006145191 -0.06370455 0.19659507
-0.034188133 0.11971085 -0.152507 -0.14547907 0.22011533 -0.045443945 -0.05827789 -0.13505948
-0.105167456 -0.07822849 -0.088254124 -0.12124784 -0.04035914 -0.106143735 -0.12438798 -0.1510967
-0.10255829 -0.032511715 -0.18710501 -0.046812963 -0.14268103 0.23637095 -0.067306705 -0.055898815
0.028392328 0.1528734 -0.124246776 -0.0576921 -0.1964503 0.17555864 -0.15887548 -0.06377029
0.11869023 0.0579721 0.026429463 0.14706676 0.13717137 -0.119290106 -0.12654482 -0.023820544
0.09562241 -0.14057463 0.07538005 -0.009323682 0.0910006 0.07589362 -0.18654096 -0.040271003
0.13670379 0.08286106 0.04051093 0.004559423 -0.04950842 0.15175848 -0.1427831 -0.11729537
-0.07936051 0.06723109 0.0888734 -0.09880163 0.04889288 -0.045616187 0.1118075 0.111287944
0.06440035 -0.07559143 -0.15241104 0.038062975 0.045997266 0.009021455 0.16152813 0.026358796
0.118396774 -0.042421665 -0.074691154 0.003334423 0.08290643 -0.10560726 0.08185057 0.10602428
-0.07443892 -0.11509754 0.07054574 -0.07990398 -0.16145802 0.038346972 -0.030381685 0.06772192
0.122153364 -0.13285676 0.010065513 0.0011431087 0.010086063 -0.23071696 0.11179763 -0.08715066
0.050175894 0.0667545 -0.026935311 -0.10861863 -0.07213346 -0.007932522 0.09523142 0.08576604
0.042169448 -0.12811704 -0.1403809 0.112407155 0.10841485 0.11456361 -0.16258463 -0.10646529
0.19508873 0.15730728 -0.037610374 -0.028840562 0.026605224 0.049972177 -0.10006252 -0.044532556
0.034506362 -0.0019586717 0.045269527 -0.1489451 0.011165476 -0.018812131 -0.10473058 -0.11878755
-0.07192358 -0.13045402 -0.056728147 -0.043094337 -0.15400109 0.042160656 -0.04781417 -0.108999886
-0.14599456 -0.111611396 0.098581195 -0.08962229 -0.094682105 0.09568126 0.021056816 -0.05636212
0.081898816 0.012245031 -0.087453924 0.106512114 -0.07774055 -0.017065682 -0.13506013 -0.0059744627
0.16158533 0.047722936 0.11194355 0.044030294 0.050649457 -0.09296926 -0.06469413 0.06543235
0.041834638 0.0060460065 0.06332127 0.13821478 0.024655553 0.022606656 0.10693379 0.06541307

bias f4 [10]
00000000: 941f 27be 1bc8 b2bd fc2f 9f3c 8bda 95bd
00000010: 6324 18bd ffbc ddbd e812 963c 924b e1bd
00000020: 4ada 8dbd 25ec eebb
-0.1632064 -0.08729573 0.01943206 -0.073170744 -0.037144076 -0.10827064 0.018319562 -0.11000742
-0.06926401 -0.007291334
