tudui_1.pth (torch, 588600 bytes, 10 tensors)

weight f4 [32, 3, 5, 5]
0	0xbdb5a38d	-0.088690855
1	0x3da0d9da	0.07854052
2	0x3cf35f95	0.029708663
3	0x3d69a46b	0.057041567
4	0xbca79872	-0.020458434
5	0x3bf3a437	0.0074353474
6	0x3c3079cc	0.010771226
7	0xbda19a91	-0.07890809
8	0x3dd5ead6	0.10445182
9	0xbdaa16eb	-0.083051525
10	0x3d9053e7	0.07047253
11	0x3d8cd9d3	0.06877484
12	0x3dc7c3d4	0.09754148
13	0xbda04564	-0.07825735
14	0x3ce16e55	0.02751843
15	0xbb782fd9	-0.0037870316
16	0xbdba33f3	-0.0909194
17	0x3dd34ea3	0.10317733
18	0x3d9e0504	0.077158004
19	0xbdcb67bf	-0.09931897
20	0xbd56be25	-0.05242743
21	0xbded4410	-0.115852475
22	0xbdf127fc	-0.117752045
23	0x3d2a1624	0.04152502
24	0xbde96207	-0.1139565
25	0x3da2f579	0.079569764
26	0xbd809c6b	-0.06279834
27	0x3ddb41b4	0.10705891
28	0x3df61e2c	0.120174736
29	0xbd772873	-0.06034131
30	0xbd505128	-0.050858647
31	0xba6b8f85	-0.00089859247
32	0x3da60f2b	0.08108362
33	0xbdc4560b	-0.09586724
34	0xbbb54fcb	-0.0055331937
35	0xbd914e32	-0.07094993
36	0xbc870d88	-0.016485944
37	0x3da481e2	0.08032586
38	0xbd4a82e9	-0.049441252
39	0xbd8a3431	-0.06748236
40	0xbd89d016	-0.06729142
41	0x3d6b3c00	0.057430267
42	0xbdf44c56	-0.119286224
43	0x3d4a2091	0.049347464
44	0xbd049213	-0.03236587
45	0xbd097c06	-0.033565544
46	0x3bcc50d9	0.0062352237
47	0x3da00482	0.0781336
48	0xbda00912	-0.0781423
49	0x3b48107c	0.0030527404
50	0x3cfa864b	0.030581614
51	0x3d4d3ed6	0.050108753
52	0x3de8288c	0.11335859
53	0x3d3d42f6	0.046206437
54	0x3ddebc9c	0.10875818
55	0xbd735d3f	-0.0594151
56	0xbd32051a	-0.043461896
57	0xbdab1091	-0.08352769
58	0x3de2106b	0.11038288
59	0x3c04d420	0.008107215
60	0xbddd6ee3	-0.108121656
61	0xbcf77fbd	-0.030212278
62	0x3d06e9a9	0.03293768
63	0x3c5b39df	0.013380497
64	0x3d537216	0.051622473
65	0x3dd0a927	0.10188513
66	0xbda9897c	-0.08278176
67	0xbddc133e	-0.10745858
68	0x3d9a0015	0.07519547
69	0x3c8b2b7b	0.016988507
70	0xbd248336	-0.040164195
71	0xbdd497dc	-0.103805274
72	0x3d046df1	0.03233141
73	0xbde25b5d	-0.110525824
74	0xbda300ab	-0.07959112
75	0xbd7025d9	-0.058629844
76	0x3d96b272	0.073582545
77	0x3df19533	0.117960356
78	0x3d76d9ba	0.060266234
79	0x3d250228	0.04028526
80	0x3b1b8764	0.0023731822
81	0x3e12f3f1	0.14350869
82	0x3d913aaa	0.070912674
83	0x3dd49b4f	0.10381185
84	0x3db6b746	0.089216754
85	0xbd18de73	-0.03732152
86	0x3dd63ad0	0.10460436
87	0x3d4f8c3b	0.050670844
88	0x3d376916	0.044777952
89	0x3d3eb885	0.04656269
90	0x3ce61335	0.02808533
91	0x3d3f69df	0.046731826
92	0x3d5ddcad	0.05416553
93	0xbd9c054b	-0.07618197
94	0xbd41dad3	-0.047327828
95	0x3b8fdf6e	0.0043906486
96	0xbbf0f843	-0.007353814
97	0xbcfe86da	-0.031070162
98	0xbd223112	-0.03959758
99	0xbdb99d53	-0.0906321
100	0xbd932c70	-0.0718621
101	0xbd7a43b4	-0.061099723
102	0xbd6085e6	-0.054815196
103	0xbdbd00c2	-0.0922866
104	0xbd25934a	-0.04042367
105	0xbd8579b3	-0.06517353
106	0xbd65f5af	-0.056142505
107	0x3d1b4d23	0.03791536
108	0x3d8daa5c	0.06917259
109	0x3d9ec0fd	0.07751653
110	0x3d9a442c	0.07532534
111	0x3c59a4ae	0.013283892
112	0x3d2361a3	0.039888036
113	0xbd0a79eb	-0.033807676
114	0x3d68fd78	0.05688235
115	0xbdc19c8c	-0.09453687
116	0xbe0b2e7d	-0.13591953
117	0x3d52fcc3	0.051510584
118	0xbd4b7034	-0.049667552
119	0x3c5375b4	0.012906481
120	0x3bf0a360	0.0073436946
121	0xbe09deb0	-0.13463855
122	0xbd5ceb3e	-0.053935282
123	0xbce02f07	-0.027366174
124	0xbdd99a9e	-0.10625194
125	0xba8b13f6	-0.0010610807
126	0x3c0b0b34	0.008486558
127	0xbd9a7265	-0.0754135
128	0x3d63508e	0.055496745
129	0xbdda4c7a	-0.10659118
130	0xbcadb2f4	-0.021203496
131	0x3da84f95	0.08218304
132	0xbd9becb6	-0.076135084
133	0x3d8a3b41	0.06749583
134	0x3ddf8693	0.1091434
135	0xbc6961c6	-0.014244502
136	0x3dcc7aec	0.09984383
137	0x3ddedb86	0.108817145
138	0xbbf80d60	-0.007569954
139	0x3dcdc1a7	0.10046702
140	0xbded2e35	-0.11581079
141	0xbde36d72	-0.111048594
142	0xbd94d43a	-0.072670415
143	0xbcf3bf8a	-0.029754419
144	0xbd81812f	-0.06323468
145	0xbc8290a0	-0.015938103
146	0xbda2ef41	-0.0795579
147	0x3cdcc957	0.026951475
148	0xbb5642fc	-0.0032693734
149	0x3caa48de	0.020786699
150	0x3da32b6c	0.079672664
151	0xbd8f9692	-0.07011141
152	0x3d9ef5ab	0.07761701
153	0x3d243151	0.040086094
154	0xbd6eed49	-0.05833176
155	0xbdd03e60	-0.10168147
156	0xbd8ebd42	-0.06969692
157	0xbd8c9d13	-0.06865897
158	0x3da2f8e6	0.0795763
159	0x3d15f580	0.03661108
160	0xbbd79282	-0.0065787444
161	0x3da4b099	0.08041496
162	0xbdbc2f2f	-0.09188687
163	0xbdcbc7b0	-0.09950197
164	0xbd11c476	-0.03558775
165	0xbdfaa1be	-0.12237881
166	0x3d8725a2	0.06598975
167	0xbd79c9c0	-0.06098342
168	0xbd53b5de	-0.051687114
169	0x3ce4f471	0.02794859
170	0xbdb8b72e	-0.09019314
171	0xbbcebe05	-0.006309273
172	0x3d2d05d7	0.042241897
173	0x3dac5087	0.08413797
174	0x3cdaaa3b	0.0266925
175	0xbb31565a	-0.0027059526
176	0xbd6829a3	-0.056680333
177	0x3d37e037	0.044891562
178	0xbbab7abd	-0.0052331374
179	0xbdac71e2	-0.08420159
180	0x3d5ecaa3	0.05439247
181	0xba36cc01	-0.0006973148
182	0xbdc91b38	-0.09819645
183	0x3c782205	0.01514483
184	0x3c82029c	0.015870385
185	0x3bbfd92b	0.005854746
186	0x3d5b0020	0.053466916
187	0xbd222358	-0.039584488
188	0x3d0e675e	0.034766547
189	0xbdbe7019	-0.09298725
190	0x3d766370	0.060153425
191	0x3d02f08a	0.031967677
192	0xbcd2994d	-0.025707865
193	0x3c8f1a5b	0.017468622
194	0xbe01b2e2	-0.12665895
195	0xbd90ede2	-0.070766225
196	0xbdc6ea00	-0.09712601
197	0xbe0ec626	-0.13942775
198	0xbc06f5dd	-0.008237329
199	0xbdcc8bdc	-0.099876136
200	0x3d59170e	0.053000502
201	0xbd810cb8	-0.06301254
202	0xbd107390	-0.03526646
203	0x3dc392b4	0.09549466
204	0x3e026ad9	0.12736072
205	0x3db64249	0.08899362
206	0x3e011c6e	0.12608501
207	0x3e0ca6c8	0.13735497
208	0x3c8ac3af	0.016939012
209	0xbb6477a1	-0.0034861343
210	0xbdaed6ba	-0.085370496
211	0x3db06899	0.086137004
212	0x3d7af532	0.061268993
213	0x3d515598	0.05110702
214	0xbdae68da	-0.085160926
215	0x3d906e55	0.07052294
216	0x3d3d149f	0.046162244
217	0x3d4ac988	0.0495086
218	0x3de226d6	0.110425636
219	0x3de20758	0.11036557
220	0xbcaf4496	-0.021395009
221	0x3c8e08b4	0.017338134
222	0xbd7d2953	-0.061806988
223	0x3c6270d2	0.013820844
224	0x3d83ecbe	0.06441639
225	0xbdb346f6	-0.08753769
226	0xbb2b0822	-0.0026097377
227	0x3dea3a6c	0.11436924
228	0xbc215189	-0.0098461
229	0xbc983b70	-0.01858303
230	0x3b314d53	0.0027054145
231	0x3db695ec	0.08915314
232	0xbdba6808	-0.09101874
233	0x3d107e7a	0.035276867
234	0xbd9c8df5	-0.07644264
235	0xbdf7845a	-0.12085791
236	0x3cb57fd5	0.022155682
237	0xbdaefa0e	-0.08543788
238	0x3d9c14ee	0.076211795
239	0xbd1454d7	-0.036213722
240	0xbdc22225	-0.09479169
241	0xbd4fc25e	-0.050722472
242	0xbd0bc6dc	-0.034125194
243	0x3d0ec9ec	0.034860536
244	0xbacb05f8	-0.001548945
245	0x3c62ab45	0.013834779
246	0xbcfd2a09	-0.030903833
247	0xbc41fae0	-0.011839598
248	0xbdfbbac6	-0.122914836
249	0xbdfae9dd	-0.12251637
250	0x3c9bf45a	0.019037414
251	0x3c00ae74	0.007854093
252	0xbdcd2baf	-0.100180976
253	0xbd469672	-0.04848332
254	0x3d198d95	0.03748854
255	0xbd61fb88	-0.05517152

bias f4 [32]
0	0xbdcce2ca	-0.10004194
1	0x3c315776	0.010824075
2	0xbd8d9e8c	-0.06915006
3	0x3d1fe4a2	0.0390364
4	0xbd5a4e42	-0.05329729
5	0x3d969f51	0.07354606
6	0x3deb015f	0.11474871
7	0xbdec8a4b	-0.11549815
8	0x3d12ea54	0.035868004
9	0x3d1b6b74	0.037944272
10	0xbd15cce1	-0.03657234
11	0x3cbf73a7	0.023370577
12	0xbe36517a	-0.17804518
13	0x3e0a8fec	0.13531464
14	0xbcc0c56c	-0.023531638
15	0xbe3be6cb	-0.1834976
16	0x3c03b8dd	0.00803968
17	0x3cb1c278	0.021699175
18	0x3e1cda11	0.1531756
19	0x3b9d1588	0.0047938265
20	0x3d1f617a	0.03891132
21	0xbdfbeeae	-0.12301384
22	0xbc411a0c	-0.011785995
23	0x3d472020	0.04861462
24	0xbc830edd	-0.015998298
25	0x3dc76f56	0.097380325
26	0xbdb2c7dc	-0.087295264
27	0x3b68e902	0.0035539274
28	0x3e11907d	0.14215274
29	0x3c90e6a8	0.01768811
30	0xbd9ea5aa	-0.07746442
31	0x3cbead50	0.023276001

weight f4 [32, 32, 5, 5]
0	0x3cc568b2	0.024097774
1	0xbc405b19	-0.011740469
2	0xbafa44e0	-0.0019094013
3	0xbcecc104	-0.02890063
4	0x3cb9cb5d	0.022679979
5	0x3d0de3af	0.034640964
6	0xbd126574	-0.035741284
7	0xbd0e2c10	-0.03470999
8	0xbcf2c186	-0.029633295
9	0xbb92fb5c	-0.004485531
10	0xbcc054e4	-0.023477979
11	0x3c30e715	0.010797282
12	0xbcdadcd9	-0.026716636
13	0x3c9840ed	0.018585647
14	0xbc2a3686	-0.010388976
15	0xbca56ce2	-0.020193521
16	0x3b18a971	0.0023294354
17	0x3d088c47	0.033336904
18	0xbcb6cc7a	-0.022314299
19	0xbcdbd280	-0.026833773
20	0x3cdc55d2	0.026896391
21	0xbcad446e	-0.021150794
22	0x3d093a6c	0.03350298
23	0xbc4ed29f	-0.012623458
24	0xbc8b21cc	-0.016983889
25	0xbd17dd73	-0.037076425
26	0xbd0c6c67	-0.034283068
27	0x3aeb7241	0.0017963127
28	0x3c2ff4c7	0.010739512
29	0x3ca4d4b9	0.020120965
30	0xbccaacbd	-0.024740571
31	0x3cd886ee	0.026431527
32	0x3c0576f1	0.008146034
33	0x3cca15c4	0.024668582
34	0xbd05bd5f	-0.0326513
35	0x3c32b1ee	0.01090668
36	0xbcee8de0	-0.029120386
37	0xbb37df4b	-0.0028056677
38	0x3ccb6e19	0.024832772
39	0xbd009b03	-0.03139783
40	0xbc81b085	-0.015831241
41	0x3c4ec90a	0.012621174
42	0x3cc63771	0.024196358
43	0x3c6db0e0	0.014507502
44	0x3cc9e6d0	0.024646193
45	0x3c374278	0.011185281
46	0xbc5c0a20	-0.013430148
47	0xbc10991f	-0.008825569
48	0x3c0d6f08	0.008632429
49	0xbaabccf5	-0.0013107347
50	0xbce6f855	-0.028194586
51	0xbcb06b81	-0.021535637
52	0xbc8df2c4	-0.017327674
53	0xb9c91b7b	-0.00038358182
54	0x3bd63b82	0.0065378556
55	0xbc96609b	-0.018356612
56	0xbca41e27	-0.020033909
57	0x3c7b2e03	0.015330794
58	0xbcbf870d	-0.023379827
59	0x3c12823e	0.008942185
60	0xbbb5ddec	-0.005550137
61	0xbbe1fbf2	-0.0068964893
62	0xbce03ab1	-0.027371736
63	0xbd08e646	-0.03342273
64	0xbcc767ac	-0.024341427
65	0xbcf36f02	-0.029716019
66	0xbce8652e	-0.028368559
67	0x3bf3f458	0.0074448995
68	0x3bdabd13	0.0066753714
69	0xbcd3e77d	-0.025867218
70	0xbc0dd347	-0.0086563295
71	0x3bcfe166	0.0063440083
72	0x3c16b7d3	0.009199101
73	0x3cc22f89	0.023704307
74	0x3d18fca1	0.0373503
75	0x3c887f7f	0.016662357
76	0x3bb9243c	0.0056500714
77	0xbcebb6e3	-0.02877373
78	0xbcb9b084	-0.022667177
79	0xbcf47038	-0.029838666
80	0xbcdc3a04	-0.026883133
81	0x3ce1dba9	0.027570562
82	0x3c55d2cd	0.013050747
83	0xbc7e6622	-0.01552728
84	0xbcd22256	-0.025651138
85	0xbb790ee8	-0.003800327
86	0xbc3ea697	-0.011636398
87	0xbba16733	-0.0049256324
88	0xbcf3b8bb	-0.029751172
89	0xbc9377a2	-0.018001381
90	0xbcb28fa1	-0.021797003
91	0xbcee568a	-0.029094
92	0x3c7f3f9a	0.015579129
93	0x3c9e3250	0.0193111
94	0x3c1168d0	0.008875087
95	0xbc2c7fa4	-0.010528479
96	0x3cfbeadb	0.030751636
97	0xbc4a6c48	-0.012354918
98	0xbca35c8f	-0.019941596
99	0x3c1f2fe3	0.009716007
100	0xbbc5549e	-0.00602205
101	0x3d064512	0.032780714
102	0xbca64c5e	-0.020300087
103	0xbcc288a2	-0.023746792
104	0x3cfaf028	0.030632094
105	0x3c5d0f4d	0.0134924175
106	0x3c1e04c4	0.009644691
107	0x3cba56ef	0.022746531
108	0xbbef5b64	-0.007304596
109	0x3c740b54	0.014895279
110	0x3b355202	0.0027667289
111	0xbbf42b62	-0.0074514607
112	0xbc965477	-0.018350823
113	0x3cdd395b	0.027004888
114	0x3b0f6f7b	0.0021886516
115	0x3c780603	0.015138152
116	0x3d0cff91	0.034423415
117	0x3bee4c0c	0.007272249
118	0xbce6a2de	-0.028153833
119	0x3cc3827a	0.023865927
120	0x3d176802	0.036964424
121	0xbcb01268	-0.021493152
122	0x3cf29301	0.029611113
123	0x3d0786f7	0.033087697
124	0x3cd4bc61	0.025968732
125	0x3bcef970	0.0063163564
126	0xbca314c3	-0.01990736
127	0xbcf7d8a7	-0.030254675
128	0xbc7299ac	-0.014807146
129	0x3bb779ef	0.0055992524
130	0x3c9d7eea	0.019225556
131	0xbcf0790d	-0.029354597
132	0xbb353c10	-0.0027654208
133	0xbc4d02bd	-0.01251286
134	0xbb6bd275	-0.0035983596
135	0xbd1842d0	-0.037173092
136	0x3ca49f94	0.020095624
137	0xbb8bedbd	-0.004270284
138	0xbbab7805	-0.0052328133
139	0x3c2145c3	0.009843293
140	0xbd00084a	-0.031257905
141	0x3bd14966	0.0063869236
142	0x3caf80b2	0.021423671
143	0x3c0bc315	0.008530398
144	0xbcb5d972	-0.022198413
145	0x3cd0516a	0.025429446
146	0x3c998519	0.018740224
147	0x3d2a397c	0.041558728
148	0x3b2eab01	0.002665222
149	0xbbb61ebd	-0.0055578635
150	0xbbe45019	-0.006967556
151	0xbc85d97c	-0.016339056
152	0x3d04712c	0.03233449
153	0x3bd36901	0.0064517264
154	0x3d006f91	0.031356398
155	0x3ccedd9d	0.025252158
156	0xbce76f5a	-0.028251339
157	0x3cd5236b	0.026017865
158	0xbcd2f1b4	-0.025750019
159	0xbc9ade62	-0.018904869
160	0x3ced4b70	0.028966635
161	0xbd174cb9	-0.036938403
162	0xbcb2568e	-0.021769788
163	0x3ce52300	0.02797079
164	0x3aaa5e95	0.0012998158
165	0xbbab3407	-0.005224708
166	0xbc5c5b20	-0.01344946
167	0xbd16d7c5	-0.036826868
168	0xbb78ab3b	-0.0037943858
169	0x3c62cfd8	0.013843499
170	0xbc7e15cf	-0.015508129
171	0x3980018f	0.00024415224
172	0xbd036a79	-0.032083962
173	0x3c668f0e	0.014072193
174	0xbcbcaa59	-0.023030447
175	0x3b7a0b11	0.0038153569
176	0xbc2dfc39	-0.010619217
177	0xbcf4310c	-0.029808544
178	0x3cc24e38	0.023718938
179	0x3cd83fab	0.026397547
180	0xbc898a9c	-0.016789727
181	0xbbaf6e4d	-0.005353725
182	0x3d098ea9	0.033583317
183	0x3c8fd924	0.017559595
184	0xbb5cc779	-0.003368823
185	0xbcab5850	-0.020916134
186	0xbc9680ec	-0.018372022
187	0xbcbb2dbc	-0.022848956
188	0x3bba412a	0.0056840377
189	0x3cea2bb5	0.028585294
190	0xbcd172ba	-0.025567401
191	0xbd0a0fcb	-0.033706468
192	0x3cffbd6b	0.031218251
193	0xbc972a45	-0.018452773
194	0x3ce448bf	0.02786672
195	0xbcf83d7d	-0.030302757
196	0xbd10faa9	-0.0353953
197	0x3c8252e3	0.015908664
198	0xbc01f206	-0.007931238
199	0x3cc7c656	0.024386566
200	0x3c52328e	0.012829436
201	0xbafa17f2	-0.0019080623
202	0x3c068f2d	0.008212847
203	0xbcd95b67	-0.026532842
204	0xbcd94f54	-0.026527084
205	0xbcb5eb56	-0.022206943
206	0xbbc35161	-0.005960629
207	0x3cc6cf82	0.02426887
208	0x3ca55ae6	0.020184945
209	0xbcb66cfb	-0.022268763
210	0xbcad69d9	-0.021168636
211	0x3b092735	0.002092791
212	0x3ba57c0e	0.005050189
213	0xbc9d03bd	-0.019166822
214	0xbc9c460e	-0.019076373
215	0x3c7a4b57	0.0152767515
216	0x3c56199e	0.013067631
217	0xbb4fd481	-0.0031712356
218	0xbcf00b40	-0.02930224
219	0x3be08011	0.006851204
220	0x3c85910f	0.01630452
221	0x3cba4679	0.022738682
222	0xbcd4a6c1	-0.02595842
223	0xbc576ad1	-0.013148026
224	0x3ce29711	0.027659925
225	0xbc12f26e	-0.008968933
226	0x3d0c3369	0.034228716
227	0x3c7cc400	0.015427589
228	0xbc6df3a3	-0.01452342
229	0xbc66210c	-0.014045965
230	0xbb002ae3	-0.0019556812
231	0x3c0a172d	0.008428377
232	0xbc4de9c0	-0.012567937
233	0xbbf451a4	-0.0074560214
234	0xbab89054	-0.0014081099
235	0xbc764e95	-0.015033384
236	0xb9df360c	-0.00042574143
237	0x3c57bfc1	0.013168276
238	0xbd06eaef	-0.032938894
239	0xbb97b3f8	-0.0046296082
240	0xbc28f7e8	-0.010313012
241	0x3a2ce385	0.00065951823
242	0x3c864218	0.016388938
243	0x3cbeccd7	0.023291035
244	0xbc6d77cb	-0.014493893
245	0x3c2eb9a2	0.0106643755
246	0x3c4079e4	0.011747811
247	0x3ce56549	0.028002398
248	0x3cd6813b	0.026184669
249	0x3c2ca6e3	0.010537836
250	0xbc584fb8	-0.0132026
251	0xbcc535a1	-0.024073424
252	0x3cde5585	0.027140388
253	0xbd0b7e9e	-0.0340563
254	0xbc55d6d6	-0.013051709
255	0xbcd53950	-0.026028305

bias f4 [32]
0	0xbd0fa2fc	-0.035067543
1	0xbadbba2d	-0.0016763859
2	0x3d13522d	0.03596704
3	0xbce93df1	-0.028471919
4	0x3d551887	0.052025344
5	0x3d184d73	0.037183236
6	0x3a6c9795	0.0009025273
7	0x3cc7163f	0.0243026
8	0x3cad2a72	0.021138404
9	0xbd3db7a7	-0.046317723
10	0xbd3b3ef9	-0.045714352
11	0xbd48328e	-0.048876338
12	0xbc877000	-0.016532898
13	0xbc6e282a	-0.014535943
14	0x3d120b70	0.03565544
15	0xbd5486dd	-0.05188643
16	0xbc08d753	-0.008352119
17	0xbd031413	-0.032001566
18	0x3d6ff066	0.05857887
19	0xbcd5c721	-0.026095929
20	0x3be55f27	0.0069998684
21	0xbd317342	-0.04332281
22	0xbd74db1f	-0.059779283
23	0x3d31b4b1	0.04338521
24	0x3d10f7d8	0.035392612
25	0xbc4b6d10	-0.012416139
26	0xbd0d488d	-0.034493018
27	0xbd0b417b	-0.033997994
28	0xbc9fd42b	-0.01951035
29	0x3d1ddc09	0.03853992
30	0x3a0ecd54	0.00054474664
31	0x3c259cb0	0.010108158

weight f4 [64, 32, 5, 5]
0	0xbcb6d65e	-0.022319015
1	0x3cca5a5e	0.024701294
2	0xbc17faf4	-0.0092761405
3	0xbc0c9409	-0.008580216
4	0x3c437b59	0.011931264
5	0xbcda0706	-0.026614677
6	0xbbcd6983	-0.0062686815
7	0xbd15a1bb	-0.03653119
8	0xbc0024c2	-0.007821264
9	0x3cce0a80	0.025151491
10	0x3cbf6a7e	0.02336621
11	0x3c20c749	0.009813138
12	0xbc9ab1b0	-0.018883556
13	0x3cc74b9f	0.024328051
14	0x3cca44a6	0.024690937
15	0xbce4b37e	-0.02791762
16	0x3d109d8d	0.035306502
17	0xbb0750c1	-0.0020647498
18	0xbcdec352	-0.027192745
19	0xbcf29351	-0.029611262
20	0xbc0fe456	-0.008782467
21	0xbcff8c96	-0.031194966
22	0xbc3ff194	-0.011715312
23	0xbc970d48	-0.01843895
24	0x3c2b10f4	0.010441054
25	0x3cdede8b	0.027205726
26	0xba160940	-0.0005723424
27	0x3b17d535	0.0023167853
28	0xbb578b16	-0.0032889298
29	0x3cd7625f	0.026292024
30	0xbd0ad99d	-0.03389894
31	0xbcc94ddc	-0.024573259
32	0x3be39bd9	0.0069460687
33	0xbcb3699c	-0.021900944
34	0x3d10f236	0.03538724
35	0xbcd8b848	-0.02645506
36	0x3ac34a69	0.0014899495
37	0x3c880d41	0.016607882
38	0x3d1927d3	0.037391495
39	0xbb915664	-0.0044353474
40	0xbcb3614f	-0.021896986
41	0x3d08d390	0.033404887
42	0xbcc117aa	-0.023570854
43	0x3c52e397	0.012871644
44	0x3c072f3f	0.00825101
45	0xb9cfac22	-0.00039610366
46	0xbcc7bd5b	-0.024382284
47	0xbc805eca	-0.015670199
48	0xbcd11e10	-0.02552703
49	0x3cb30d6c	0.021856986
50	0x3c81455b	0.015780142
51	0xbd00b481	-0.031422142
52	0xbc384652	-0.011247234
53	0x3bd460d2	0.0064812684
54	0x3ca7cec6	0.02048434
55	0x3d1d0c0f	0.038341578
56	0xbaf187a8	-0.001842727
57	0x3c146fc0	0.009059846
58	0x3d000167	0.031251337
59	0x3cff4941	0.03116286
60	0x3c86fbb5	0.016477445
61	0x3ca9f26d	0.02074548
62	0x3d2e2848	0.042518884
63	0x3d35ccac	0.044384643
64	0xbcf91104	-0.030403621
65	0x3bf3994b	0.0074340454
66	0xbc8a2b6d	-0.01686641
67	0xbcbadf45	-0.022811541
68	0x3a92efd2	0.0011210388
69	0xbc614456	-0.013749203
70	0x3c5f27e5	0.013620351
71	0xbc1f7460	-0.009732336
72	0xbc16e295	-0.009209295
73	0x3d18a5a8	0.037267357
74	0x3bb304cc	0.0054632183
75	0xbcdfc67c	-0.027316324
76	0x3caa706f	0.020805566
77	0x3be410d6	0.006960015
78	0xbcb53902	-0.02212191
79	0xbc6f56f9	-0.014608138
80	0x3ca2a567	0.01985426
81	0xbd103f8d	-0.035216857
82	0x3bf29055	0.0074024596
83	0x3bf5f3c3	0.0075058653
84	0xbc53ead3	-0.012934404
85	0xbc9130eb	-0.017723521
86	0x3c2ee1dc	0.010673966
87	0x3c6595a5	0.014012729
88	0x3c98b4cd	0.0186409
89	0xbc3a67a3	-0.011377248
90	0x3cbe5dcf	0.02323809
91	0xbce86021	-0.02836615
92	0xbcd80d82	-0.026373629
93	0xbb6bb85d	-0.0035968043
94	0x3cf16a94	0.029469766
95	0xbc80d0c9	-0.015724557
96	0xbb3a09bc	-0.002838715
97	0x3c822faa	0.015891869
98	0x3caafcc3	0.02087248
99	0xbd085153	-0.03328068
100	0xbbb5a20d	-0.0055429996
101	0xbb578b23	-0.0032889328
102	0x3c059fae	0.008155746
103	0x3ca0507a	0.019569624
104	0x3c346b05	0.011011844
105	0xbcc84c5e	-0.024450477
106	0xbc8eda1d	-0.017437989
107	0xbce4a0d1	-0.027908714
108	0x3c587451	0.013211326
109	0x3d1f914d	0.03895693
110	0xbc014c49	-0.007891723
111	0xbb8cfb4a	-0.004302417
112	0x3d053a9e	0.032526605
113	0x3c6c9412	0.0144396
114	0x3c798eba	0.015231783
115	0x3ae2647a	0.0017272376
116	0x3c7e7301	0.015530349
117	0x3c06de7f	0.008231758
118	0xbccf1f2b	-0.025283417
119	0xbc1f3dbe	-0.00971931
120	0xbc57a1fa	-0.013161177
121	0xbc81cc85	-0.015844593
122	0xbcd71625	-0.026255677
123	0x3b0270b3	0.00199036
124	0x3d0e07a8	0.03467527
125	0x3acf836c	0.0015832013
126	0x3cce5c9f	0.02519065
127	0x3c2c10c2	0.010502042
128	0x3b7457bb	0.0037283737
129	0xbc9e4798	-0.019321248
130	0x3c721a92	0.014776843
131	0x3d054cc5	0.032543916
132	0x3ca9575c	0.020671539
133	0xbb1d9b12	-0.0024048728
134	0xbd002765	-0.03128757
135	0x3cfd38db	0.0309109
136	0x3d0228ab	0.031777065
137	0xbbeea82d	-0.0072832317
138	0xbc87ec55	-0.016592184
139	0xbcd04221	-0.025422158
140	0xbbff07e6	-0.007782924
141	0xbca01cbf	-0.019544957
142	0xbc427e59	-0.011870944
143	0xbc7cf9d4	-0.015440423
144	0x3b1e9a6c	0.002420093
145	0x3d07c9ce	0.03315144
146	0xbc3f9098	-0.011692189
147	0x3d0848ad	0.033272434
148	0x3c92aaac	0.017903648
149	0x3cc5a279	0.024125325
150	0xbc5d60da	-0.013511861
151	0x3ccc071f	0.02490574
152	0x3d17a746	0.03702476
153	0xbcb1bb6f	-0.02169582
154	0xbb98a3c5	-0.0046581947
155	0x3d040776	0.032233678
156	0xbc23e94b	-0.010004352
157	0x3c8e8a05	0.017399797
158	0xbbfbb4fe	-0.007681488
159	0xbbb06265	-0.0053828233
160	0x3b843686	0.00403482
161	0x3c1254d1	0.008931355
162	0xb9963a8e	-0.00028653856
163	0xbce59f12	-0.028029952
164	0xbc544bd0	-0.012957528
165	0x3c0ed03a	0.008716637
166	0xbcefe7c7	-0.029285325
167	0xbc89c50c	-0.016817592
168	0x3c3358f9	0.010946506
169	0xbcaec18d	-0.021332527
170	0x3cb441a5	0.022003958
171	0xbc54f8e7	-0.012998796
172	0x3c47e3ed	0.012200338
173	0xbcb321ee	-0.021866765
174	0x3a786c4a	0.00094765855
175	0xba2240d4	-0.000618947
176	0x3d2f9b8a	0.042872943
177	0x3ba455fa	0.005015132
178	0xbc59acfc	-0.013285872
179	0x3d397139	0.045273993
180	0x3c35668d	0.011071813
181	0x3d2f5171	0.042802278
182	0x3c9ae808	0.01890947
183	0x3b5d4f8e	0.0033769342
184	0x3d23a052	0.039947815
185	0x3cc8ca5b	0.024510553
186	0x3d0a3cf5	0.03374954
187	0x3cf9037a	0.030397166
188	0x3d00fb63	0.03148974
189	0x3cc387a2	0.023868386
190	0xbcb1a797	-0.021686358
191	0xbd129055	-0.035782177
192	0x3c63c997	0.013903043
193	0xbd04f0c5	-0.03245618
194	0xbd165cab	-0.03670947
195	0xbd287f83	-0.04113723
196	0xbcec853f	-0.02887213
197	0xbc93144b	-0.017954012
198	0x3d1117dd	0.03542315
199	0x3cac5916	0.021038573
200	0x3c63c8c9	0.013902851
201	0xbaddcc7d	-0.0016921904
202	0xbcb19505	-0.021677503
203	0x3bde61d1	0.006786563
204	0xbc674d5a	-0.014117563
205	0x3c4a69f6	0.012354365
206	0xbc9ed96c	-0.019390784
207	0x3d193656	0.037405334
208	0x3cb6e49b	0.022325804
209	0xbca26fce	-0.019828703
210	0xbcb7a99f	-0.022419749
211	0xbc044ce9	-0.008074977
212	0xbca1f34b	-0.019769331
213	0x3c32f298	0.010922097
214	0xbcb9c0db	-0.022674968
215	0xbd06e246	-0.032930635
216	0x3cd668db	0.026173046
217	0x3ccdc67a	0.025119055
218	0x39d9901d	0.00041496838
219	0xbcf84efd	-0.030311102
220	0xbcea5d47	-0.028608931
221	0xbcd98e00	-0.026556969
222	0x3d00fbdc	0.03149019
223	0x3c5a7ca5	0.013335382
224	0x3d08e919	0.033425424
225	0xbcc6f7da	-0.024288107
226	0x3caf0555	0.021364847
227	0xbae8aefa	-0.0017752342
228	0x3caf8b46	0.021428715
229	0xbc82a7bd	-0.015949124
230	0xba65bafe	-0.0008763521
231	0xbb788c4d	-0.0037925423
232	0x3d11b8d3	0.035576653
233	0xbce78782	-0.028262857
234	0xbca93cf8	-0.020658955
235	0x3c96d371	0.01841137
236	0x3ca18050	0.019714504
237	0x3ba46246	0.005016598
238	0xbcf30a8d	-0.029668117
239	0xbba48453	-0.005020657
240	0xbcbb5700	-0.022868633
241	0x3cda2128	0.026627138
242	0x3c8cecd8	0.01720278
243	0x3c1f6817	0.009729407
244	0x3ce5ecd3	0.028067028
245	0xbd08dd5b	-0.033414226
246	0xbb12dcb7	-0.0022409388
247	0xbce8e246	-0.028428208
248	0xbcf1c1fb	-0.029511442
249	0xbd0c4fd0	-0.034255803
250	0x3c3cceac	0.011523884
251	0x3c868aac	0.016423546
252	0x3c0097b5	0.00784867
253	0x3c054363	0.008133742
254	0x3c9491d2	0.018135939
255	0xbc812890	-0.015766412

bias f4 [64]
0	0x3c355c54	0.011069376
1	0x3b23ad65	0.0024975177
2	0x3b5d59a9	0.0033775365
3	0xbc44e2c1	-0.012016953
4	0x3c26dae8	0.010184027
5	0xbc16b764	-0.009198997
6	0xbd444b07	-0.047923114
7	0x3be374ae	0.0069413995
8	0x3c983688	0.01858069
9	0xbbd485c0	-0.006485671
10	0x3b9ee812	0.0048494423
11	0xba3a0b0f	-0.0007096985
12	0xba11cbc0	-0.0005561672
13	0xbcbe0cb3	-0.023199415
14	0xbc0bfb41	-0.00854379
15	0xbcc22147	-0.023697508
16	0xbd532f2b	-0.051558655
17	0x3cdd6735	0.027026752
18	0x3c53321c	0.012890365
19	0x3c7d32e0	0.015454024
20	0xbcc468a1	-0.023975672
21	0xbd3a22ac	-0.045443222
22	0x3ae6c002	0.001760483
23	0xbc7acba4	-0.015307341
24	0xbca6cd46	-0.020361554
25	0xbd0e3fa4	-0.03472866
26	0xbd151687	-0.036398437
27	0xbd3f2107	-0.046662357
28	0xbb424ac0	-0.0029646605
29	0xbb46b419	-0.003031975
30	0x3d286ccc	0.04111938
31	0x3cf0c72a	0.029391844
32	0xbb023bd0	-0.0019872077
33	0x3cfec16d	0.031098092
34	0x3cbd8be9	0.023138003
35	0x3ca6ffd8	0.020385668
36	0xbd435b23	-0.047694337
37	0x3cb73c62	0.02236766
38	0x3cbe136e	0.023202624
39	0x3cb7eb63	0.022451108
40	0xbba1c4d8	-0.0049367957
41	0xbca1d5fd	-0.019755358
42	0xbd025daf	-0.031827625
43	0x3c97056a	0.018435199
44	0xbc98e5a3	-0.018664187
45	0xbcad7565	-0.021174142
46	0xbd42bdaf	-0.047544178
47	0x3c56f7f8	0.013120644
48	0xbd2fb1b1	-0.04289407
49	0xbd30857a	-0.043096043
50	0x3c53116a	0.01288257
51	0x3c8db964	0.017300315
52	0xbc276d24	-0.010218892
53	0xba27e7ca	-0.00064050837
54	0x3c8b727b	0.017022362
55	0x3ca52d03	0.020163065
56	0xbd222f99	-0.039596174
57	0x3c87833b	0.016542068
58	0xbc843c42	-0.016142014
59	0xbc281921	-0.010259897
60	0xbcb6fc04	-0.022336967
61	0xbcc86e88	-0.024466768
62	0xbbd3a011	-0.0064582904
63	0xbce7421b	-0.028229764

weight f4 [64, 1024]
0	0x3cb780a8	0.022400215
1	0x383878ca	4.3981512e-05
2	0xbca7e04e	-0.020492699
3	0xbcc00277	-0.023438675
4	0x3c629b97	0.013831041
5	0xbc508164	-0.012726162
6	0x3d101b22	0.035182126
7	0x3ca429d9	0.020039486
8	0x3c8158a7	0.015789343
9	0xbcc2c710	-0.023776561
10	0xbc4a1bc1	-0.012335719
11	0x3c83605e	0.016037162
12	0xbcf0c4a0	-0.029390633
13	0xbc3a0e5c	-0.011355963
14	0xbcb9ffb0	-0.02270493
15	0xbc84f276	-0.016228896
16	0x3cbdce31	0.023169609
17	0xbcd60b01	-0.026128294
18	0xbc456b22	-0.012049468
19	0xbcc1f8c8	-0.023678198
20	0xbbe30ff5	-0.0069293925
21	0xbc139983	-0.009008768
22	0x3b5e664a	0.003393548
23	0xbc9c4820	-0.01907736
24	0xbce35c5e	-0.027754005
25	0x3bf7feb8	0.0075682066
26	0x3ca2d3c3	0.019876366
27	0xbcd8f9db	-0.026486328
28	0xbc098908	-0.008394487
29	0xbc39ad36	-0.011332801
30	0x3b9e1afc	0.004824994
31	0x3c6082c0	0.013703048
32	0xbc65208d	-0.0139848115
33	0xbc25c64d	-0.010118079
34	0xb9892060	-0.00026154798
35	0xbc857922	-0.016293112
36	0x3b648119	0.0034866987
37	0x3c1a5502	0.0094196815
38	0x3c4cd800	0.01250267
39	0xbd173c89	-0.036922965
40	0x3c9ae2e7	0.018907024
41	0xbc1e89d4	-0.0096764155
42	0x3c9984e2	0.018740121
43	0xbcd4610c	-0.025925182
44	0x3b8e3b43	0.0043405606
45	0xbc4af844	-0.012388293
46	0x3c0f455d	0.008744565
47	0xbce02e18	-0.02736573
48	0x3bd7f799	0.0065907952
49	0xbc7a8b3c	-0.015291985
50	0x3c1462d5	0.0090567665
51	0x3c1621fb	0.009163375
52	0x3b54bed6	0.003246238
53	0x3cd8b5ef	0.02645394
54	0xbc61fd0e	-0.013793243
55	0x3c302449	0.010750839
56	0x3d0653ec	0.032794878
57	0x3bd57c9e	0.0065150997
58	0xbc044195	-0.008072277
59	0x3ccbd8e6	0.024883699
60	0xbc3a48f5	-0.011369933
61	0xbc79c4e0	-0.015244693
62	0xbb7a345d	-0.0038178184
63	0x3cd33b28	0.025785044
64	0xbbdb2b92	-0.0066885436
65	0x3d0c101b	0.034195047
66	0x3ca618b4	0.020275451
67	0xbccf2b5b	-0.025289228
68	0x3cd72a0d	0.026265169
69	0xbc99b160	-0.018761337
70	0xbb3a09c6	-0.0028387173
71	0x3c13cdeb	0.009021263
72	0x3c44e97d	0.012018559
73	0x3b94882d	0.004532835
74	0x3c383448	0.011242934
75	0x3baff3b7	0.0053696292
76	0x3c9f2212	0.019425426
77	0xbcb30c22	-0.021856371
78	0xbcb6ca59	-0.022313284
79	0x39061f72	0.0001279095
80	0x3c18a90c	0.009317648
81	0xbbb8a9be	-0.005635469
82	0x3c7d8f37	0.01547604
83	0x3c87f53b	0.016596427
84	0xbccf441b	-0.02530103
85	0xbbeaa6d7	-0.007161002
86	0x3c836d85	0.016043434
87	0x3c92580b	0.017864248
88	0xbc57f3c5	-0.013180678
89	0x3b8a5415	0.004221449
90	0x3c63ee16	0.013911745
91	0xbb2de73e	-0.0026535536
92	0x3cb8093c	0.02246534
93	0x3cfd6970	0.030934066
94	0x3c8be427	0.017076565
95	0xbc0485e5	-0.008088564
96	0xbd07ddaa	-0.03317038
97	0xbc434cc0	-0.011920154
98	0x3c444965	0.011980389
99	0xbcfe2a0f	-0.031025914
100	0x3bee700a	0.0072765397
101	0xbbec2a1b	-0.007207168
102	0xbbbcc966	-0.0057613133
103	0xbd07fe77	-0.03320166
104	0x3a3298d6	0.00068129355
105	0x3c30c9a5	0.010790263
106	0x3b9a2e57	0.004705231
107	0x3bbb42eb	0.0057147644
108	0x3c2ce6e9	0.0105531
109	0x3c07c3e9	0.008286455
110	0xbc74ff3e	-0.014953433
111	0x3c5f4ce6	0.013629174
112	0xbce3294e	-0.027729657
113	0x3cbda159	0.023148226
114	0x3c997e1b	0.01873689
115	0x3c87813f	0.016541122
116	0xbd1d39e0	-0.038385272
117	0xbcda452e	-0.026644316
118	0x3c4401d2	0.011963325
119	0xbce6a0af	-0.028152792
120	0xbd12923d	-0.035783995
121	0x3c2f8417	0.010712645
122	0xbd36c24d	-0.044618893
123	0xbd117e76	-0.035520993
124	0xbc1d1b2e	-0.009589
125	0x3ca97be0	0.020688951
126	0x3c38f8ee	0.011289818
127	0x3c9d467b	0.019198647
128	0x3c400038	0.011718802
129	0x3c19a674	0.009378064
130	0x3c2ddd7f	0.010611891
131	0x3cb277a7	0.02178557
132	0x3cd2f87b	0.02575325
133	0xbca3d866	-0.020000648
134	0xbc522fa7	-0.012828744
135	0x3cce05e7	0.025149299
136	0xbc8049af	-0.015660135
137	0x3cff668e	0.031176832
138	0xbce3d08c	-0.027809404
139	0xbbb6f6ab	-0.0055836043
140	0xbcc58781	-0.024112465
141	0xbd007b7c	-0.031367764
142	0xbcfa1ffe	-0.030532833
143	0xbc9eba9c	-0.019376092
144	0x3cad4b0b	0.021153947
145	0xbc9fceb2	-0.01950774
146	0xbaf340db	-0.0018558757
147	0xbc621272	-0.013798343
148	0xbc2b992f	-0.0104735335
149	0x3c64c73e	0.013963519
150	0x3b55d55e	0.0032628397
151	0xbcf4117e	-0.029793497
152	0xbd0b09c0	-0.033944845
153	0xbcd4d761	-0.025981607
154	0xbcd8d18c	-0.026467107
155	0x3c756f96	0.014980217
156	0x3cae1ddc	0.021254472
157	0xbc1da700	-0.009622335
158	0xbc7d4054	-0.015457232
159	0x3c56dc1e	0.013114003
160	0x3ca0a555	0.019610086
161	0x3c755d6f	0.01497589
162	0xbc8e8de9	-0.017401652
163	0x3cf9f03a	0.030510057
164	0x3ce527bb	0.027973047
165	0x3ccad0c3	0.024757748
166	0x3d1459f6	0.036218606
167	0xbc1aa058	-0.009437643
168	0xba1d64a0	-0.0006004069
169	0xbcd17041	-0.025566222
170	0xbc9a07e2	-0.018802587
171	0x3c976af0	0.018483609
172	0x3c048129	0.008087435
173	0xbb82b055	-0.0039883056
174	0x3a893b56	0.0010469954
175	0x3c14500d	0.009052289
176	0xbcf873d8	-0.030328676
177	0xb987488f	-0.00025803267
178	0xbcd4f7ff	-0.02599716
179	0x3b16bd2a	0.0023000934
180	0x3c566f23	0.0130880205
181	0x3cd54190	0.02603224
182	0xbc188207	-0.009308345
183	0xbc7a1fd0	-0.015266374
184	0xbc425dfe	-0.01186323
185	0xbb538317	-0.003227418
186	0x3be0710e	0.0068494147
187	0x3ce0f77f	0.027461765
188	0x3c6f0a86	0.014589911
189	0x3c458ad3	0.012057024
190	0xbacd2a9d	-0.0015652959
191	0x3cb4cc94	0.022070207
192	0x3ce5a44c	0.028032444
193	0xbc0d0a47	-0.008608407
194	0x3c5a204c	0.013313364
195	0x3cbb8af5	0.022893408
196	0x3d0aae0b	0.033857387
197	0x3cdd4ea1	0.027015032
198	0x3c4b6f3b	0.012416656
199	0xbcbe39e6	-0.023220968
200	0xbc912ce4	-0.0177216
201	0x3ca84e68	0.0205452
202	0xbc6eed06	-0.014582878
203	0xbcdebd60	-0.02718991
204	0xbc2d136c	-0.010563713
205	0x3c824565	0.01590223
206	0x3b6fca40	0.0036589056
207	0xbcd2ce97	-0.025733275
208	0x3bbbec1f	0.005734935
209	0xbc666a54	-0.014063437
210	0x3ccae5b6	0.024767738
211	0xbc6ace7e	-0.014331458
212	0xbc6ba056	-0.014381489
213	0x3cf27886	0.029598486
214	0x3c227582	0.009915711
215	0x3c93bc8c	0.018034242
216	0x3c4d9ced	0.012549621
217	0xbc275823	-0.0102138845
218	0xbba37445	-0.0049882256
219	0xbc7050c8	-0.014667697
220	0xbb5a5dd2	-0.0033320081
221	0xbd07f41c	-0.033191785
222	0xbc1a1186	-0.009403592
223	0x3b98b72e	0.0046605086
224	0x3c985aa1	0.018597903
225	0x3ca27aef	0.01983401
226	0x3cde1f06	0.027114403
227	0x3c86dedb	0.016463688
228	0xbc1510c4	-0.0090982355
229	0x3c8bfb4a	0.017087597
230	0x3ba15271	0.004923158
231	0xbbd58b4c	-0.0065168496
232	0xbcb675b8	-0.02227293
233	0xba9c49d5	-0.0011923859
234	0xbb6dcdf2	-0.0036286083
235	0x3cd073c1	0.02544582
236	0x3c6ad5ed	0.01433323
237	0xbccd38af	-0.025051443
238	0xbcec7713	-0.028865373
239	0xbcbc6f18	-0.023002192
240	0x3ca9084f	0.020633845
241	0x3c537470	0.012906179
242	0xbcdefadd	-0.02721923
243	0xbc8f68f3	-0.017506098
244	0xbcc41799	-0.023937033
245	0x3c9bfc64	0.019041248
246	0x3c0d8835	0.008638431
247	0x3c848daf	0.016180841
248	0xbb4bda74	-0.003110555
249	0xbb935957	-0.004496734
250	0xbcb648e1	-0.022251548
251	0xbcd6dc5d	-0.026228124
252	0x3ca60700	0.02026701
253	0xbce6be9a	-0.028167058
254	0x3cd94c2f	0.026525585
255	0x3b5e1796	0.003388857

bias f4 [64]
0	0x3cfab831	0.030605407
1	0xbc2e2e2d	-0.010631126
2	0x3be9bfc2	0.007133455
3	0x3c681ba9	0.014166751
4	0x3cfdc3a0	0.03097707
5	0xbc26385e	-0.010145275
6	0x3c030360	0.00799641
7	0x3b9ff4c0	0.0048814714
8	0xbcc0c087	-0.023529304
9	0xbc5b6875	-0.013391604
10	0x3cb6ac42	0.022298936
11	0x3c8897df	0.01667398
12	0x3ce07762	0.027400676
13	0x3c4da955	0.012552579
14	0xbc260b62	-0.01013455
15	0xbd3f7d1f	-0.046750184
16	0xbcc21777	-0.02369283
17	0x3d1f3057	0.03886446
18	0x3c424bdb	0.011858906
19	0xba6ef16c	-0.0009114954
20	0x3b2cb302	0.0026351814
21	0xbca0c8d2	-0.019627009
22	0x3c98947f	0.018625496
23	0x3c0f4fca	0.008747051
24	0xbc94bad1	-0.018155487
25	0x3d2d197d	0.042260636
26	0xbd2f0f2e	-0.042739086
27	0xbcb92cbf	-0.022604344
28	0xbadf89f6	-0.0017054665
29	0x3d0a5b69	0.03377858
30	0x3ac2c982	0.0014861079
31	0xbd5a911d	-0.053361047
32	0xbbee4477	-0.0072713452
33	0xbd1c59e8	-0.03817168
34	0x3c7811c9	0.015140959
35	0xbb55f572	-0.0032647518
36	0xbd1e243d	-0.03860878
37	0xbc8aa7cc	-0.016925715
38	0x3cc6ece2	0.024282876
39	0x3b92e29c	0.0044825803
40	0xbafc218d	-0.0019236073
41	0xbd0d7202	-0.034532554
42	0xbce17faa	-0.027526695
43	0x3ce1aeef	0.027549235
44	0xbc1e0dda	-0.009646857
45	0xbcacea43	-0.021107798
46	0xbc9b310b	-0.018944284
47	0xbbf0292b	-0.0073291264
48	0x3d25aebb	0.04044984
49	0xbb2940b8	-0.002582593
50	0xbc07e6ed	-0.008294803
51	0xbb2826ca	-0.0025657886
52	0x3c82a93b	0.015949836
53	0xbc939942	-0.018017415
54	0x3ccefcaf	0.025266973
55	0x3c14bb69	0.009077885
56	0x3d4a4275	0.049379785
57	0x3a4746d3	0.0007601801
58	0xb9fd698a	-0.00048334553
59	0x3c041c66	0.008063411
60	0xbc5ccbba	-0.013476307
61	0xbcd9ba1b	-0.026578
62	0xbc414494	-0.011796135
63	0x3d1d4b7c	0.038402066

weight f4 [10, 64]
0	0xbd1c1e18	-0.038114637
1	0x3d94bb97	0.072623424
2	0xbd57a88f	-0.052650984
3	0x3d9eb4eb	0.07749351
4	0x3d1f877e	0.038947575
5	0xbc770a65	-0.015078162
6	0x3db022c3	0.0860038
7	0x3da3a673	0.07990732
8	0x3d67598b	0.05648188
9	0x3d4e62d9	0.050387237
10	0xbe09bbff	-0.13450621
11	0x3dbc2475	0.09186641
12	0xbd0cd133	-0.034379195
13	0x3df8ccf1	0.121484645
14	0x3acceca4	0.0015634489
15	0xbcc3c3a0	-0.023896992
16	0xbd9f1a03	-0.07768633
17	0xbd96e0c3	-0.07367089
18	0xbd4f0b23	-0.05054773
19	0x3da3960e	0.07987605
20	0x3da9b5d9	0.08286638
21	0x3dbae772	0.09126176
22	0xba9f9a46	-0.0012176714
23	0x3da9dc35	0.08293954
24	0xbd05bf17	-0.03265294
25	0xbda130e7	-0.078706555
26	0x3db0b54b	0.08628329
27	0x3d356bad	0.04429214
28	0x3e0a667d	0.13515659
29	0x3c41095b	0.011782016
30	0x3d8e311c	0.069429606
31	0x3df730c9	0.12069852
32	0x3d23b4b5	0.039967258
33	0x3e0be24b	0.13660543
34	0x3da3815c	0.07983658
35	0x3d8ff0a6	0.07028322
36	0x3daff04a	0.085907534
37	0xbda2875b	-0.07935973
38	0xbe0367d8	-0.12832582
39	0xbe04a0c2	-0.12951949
40	0x3d505c2d	0.050869156
41	0x3b67237e	0.0035268958
42	0xbc937515	-0.018000165
43	0xbd9c2925	-0.07625035
44	0xbd12df3f	-0.035857435
45	0x3daead3a	0.08529134
46	0x3da3ef2d	0.080046035
47	0x3de8a1c2	0.11358978
48	0xbd7705c8	-0.060308248
49	0xbdec9625	-0.11552075
50	0xbdb310ef	-0.08743464
51	0x3d22ed06	0.039776824
52	0xbd9bbaf9	-0.076040216
53	0xbdcf13cc	-0.10111198
54	0xbc25cce4	-0.0101196505
55	0xbdb261cd	-0.0871006
56	0xbd9cb181	-0.07651044
57	0x3e090235	0.13379748
58	0x3b246db7	0.002508981
59	0xbd8020bf	-0.06256246
60	0xbe07fb31	-0.13279416
61	0x3dbff83f	0.09373521
62	0x3d27b139	0.040940497
63	0xbda25033	-0.07925453
64	0xbc204adc	-0.009783473
65	0xbcb7cd4f	-0.022436766
66	0xbabc9203	-0.0014386777
67	0xbe101a80	-0.14072609
68	0x3d477203	0.048692714
69	0x3d3b8bfc	0.045787796
70	0xbd4d0fdc	-0.050063953
71	0x3d3989b6	0.045297347
72	0xbdd15b9c	-0.10222551
73	0xbdb3e269	-0.08783419
74	0xbd86c91f	-0.065813296
75	0xbde96eb0	-0.11398065
76	0xbd094f10	-0.033522666
77	0x3d7f49c2	0.0623262
78	0xbd510ca8	-0.05103746
79	0xbcefa5a2	-0.029253785
80	0xbe02c9c6	-0.12772283
81	0xbd3d3a90	-0.046198428
82	0xbda7372d	-0.08164821
83	0x3d29872c	0.041388676
84	0x3e2e5c12	0.1702731
85	0xbd254a3a	-0.04035399
86	0xbd8d53cb	-0.06900748
87	0x3e295ffc	0.16540521
88	0xbd20ba13	-0.039239954
89	0x3dbd8c42	0.09255268
90	0xbdfdf922	-0.12401034
91	0xbdeeba5d	-0.1165664
92	0x3e2230cf	0.15838932
93	0xbcee064c	-0.029055737
94	0xbd8568bf	-0.06514119
95	0xbe039faa	-0.12853876
96	0xbdd68a34	-0.10475579
97	0xbdbd266e	-0.092358455
98	0xbd8c7d39	-0.06859822
99	0xbdcc5911	-0.099779256
100	0xbd0c9aed	-0.034327436
101	0xbda13b72	-0.078726664
102	0xbdc44928	-0.09584266
103	0xbdcacac0	-0.09901953
104	0xbdccd5a0	-0.10001683
105	0xbcb957a1	-0.022624793
106	0xbe1b4182	-0.15161708
107	0xbcab0533	-0.020876503
108	0xbdeea4e6	-0.11652546
109	0x3e41ee82	0.1893864
110	0xbd86fe0e	-0.06591426
111	0xbd69b586	-0.05705788
112	0x3d75ea2b	0.060037773
113	0x3e12fe11	0.14354731
114	0xbdc0a808	-0.094070494
115	0xbd5b6a71	-0.053568307
116	0xbe1c9a4f	-0.15293239
117	0x3dfdc12d	0.12390361
118	0xbe048bdb	-0.12943976
119	0xbd610e93	-0.05494554
120	0x3deb42bd	0.11487339
121	0x3d19f598	0.037587732
122	0x3ccd6320	0.02507168
123	0x3e1b05d7	0.15138946
124	0x3e03ac81	0.12858774
125	0xbdf51020	-0.11965966
126	0xbdcc94ee	-0.099893436
127	0x3c6ac010	0.014328018
128	0x3d92e443	0.07172444
129	0xbdba9692	-0.0911075
130	0x3dae3a4f	0.08507215
131	0xbd027034	-0.031845286
132	0x3da841c1	0.082156666
133	0x3d1c2a31	0.038126174
134	0xbe18fc48	-0.14939988
135	0xbd18abbc	-0.037273154
136	0x3dd2f69b	0.103009425
137	0x3da43b8c	0.0801917
138	0x3cce64bf	0.025194524
139	0xbb139f8b	-0.0022525515
140	0xbd468d31	-0.048474494
141	0x3e01cb2f	0.12675165
142	0xbe0d04cc	-0.13771361
143	0xbdf832ee	-0.12119089
144	0xbdac60c7	-0.08416896
145	0x3d7a8a6f	0.061167177
146	0x3d90b24f	0.0706526
147	0xbdbaecd7	-0.09127205
148	0x3d26a536	0.0406849
149	0xbc8f979e	-0.017528351
150	0x3dc95392	0.09830393
151	0x3db221a7	0.08697825
152	0x3d9a4297	0.07532232
153	0xbd4e1762	-0.05031527
154	0xbe03d26b	-0.12873237
155	0x3cab218e	0.020890024
156	0x3d748e6a	0.05970613
157	0xbc765112	-0.015033977
158	0x3e077a23	0.13230185
159	0x3ca235cf	0.019801049
160	0x3deee31b	0.11664411
161	0xbcf1a505	-0.029497633
162	0xbdbd1169	-0.09231836
163	0xbc8c58af	-0.017132131
164	0x3d675881	0.05648089
165	0xbdd5a68b	-0.10432156
166	0x3d77268e	0.060339503
167	0x3dab633f	0.08368539
168	0xbd477ad4	-0.048701122
169	0xbda13d56	-0.07873027
170	0x3d0b9f8b	0.0340877
171	0xbdbce55a	-0.09223433
172	0xbe0d86d1	-0.1382096
173	0x3d61fde0	0.055173755
174	0xbc47b43e	-0.012188969
175	0x3d827099	0.063691325
176	0x3d9190fd	0.071077324
177	0xbde1689c	-0.11006281
178	0x3c2525a4	0.010079775
179	0x3c0a0d54	0.008426029
180	0x378aebe0	1.656072e-05
181	0xbe359a62	-0.17734674
182	0x3de93aca	0.11388166
183	0xbdaf73ed	-0.08567033
184	0x3d23cb0f	0.039988574
185	0x3d6ddce8	0.058072
186	0xbcad53a7	-0.021158053
187	0xbe0d1048	-0.13775742
188	0xbd90552e	-0.07047497
189	0x3b8dd5f8	0.0043284856
190	0x3d91b279	0.07114119
191	0x3d47e964	0.048806563
192	0x3c8d5461	0.017252149
193	0xbdcf4a0c	-0.10121545
194	0xbdf215e5	-0.11820582
195	0x3d9e230b	0.07721528
196	0x3dab15a4	0.08353737
197	0x3dd6af5f	0.10482668
198	0xbe0d4f79	-0.13799848
199	0xbdc4334c	-0.095800966
200	0x3e16c02d	0.14721747
201	0x3e0257e4	0.1272884
202	0xbd55a002	-0.05215455
203	0xbd104d73	-0.03523011
204	0x3c34ce6d	0.011035544
205	0x3d2c1542	0.04201246
206	0xbdcda6d8	-0.100415885
207	0xbd4cdce2	-0.050015338
208	0x3c0a5a45	0.0084443735
209	0xbc558954	-0.01303323
210	0x3c82b0ee	0.015953507
211	0xbe04bca2	-0.12962583
212	0x3ce93953	0.028469717
213	0xbc4c741a	-0.012478853
214	0xbde5762b	-0.112041794
215	0xbdd02c87	-0.10164743
216	0xbd6991b7	-0.05702373
217	0xbddb7f73	-0.107176684
218	0xbd7c13cf	-0.06154233
219	0xbd5039b8	-0.050836295
220	0xbe00d1a6	-0.12579975
221	0x3d169349	0.036761556
222	0xbd610858	-0.054939598
223	0xbddfaee6	-0.10922031
224	0xbe02f5b1	-0.12789036
225	0xbdc71567	-0.09720879
226	0x3daab02f	0.083343856
227	0xbdba94d9	-0.09110422
228	0xbdaef0d2	-0.085420266
229	0x3d90b26d	0.07065282
230	0x381ac98e	3.6904174e-05
231	0xbd9cedac	-0.0766252
232	0x3daa4684	0.08314231
233	0x3c81fbd0	0.015867144
234	0xbde03bbf	-0.10948896
235	0x3dabfe49	0.083981104
236	0xbd9c2e70	-0.07626045
237	0x3c66aabc	0.014078792
238	0xbdffd305	-0.12491421
239	0xbc530b21	-0.012881071
240	0x3e0a1a8f	0.13486694
241	0x3d3668d9	0.044533584
242	0x3dbca169	0.09210474
243	0x3d1ee7f9	0.038795445
244	0x3cc8b2f4	0.024499394
245	0xbd4bcda4	-0.04975666
246	0xbd9da1a0	-0.07696843
247	0x3d87fb17	0.066396885
248	0x3d2f0814	0.042732313
249	0x3c891e56	0.016738098
250	0x3d5009e4	0.050790682
251	0x3e005833	0.12533645
252	0x3c80344e	0.01564994
253	0x3c52396e	0.012831075
254	0x3dafe3fe	0.08588408
255	0x3cc5b15f	0.024132429

bias f4 [10]
0	0xbe085e20	-0.13317156
1	0xbd9c94bf	-0.076455586
2	0x3c42e15e	0.011894552
3	0xbdbd519b	-0.09244081
4	0xbd6b450c	-0.057438895
5	0xbda3af1f	-0.07992386
6	0xbbcd4089	-0.0062637967
7	0xbdc7afd6	-0.09750335
8	0xbda89c83	-0.08232977
9	0xbb8bc385	-0.004265251
