tudui_5.pth (torch, 588600 bytes, 10 tensors)

weight f4 [32, 3, 5, 5]
000000 69 14 96 bd cc 0e ce 3d 92 c6 54 3d b7 b9 a9 3d
       -0.07328112 0.10061416 0.051947184 0.082873754
000010 d6 d7 82 3b a0 10 8f 3c 8c 8e c8 3c 04 81 88 bd
       0.003993015 0.017463982 0.024482034 -0.06665233
000020 77 ac fa 3d 4c 00 81 bd 47 b8 a2 3d ea 38 a5 3d
       0.12239926 -0.06298885 0.07945304 0.08067496
000030 0d 1a e2 3d 3f d3 81 bd 07 97 3c 3d 92 b2 5e bb
       0.11040125 -0.0633912 0.04604247 -0.0033980948
000040 c9 25 c7 bd df 0d cb 3d 52 3c a6 3d b8 3c bb bd
       -0.09724004 0.09914755 0.08116974 -0.091424406
000050 c9 83 89 bd 64 7d 10 be e4 9b 12 be 2e 78 bd 3c
       -0.06714589 -0.14110333 -0.1431728 0.023128595
000060 23 b6 fc bd 11 7f b7 3d 40 78 42 bd be 61 ff 3d
       -0.12339427 0.08959783 -0.04747796 0.12469815
000070 33 eb 11 3e 88 a2 1c bd 0a eb 4e bd a7 97 0e 3b
       0.14249878 -0.03824094 -0.05051712 0.0021757872
000080 31 02 ae 3d 98 4a ae bd 23 fb 22 3c 00 37 91 bd
       0.08496512 -0.085103214 0.009947571 -0.070905685
000090 73 42 6c bc 65 f1 ac 3d 3d 37 2a bd 4f c8 55 bd
       -0.01442014 0.0844448 -0.041556586 -0.052192982
0000a0 15 3d 8d bd f0 b3 44 3d 6e 95 02 be 62 48 4e 3d
       -0.06896416 0.048023164 -0.12752315 0.050362
0000b0 00 2e c3 bc dd b1 38 bd d4 3f 7e bc 29 90 60 3d
       -0.023825645 -0.0450915 -0.0155181475 0.05482498
0000c0 2e c4 c2 bd 7b 84 37 bb 5c 77 1b 3d 83 a8 7d 3d
       -0.095100746 -0.0028002548 0.037955627 0.061928283
0000d0 f8 0f 02 3e be 48 85 3d b8 a3 04 3e d0 72 78 bd
       0.12701404 0.06508015 0.12953079 -0.06065637
0000e0 9c dc 2e bd b8 6b a7 bd 2d e9 f6 3d df 5f c9 3c
       -0.04269086 -0.081748426 0.120561935 0.024581848
0000f0 52 04 dd bd 70 be e8 bc 10 d8 18 3d ef d9 c0 3c
       -0.1079184 -0.02841112 0.03731543 0.023541419
000100 14 f3 8f 3d b2 46 d5 3d 1f 10 b4 bd ad 00 e5 bd
       0.07028785 0.10413875 -0.08792137 -0.111817695
000110 ca ff a4 3d d4 b5 fa 3c 75 45 3a bd 78 6e f2 bd
       0.080566004 0.03060428 -0.045476396 -0.118374765
000120 98 50 7e 3c 65 23 f8 bd 6d 11 a2 bd 42 5e 3e bd
       0.015522145 -0.12116126 -0.0791348 -0.04647661
000130 a8 84 b6 3d 46 36 07 3e 4d 59 8c 3d f4 57 51 3d
       0.08912021 0.13204297 0.0685297 0.05110927
000140 56 7a 1c 3d fa 5d 48 3e 58 43 04 3e 7b 10 24 3e
       0.038202606 0.19567099 0.12916315 0.16021912
000150 86 b7 14 3e 92 d1 96 3b 17 2c 27 3e f5 20 e3 3d
       0.14523134 0.0046026194 0.16325413 0.110902704
000160 e2 e9 c5 3d a7 96 d1 3d 3d 25 d6 3c 2f 6d 1e 3d
       0.0966375 0.10233813 0.026140803 0.038678344
000170 22 b9 2b 3d 17 df bf bd cc 7c 51 bd a2 1b 3d ba
       0.041924603 -0.09368723 -0.051144406 -0.00072138954
000180 bb 64 f6 bc 1b 56 83 bd 7b dd 92 bd e8 75 d5 bd
       -0.030077329 -0.06412908 -0.0717115 -0.104228795
000190 fa e3 bb bd bc 9b ac bd c4 88 a9 bd dd 37 f8 bd
       -0.091743425 -0.084281415 -0.08278039 -0.1212003
0001a0 82 0d 7a bd 6b 13 81 bd 5f e1 33 bd be f3 5e 3d
       -0.06104804 -0.06302532 -0.043916102 0.05443167
0001b0 bc 5c b8 3d d7 7b d6 3d 14 e9 b4 3d f9 b8 1a 3d
       0.09002063 0.10472839 0.088335186 0.03777406
0001c0 66 dc 84 3d d6 7b 3b bc 5e 57 b6 3d c3 ef f5 bd
       0.0648735 -0.011443099 0.08903383 -0.120086215
0001d0 84 5f 30 be f5 62 3e 3c 7b a3 b5 bd 39 7d 04 bc
       -0.17223936 0.011620273 -0.08869072 -0.008086496
0001e0 fa e7 57 bc fd 84 33 be 55 9b d5 bd 1a 28 92 bd
       -0.013177866 -0.175312 -0.10430018 -0.07136555
0001f0 f5 a2 04 be 45 30 ee bc 80 e3 db bc da 89 f6 bd
       -0.12952788 -0.029075751 -0.026841879 -0.12038012
000200 58 f0 21 3c 7f 93 12 be 9f 00 e3 bc f8 1a a6 3d
       0.009883963 -0.14314078 -0.027710257 0.08110613
000210 b7 af 9f bd 46 6f 8f 3d 65 21 f4 3d b6 5d a0 bb
       -0.07797187 0.070036456 0.11920432 -0.0048939837
000220 e2 9d f3 3d 3c e8 00 3e 6d 27 ff 3b b8 3b 00 3e
       0.11895348 0.1258859 0.0077866823 0.12522781
000230 ea e3 0b be c9 68 0f be ee 0e d8 bd 57 c1 75 bd
       -0.13661161 -0.14004816 -0.105497226 -0.059998836
000240 6a 0a 9e bd 6a b9 e1 bc a8 60 da bd 1f c2 19 bc
       -0.0771683 -0.027554233 -0.10662967 -0.009384661
000250 27 bc 04 bd 64 0a 2f 3c 98 91 a9 3d 10 97 4e bd
       -0.032406 0.01068363 0.08279723 -0.050437033
000260 f2 fa c0 3d 7e 9c 35 3d 5c 59 14 bd b5 20 d6 bd
       0.09422864 0.044338696 -0.036218032 -0.10455457
000270 c9 58 8d bd 9d 4e 83 bd 35 4f 96 3d 51 6d 43 3d
       -0.069017 -0.06411479 0.07339326 0.047711674
000280 96 ff 44 bc 6e 84 72 3d be 83 d8 bd 63 9d fa bd
       -0.012023827 0.059208326 -0.10572003 -0.122370504
000290 83 ea 38 bd 3e 36 06 be 9a b3 2c 3d c8 00 96 bd
       -0.045145523 -0.13106629 0.04216347 -0.07324368
0002a0 d3 5d 8d bd e7 2f ac 3c 4a eb cd bd 81 12 b7 bc
       -0.06902661 0.021018935 -0.100546435 -0.02234769
0002b0 fb 1e 15 3d ac 6f 98 3d 26 37 e7 3c 71 a3 75 3a
       0.0364065 0.07443175 0.028224539 0.0009370363
0002c0 b6 82 10 bd e0 d6 7d 3d 87 05 8e ba 11 c7 81 bd
       -0.035280906 0.0619725 -0.0010835388 -0.06336797
0002d0 db 85 7e 3d 67 79 54 3c 0b 8a a9 bd e4 3c 83 3c
       0.062139373 0.012968398 -0.08278283 0.016020246
0002e0 73 01 ec 3c c6 e6 2d 3c 0a 93 38 3d 26 e3 28 bd
       0.028809285 0.010614103 0.045062102 -0.04123225
0002f0 3a 74 a5 3c e3 7e d1 bd 1c e2 6f 3d fd dc 78 3c
       0.020197023 -0.1022928 0.058565244 0.015189406
000300 66 39 05 bd 5c fd 5c 3b e0 ee 0b be 32 ea a9 bd
       -0.032525443 0.003372035 -0.13665342 -0.08296622
000310 24 8a ef bd d2 72 1b be c9 17 d5 bc ae 84 df bd
       -0.1169627 -0.15180519 -0.026012318 -0.109139785
000320 a7 d1 85 3d d1 4f f3 bc 79 18 ea bb 68 d5 e2 3d
       0.06534129 -0.029701145 -0.0071440306 0.1107586
000330 c0 f9 1e 3e 7c 20 e5 3d 42 b5 23 3e 80 b9 30 3e
       0.1552496 0.111878365 0.15987113 0.17258263
000340 01 32 11 3d 84 fb aa 3c 67 55 80 bd 81 24 d0 3d
       0.035448078 0.020871885 -0.06266289 0.101632126
000350 90 cd ab 3d 40 82 71 3d 59 2b a0 bd 4c 5a b8 3d
       0.08388817 0.058962107 -0.07820768 0.09001598
000360 e6 61 63 3d 8b 77 8c 3d 46 0a f8 3d 3a 52 f5 3d
       0.055513285 0.068587385 0.121113345 0.11978574
000370 e7 db 8d bc 69 10 8f 3c bc 4b 63 bd 50 c0 5e 3c
       -0.017316772 0.01746388 -0.055492148 0.013595656
000380 fc 13 8c 3d 19 98 65 bd 59 88 cf 3c 2c e2 16 3e
       0.06839749 -0.056053255 0.02533357 0.14734715
000390 32 06 c2 3c 17 17 6b 3c 4b f3 24 3c 78 ba a5 3d
       0.023684595 0.014348767 0.010067771 0.08092207
0003a0 15 81 be bd 7c 7f 20 3d 65 c9 8d bd c8 5e 06 be
       -0.09301964 0.03918408 -0.069231786 -0.13122094
0003b0 57 cb 33 bc 7d 0e e5 bd 62 cc 88 3d 17 b7 14 bd
       -0.010973773 -0.11184404 0.06679608 -0.03630742
0003c0 cf 91 d8 bd ae 0d ac bd f0 a9 86 bd e2 ad b9 3c
       -0.10574686 -0.08401047 -0.06575382 0.022665922
0003d0 a3 c6 df bb 43 39 b1 bb 9f 80 8a bd c3 21 4e bd
       -0.0068290993 -0.0054084375 -0.06762814 -0.050325166
0003e0 72 b9 14 be 93 3e 12 be 67 a9 51 3d 7e c0 0b 3d
       -0.14523867 -0.14281683 0.051186945 0.03411912
0003f0 3a 32 92 bd 6c 35 a5 bc 99 85 85 3d db 08 38 bd
       -0.07138486 -0.020167075 0.06519622 -0.04493032

bias f4 [32]
000000 04 48 cd bd 46 b6 ce bc f5 5c d7 bd b2 68 45 3d
       -0.100235015 -0.0252334 -0.10515777 0.04819555
000010 1f 92 b1 bd b2 b9 3c 3e 82 07 0f 3e 71 e1 6b be
       -0.086704485 0.18430212 0.13967708 -0.23035218
000020 9f d2 b8 3d 1e c6 50 3c 34 13 23 3c ec 98 c4 3d
       0.09024548 0.012742547 0.009953309 0.0959948
000030 36 5c b9 be 41 e7 57 3e 51 a1 c5 bd 7d cf a3 be
       -0.36203164 0.2108431 -0.09649909 -0.31994238
000040 08 f9 2b bb a1 84 86 bd 27 f8 67 3e 95 85 59 3c
       -0.0026240963 -0.06568266 0.22653256 0.013276477
000050 2b 92 88 bd 9b b7 2b be 62 a9 0a bc ad f8 c5 3c
       -0.06668504 -0.16769259 -0.008463236 0.02416643
000060 2a ef ce 3c 8c 53 94 b9 43 e7 37 bd 82 50 68 bc
       0.025260527 -0.00028291007 -0.044898283 -0.014179351
000070 17 fd 28 3e c4 e5 4c bd a9 83 e9 bd d9 15 77 bc
       0.16502796 -0.05002381 -0.11402065 -0.0150808925

weight f4 [32, 32, 5, 5]
000000 1b 81 da 3c 67 c4 0e bc 8b ed 88 3a f3 7f d2 bc
       0.02667289 -0.008713818 0.001044677 -0.025695777
000010 a8 7e bc 3c ea 33 0c 3d fb bd 0a bd ca d9 03 bd
       0.023009613 0.034229197 -0.033872586 -0.03219012
000020 a5 a4 e4 bc 99 17 bd bb 76 06 db bc e8 6c 0e 3c
       -0.02791054 -0.0057706353 -0.02673648 0.008692957
000030 2e bc f4 bc 85 c4 7b 3c ca 1a 7c bc e3 e7 ae bc
       -0.029874887 0.015366678 -0.015387246 -0.021350807
000040 05 d0 a0 b9 be 74 fc 3c ad 80 b2 bc 13 a2 d9 bc
       -0.00030672565 0.030817386 -0.021789873 -0.02656654
000050 ed 48 dc 3c 55 1e af bc 2f a1 08 3d 5d a0 1d bc
       0.026890242 -0.021376768 0.03335684 -0.009620753
000060 ea 28 86 bc a6 8f 0d bd 57 2c 03 bd c2 2b cc 3b
       -0.016376931 -0.034560822 -0.032024708 0.0062308023
000070 25 f5 70 3c 75 54 c0 3c ea 99 d2 bc b6 a4 da 3c
       0.0147068845 0.023477772 -0.025708158 0.026689868
000080 81 49 1e 3c 2f 60 c6 3c b9 33 05 bd c9 9d 3e 3c
       0.009661079 0.024215786 -0.03252003 0.011634299
000090 10 21 e6 bc 33 7f 4f bb 0d 85 c5 3c 0d 76 fe bc
       -0.028091937 -0.003166151 0.024111295 -0.03106215
0000a0 5c 3c 55 bc 6d e7 58 3c 46 47 dd 3c c3 98 a1 3c
       -0.013014879 0.01323877 0.027011525 0.019726163
0000b0 56 aa f1 3c a1 8e 5f 3c ab 1d 2c bc d1 c0 c2 bb
       0.029500168 0.013644845 -0.01050512 -0.0059433957
0000c0 67 1b 5b 3c e1 c6 9e 3a 40 5a f5 bc 47 7a c0 bc
       0.013373232 0.0012113714 -0.029950261 -0.023495806
0000d0 98 f8 8b bc f8 ab d1 38 50 6f b7 3b 15 2e c4 bc
       -0.017086312 9.997928e-05 0.0055979863 -0.023947755
0000e0 44 36 cf bc f3 9c 46 3c d8 f8 d9 bc 1e b0 82 3b
       -0.02529443 0.012122381 -0.026607916 0.00398828
0000f0 14 4b 6b bc 70 f8 83 bc 3a 65 16 bd e2 39 2f bd
       -0.014361162 -0.016109675 -0.03671763 -0.04277981
000100 76 d3 09 bd 35 5b 1d bd fc 4b 1b bd b2 59 2c bb
       -0.03364893 -0.03841706 -0.03791426 -0.002629858
000110 1a 2e 41 ba 8a 01 06 bd bb 69 6e bc c6 2e a8 39
       -0.00073692354 -0.03271631 -0.014551575 0.00032078306
000120 f8 7f 72 3b cf 66 9d 3c 68 58 08 3d c8 f8 83 3c
       0.0037002545 0.019214062 0.033287436 0.01610984
000130 de 22 35 3b 9a 7b f8 bc 62 72 c4 bc 2e 8e fe bc
       0.002763919 -0.030332375 -0.023980323 -0.031073656
000140 c0 be f4 bc de 75 ba 3c 47 81 24 3c de e6 9c bc
       -0.029876113 0.022761282 0.010040588 -0.019153055
000150 8b a3 f0 bc cd 50 53 bc 96 a9 bb bc 6d a7 84 bc
       -0.029374858 -0.012897682 -0.022908013 -0.016193116
000160 e1 c2 2a bd fb 6c ee bc 5b 99 e9 bc 47 18 20 bd
       -0.041689757 -0.0291047 -0.028515508 -0.039085653
000170 d4 0a d9 3b 58 9b 27 3c 2a 18 d9 3a 03 3b 4e bc
       0.0066236053 0.010229908 0.0016562988 -0.012587312
000180 3f f5 d9 3c 46 b9 78 bc 32 07 b4 bc 06 14 e2 3b
       0.0266062 -0.015180891 -0.021976087 0.0068993596
000190 f4 7c ca bb 12 8a 07 3d ad 95 b7 bc 3b 27 d7 bc
       -0.0061794464 0.03309066 -0.022410238 -0.026263824
0001a0 ba 2f ee 3c bd 38 3c 3c 44 73 e8 3b bc 26 a3 3c
       0.029075492 0.011488137 0.007093819 0.01991593
0001b0 8b be 0f bc 57 48 58 3c 3f de 80 39 25 05 27 bc
       -0.008773456 0.013200841 0.0002457965 -0.010194098
0001c0 0f f7 ab bc a8 45 b9 3c 7e 7e 70 bb 43 30 6b 3c
       -0.02099183 0.022616223 -0.003669649 0.014354768
0001d0 2e 96 04 3d a2 16 9b 3b f7 92 00 bd f6 99 ae 3c
       0.032369785 0.0047329227 -0.031390157 0.021313649
0001e0 2a 43 25 3d d3 5a a8 bc 1a 80 fe 3c a6 f9 0b 3d
       0.040347256 -0.02055112 0.031066943 0.03417363
0001f0 7c 15 d9 3c 78 e1 15 3c 4a 5c a4 bc 58 57 10 bd
       0.026499502 0.009147994 -0.020063538 -0.035239547
000200 2e e1 7b bc 5b 82 38 3c 02 78 bf 3c 99 2c e6 bc
       -0.015373511 0.011261548 0.023372654 -0.028097438
000210 7a fe 73 bb bd ff 41 bc 6c cb 98 39 e3 01 10 bd
       -0.0037230537 -0.011840758 0.0002914326 -0.03515805
000220 45 44 a6 3c a9 8a f9 bb 6a 96 12 bc ef 8b 14 3c
       0.020296225 -0.0076154065 -0.008946994 0.009066566
000230 a7 c0 e6 bc 10 6f 12 3c 62 c2 ba 3c 92 8a 39 3c
       -0.028168036 0.008937612 0.022797767 0.011324542
000240 2a ff 7b bc f0 e1 fa 3c 72 4c c3 3c db a9 47 3d
       -0.01538066 0.030625314 0.023840163 0.04874597
000250 32 3f 1d 3c 69 2b a3 3b 3f 70 5c bc 0b aa c0 bc
       0.0095975865 0.00497954 -0.013454496 -0.023518583
000260 a6 3c c3 3c 56 c7 c7 39 80 0d be 3c a4 72 97 3c
       0.02383263 0.00038104755 0.023199797 0.018487282
000270 23 35 13 bd 90 23 8c 3c 53 e4 06 bd d5 a2 d6 bc
       -0.035939347 0.017106801 -0.03293259 -0.026200691
000280 96 1c bc 3c f0 a3 2e bd 71 b7 e5 bc a3 a6 c4 3c
       0.02296285 -0.04263681 -0.028041573 0.02400524
000290 e3 1d 24 bb 5c 84 48 bc 23 83 a6 bc a8 6e 38 bd
       -0.0025042228 -0.012238588 -0.020326203 -0.045027405
0002a0 f7 0f 39 bc 52 f6 bf 3b 64 e4 af bc 0a 5d c1 bb
       -0.01129531 0.005858221 -0.02147121 -0.0059009837
0002b0 c3 f9 20 bd 47 db 04 3c 89 e2 f0 bc b1 46 1a 3a
       -0.03930069 0.00810892 -0.029404895 0.00058851676
0002c0 79 1c 55 bc fb 86 e6 bc 6d 6d d1 3c 16 48 df 3c
       -0.013007277 -0.028140536 0.025564874 0.027256053
0002d0 f3 66 a1 bc fb 30 19 bc f7 d4 00 3d 2a 33 72 3c
       -0.01970241 -0.009350057 0.0314531 0.014782706
0002e0 9d 56 85 bb 81 8a b6 bc e8 d9 a6 bc c7 57 b0 bc
       -0.004069163 -0.02228284 -0.020367578 -0.02152623
0002f0 6d 1f 09 3c 35 3e 04 3d e6 12 f9 bc 01 7a 15 bd
       0.008369309 0.032285888 -0.03040452 -0.036493305
000300 97 7d ea 3c f1 67 a8 bc 38 12 d6 3c 45 02 07 bd
       0.028624339 -0.020557376 0.026131734 -0.03296115
000310 eb 1b 16 bd 82 61 58 3c e9 b0 34 bc 5f 0d ba 3c
       -0.03664772 0.013206841 -0.011028507 0.022711454
000320 b6 ef 57 3c 9c 2c 59 ba a0 73 da 3b 74 2f f4 bc
       0.01317971 -0.00082845404 0.0066666156 -0.029807784
000330 f7 59 e6 bc 25 43 ae bc fe a7 a7 bb 95 55 b6 3c
       -0.02811907 -0.021272251 -0.005116462 0.022257606
000340 14 13 98 3c e2 7d b9 bc b2 f3 a9 bc 42 41 7d 3a
       0.018563785 -0.022643033 -0.020746086 0.0009660908
000350 46 a8 06 3b 74 e2 c1 bc 54 97 cc bc d0 9e 8f 3c
       0.0020547076 -0.023667552 -0.024974503 0.017531782
000360 dd 32 4a 3c e0 f9 b5 bb c1 2a 00 bd 10 7d 92 3b
       0.012341228 -0.005553469 -0.031290773 0.004470475
000370 3a 08 b0 3c d3 58 d4 3c d2 8e c9 bc cc 8b 18 bc
       0.021488298 0.025921261 -0.024604235 -0.009310674
000380 bc e6 f1 3c 04 c3 62 bc 89 4e df 3c fa 83 38 3c
       0.029528968 -0.013840441 0.027259128 0.011261934
000390 3b 90 89 bc 2f b2 a0 bc 95 66 34 bc 5a a8 fe ba
       -0.016792407 -0.019616215 -0.011010786 -0.0019428835
0003a0 19 86 9e bc c0 6e 76 bc f2 4f 2f bc ff 92 de bc
       -0.019351052 -0.015041053 -0.010700213 -0.027169703
0003b0 5f b1 54 bc f8 5e ba 3a 40 f6 34 bd 62 11 76 bc
       -0.012981742 0.0014218977 -0.044180155 -0.015018793
0003c0 a9 c3 bb bc 33 bc 44 bc 78 bd b6 3b df e4 6b 3c
       -0.022920446 -0.012007761 0.0055767857 0.014397829
0003d0 aa a2 af bc be d0 18 3a ba a7 f2 3a c2 22 a2 3c
       -0.021439869 0.0005829445 0.0018513121 0.019791964
0003e0 d3 d4 99 3c 14 82 54 3b cd 76 97 bc ee 89 f4 bc
       0.01877824 0.0032426165 -0.018489266 -0.029850926
0003f0 97 65 9e 3c 02 54 1f bd 4c 27 56 bc 34 ec e8 bc
       0.019335551 -0.038898475 -0.013070893 -0.028432943

bias f4 [32]
000000 2e bd 7a bd fd 98 01 bd 3a 1d 78 3d 6e dd 77 bd
       -0.061215572 -0.03164004 0.060574748 -0.060513906
000010 8d 12 81 3d 9c 96 40 3d 52 5d 05 ba 8f b1 9e 3c
       0.063023664 0.047018632 -0.0005087453 0.019371776
000020 95 d5 a8 3c 94 ea 89 bd 70 86 9a bd 36 07 99 bd
       0.020609656 -0.06734195 -0.07545173 -0.074720785
000030 37 9c 1c bd 76 32 7a bd 6c df 88 3c bf 75 ad bd
       -0.038234916 -0.06108328 0.016708098 -0.08469724
000040 84 c5 dc bb a7 f7 73 bd b8 d8 7d 3d a0 1a 29 bd
       -0.006737413 -0.05956235 0.061974257 -0.041285157
000050 10 3b ef bc d0 11 50 bd b9 70 c9 bd 35 6a a9 3d
       -0.029202968 -0.050798237 -0.09835953 0.082722105
000060 c9 76 6f 3c 9c 35 c2 bc 51 48 10 bd a7 24 1d bd
       0.014615723 -0.023707204 -0.035225216 -0.038365033
000070 aa 0a 19 bd 25 83 44 3d 7c 3c 61 bc 41 81 61 bc
       -0.037363686 0.04797663 -0.013747331 -0.013763727

weight f4 [64, 32, 5, 5]
000000 bf 29 a2 bc 6d 65 c4 3c 65 85 eb bb 57 4e 13 bc
       -0.019795297 0.023974145 -0.0071875327 -0.008990846
000010 b8 59 cb 3b e6 c0 8f bc 92 a7 7a 3b 09 16 d1 bc
       0.0062057637 -0.017548036 0.0038246852 -0.025523202
000020 3a 1c 8c bb ae 90 b7 3c e7 bc 08 3d 9c ec 88 3c
       -0.004275826 0.022407856 0.033383276 0.016714387
000030 e1 34 47 bc ad 9a 03 3d 1f 3d 10 3d 01 e4 f5 bc
       -0.012158603 0.032129932 0.03521454 -0.030015947
000040 19 a8 0f 3d 64 66 d0 ba 12 e6 e7 bc 64 79 e5 bc
       0.03507242 -0.0015899655 -0.028307948 -0.028011985
000050 c9 0e 76 bc be 12 0d bd d7 03 4d bc 2b 08 ad bc
       -0.0150181735 -0.034441702 -0.0125131225 -0.021122059
000060 15 8e fe 3b 39 d5 81 3c b6 24 b4 bb 98 21 51 3a
       0.0077684023 0.015848743 -0.0054975403 0.0007977723
000070 71 c1 88 bb 31 00 e7 3c e8 4c f7 bc 75 de d6 bc
       -0.0041734506 0.028198333 -0.030188039 -0.026229123
000080 0e 29 76 3c a8 8b 3c bc 10 62 3a 3d 77 3a 8a bc
       0.015024437 -0.011507906 0.045503676 -0.016873581
000090 4b c3 3c 3c 94 e7 fd 3c 0b 68 42 3d b3 9a 60 bb
       0.011521171 0.030994214 0.047462504 -0.0034271895
0000a0 8c 42 d6 bb 42 cf 53 3d aa fe 8f bc 33 1d 99 3c
       -0.0065386947 0.05171133 -0.017577488 0.018690681
0000b0 bb 91 a9 3b 18 cc 8b 3c b3 ed 2a bc 49 ef 86 bc
       0.005174843 0.017065093 -0.0104326485 -0.016471522
0000c0 98 35 a5 bc c0 f3 8f 3c 54 63 70 3c 22 3d 1d bd
       -0.020167157 0.017572284 0.014672119 -0.03838838
0000d0 80 56 c1 bc 29 64 0f 3c 8a a5 1d 3d f8 ef 27 3d
       -0.023600817 0.008751907 0.03848795 0.041000336
0000e0 27 58 b3 bb 1e 87 2f 3c 8e b1 38 3d d2 4f 2f 3d
       -0.005473155 0.010713367 0.045091204 0.042800732
0000f0 01 ae dd 3c 08 81 e9 3c 79 fb 30 3d 14 e1 2a 3d
       0.02706051 0.02850391 0.043208573 0.041718557
000100 e1 6a 3b bd 16 fe 8e 3c 8a d9 c3 bc 49 13 30 bd
       -0.045756225 0.017455142 -0.023907442 -0.04298714
000110 de 8a 3b bb ec b1 cd bc a5 82 e5 3c 47 7e 7f bc
       -0.0028616707 -0.025109254 0.028016398 -0.015594072
000120 d2 4c bf bc 6f 42 27 3d 15 71 36 3b fd 31 f4 bc
       -0.02335206 0.04083484 0.0027838398 -0.029808993
000130 86 0a 7b 3c 0a 0d 41 3c 67 e2 be bc 81 3d 8d bc
       0.015322333 0.011782894 -0.023301316 -0.017241241
000140 e8 5e 82 3c 11 49 29 bd bd 6b 36 3c 77 16 1e 3c
       0.015914395 -0.041329447 0.011134085 0.009648911
000150 35 44 ee bb 30 19 00 bd ce bc 83 3a 52 6d 89 3c
       -0.0072713145 -0.03127402 0.0010050775 0.01677576
000160 dc 5c 9c 3c 39 54 42 bc ed 29 8e 3c 7e ba eb bc
       0.019087248 -0.011860901 0.017353976 -0.02877545
000170 a0 0c 8d bc 9d 50 91 bb 00 a2 f0 3c ec 95 8f bc
       -0.017217934 -0.0044346587 0.029374123 -0.017527543
000180 03 36 6b 39 d4 71 0d 3d f8 8d d5 3c 11 4b d9 bc
       0.00022431467 0.034532383 0.026068673 -0.026525052
000190 d6 c8 75 bc d6 a0 5c bc 7d e5 c6 3b ac 47 67 3c
       -0.015001496 -0.013466081 0.0060698376 0.014116209
0001a0 5e 6e 88 3c c6 24 dc bc 6f 2f f1 bc 26 d7 07 bd
       0.01665419 -0.026873004 -0.029441563 -0.033164166
0001b0 ae c7 51 3c 24 e8 65 3d 1f bf 58 bc a6 cb 1c bb
       0.012803955 0.05612959 -0.013229161 -0.0023925095
0001c0 49 f1 26 3d 29 b8 93 3c 34 78 80 3c 4c 96 4c 3a
       0.04075745 0.01803215 0.015682317 0.00078043784
0001d0 9e 23 8f 3c bf f0 31 3c a7 12 08 bd b9 2a a7 bc
       0.017473038 0.010860621 -0.033220913 -0.020406114
0001e0 50 d6 97 bb d2 71 77 bc 8f 14 c7 bc 4d 43 ba 3b
       -0.0046337023 -0.0151028205 -0.024301795 0.0056842924
0001f0 19 2b 1e 3d 78 27 6b 3b 56 ad b9 3c 00 27 75 3c
       0.03861532 0.003588168 0.02266566 0.014962912
000200 10 b1 14 3c 53 c0 20 bc 06 60 5b 3c a6 f1 f1 3c
       0.009075418 -0.009811479 0.013389593 0.029534172
000210 d5 b9 e4 3c 74 ce a6 3b b5 e2 eb bc f5 c6 e3 3c
       0.027920643 0.005090529 -0.028794626 0.027804831
000220 2a c4 d9 3c 91 f5 5b bc b9 9e b9 bc 48 d7 06 bd
       0.026582796 -0.013425247 -0.022658693 -0.032920152
000230 59 b4 08 bc 24 c8 e2 bc 75 e0 66 bc 1f 7b 99 bc
       -0.0083437795 -0.027683325 -0.014091601 -0.018735467
000240 5a cd d3 b8 a9 58 11 3d d8 09 7c bc 55 a3 36 3d
       -0.00010099514 0.035484944 -0.015383206 0.04458936
000250 a9 67 a8 3c 22 15 cb 3c 99 70 37 bc f3 4a b1 3c
       0.020557242 0.02479035 -0.011196279 0.021642184
000260 0a de 02 3d 23 03 d2 bc 3b 00 11 bc 1f ed eb 3c
       0.031950034 -0.025636261 -0.008850153 0.028799592
000270 84 bc a4 bb 2d 72 bc 3c 59 fa 55 bc b7 da af bc
       -0.0050273556 0.023003662 -0.013060176 -0.021466596
000280 8a b8 51 3c f4 5f 0d 3c 1a 3c 64 bb ed 8a cd bc
       0.012800345 0.008628834 -0.0034825862 -0.025090659
000290 2b a7 a5 bb cb dd 3b 3b e3 69 19 bd 62 15 b0 bc
       -0.0050553284 0.0028666134 -0.037454497 -0.021494571
0002a0 e9 6e 08 3c 8b ce c2 bc 06 02 8a 3c 60 4c a9 bc
       0.008327224 -0.023780128 0.016846668 -0.020666301
0002b0 1e c0 33 3c 33 73 c2 bc 1d 94 c2 3a ac 5f 39 39
       0.010971097 -0.023736572 0.0014845167 0.00017678615
0002c0 c3 d0 03 3d b9 26 29 bc 28 a1 9d bc de 4a 30 3d
       0.032181513 -0.010324174 -0.019241884 0.04304015
0002d0 b5 1c 95 3c 49 0c 57 3d c1 b9 00 3d 02 7c 39 3c
       0.018202165 0.05250195 0.03142715 0.01132107
0002e0 49 43 02 3d 34 7a 0d 3d 09 3c 2d 3d 30 55 2b 3d
       0.03180245 0.03454037 0.042293582 0.041829288
0002f0 2b 2f 10 3d ff 4f 2e 3c fe 22 c6 bc 83 a0 51 bd
       0.035201233 0.01063919 -0.024186607 -0.051178467
000300 f2 3e e9 3b 03 16 e9 bc 14 00 25 bd 96 a3 24 bd
       0.0071180994 -0.028452879 -0.040283278 -0.04019507
000310 b2 f3 40 bd 98 0e 05 bd 36 5a 01 3d b1 78 86 3c
       -0.047107406 -0.03248462 0.031580172 0.016414972
000320 d1 dd 98 3c 80 3c 12 bb af 36 8f bc cc b1 0e 3c
       0.018660458 -0.0022313893 -0.01748213 0.008709382
000330 7e 49 0d bc 58 38 80 3c 55 92 ca bc 4c 9c 16 3d
       -0.008623479 0.015651867 -0.02472798 0.03677015
000340 5b d2 d5 3c f1 88 62 bc 12 07 fd bc e2 21 8b bc
       0.026101282 -0.013826595 -0.03088716 -0.01698393
000350 4c 37 b0 bc 24 b9 33 3c b1 a1 e3 bc 96 99 26 bd
       -0.021510743 0.010969434 -0.027787061 -0.040673815
000360 d7 2f 89 3c 4a 75 ed 3c 44 a7 bc 3a 13 f7 05 bd
       0.016746445 0.028986592 0.0014393111 -0.03270633
000370 7a 70 01 bd 43 26 15 bd 93 29 24 3d cf ab c5 3c
       -0.031601407 -0.036413442 0.04007871 0.024129776
000380 13 77 20 3d 8f fa fa bc 29 c9 45 3c 06 72 ab bb
       0.039176058 -0.030637054 0.012071886 -0.0052320985
000390 55 e9 92 3c f9 fa c1 bc ce 36 e8 ba a2 65 0a 3c
       0.017933527 -0.023679243 -0.0017716528 0.008447083
0003a0 86 ea 54 3d 35 6a ad bc 16 53 e7 bc d2 bf a8 3c
       0.05198147 -0.021168808 -0.02823786 0.02059928
0003b0 14 8c 83 3c a8 b1 cb 3b 47 36 c7 bc f8 48 21 3b
       0.016058005 0.0062162466 -0.024317874 0.0024610143
0003c0 50 ed 07 bd 3b b7 96 3c 0c fd 81 3c 85 02 14 3b
       -0.033185303 0.018397918 0.015867732 0.002258451
0003d0 87 9c ba 3c ca 84 1a bd 85 58 df bb f4 f0 da bc
       0.022779716 -0.037724294 -0.0068159723 -0.026726224
0003e0 cd c1 05 bd 8b 95 06 bd df f5 67 3b 6b 4d 93 3c
       -0.032655526 -0.03285746 0.0035394353 0.017981252
0003f0 13 a7 61 3c 2d cd 10 3c 4b 3d 13 3c 38 82 61 bc
       0.013772744 0.00883798 0.008986781 -0.013763957

bias f4 [64]
000000 c8 61 06 3c e1 7a 5b bb b8 45 7f bc 17 42 9c bc
       0.008202024 -0.003348999 -0.015580587 -0.019074483
000010 05 54 84 3c 88 b4 21 bd 16 cf 8a bd 15 ea 31 3a
       0.016153345 -0.03947881 -0.0677778 0.0006786895
000020 3e 67 99 3c 1e 13 5e bc 16 8d 13 bc 0d 66 0c bc
       0.018725988 -0.013554363 -0.0090058055 -0.008569253
000030 98 04 dd bb eb 60 20 bd 2f cb 77 bc 4f 2d 1e bd
       -0.0067449324 -0.03915493 -0.015124126 -0.03861743
000040 1d 06 88 bd 58 a4 af 3c 9c 3c d1 bb 2d 3f 63 3c
       -0.06641791 0.02144067 -0.006385399 0.013870043
000050 c4 41 37 bd 8f 91 8d bd e0 63 5d bc 2a 52 87 bc
       -0.044740453 -0.06912529 -0.013512582 -0.016518671
000060 38 da 01 bd fe 97 34 bd 8b 69 da bc 80 db 44 bd
       -0.03170225 -0.044090264 -0.026661655 -0.048060894
000070 fc e0 c8 bc 12 51 63 bc 63 70 f4 3c c0 bf a6 3b
       -0.024521343 -0.013874309 0.029838746 0.0050887764
000080 00 35 b5 bc 20 ca ca 3c cc 91 08 3d e8 8f 5b bb
       -0.022119999 0.024754584 0.033342168 -0.0033502523
000090 f5 91 91 bd f6 f1 89 3c 47 9e 01 3c a3 ed 9d 3c
       -0.07107917 0.016839009 0.007911271 0.019278353
0000a0 78 7e 35 bc a0 e8 15 bd 99 fe 1d bd 17 48 7b 3c
       -0.011077516 -0.0365988 -0.03857288 0.015337012
0000b0 84 9d 65 bc d0 ab 09 bd 97 dc 9d bd f0 8a 34 bc
       -0.014014605 -0.03361112 -0.0770809 -0.011019453
0000c0 01 bd 7c bd 6e 18 67 bd 48 3d 4a 3c 64 e9 6b 3b
       -0.061703686 -0.056419782 0.012343712 0.0035997266
0000d0 eb 67 36 bd bd 28 83 bc da 67 b6 3c 03 e8 79 3c
       -0.044532698 -0.016010636 0.022266317 0.01525307
0000e0 e0 93 50 bd 16 16 02 3c bf 34 02 bd 42 04 84 bc
       -0.050922275 0.007939836 -0.031788584 -0.016115312
0000f0 21 86 79 bd 2f f2 15 bd d7 8d 4a bb 40 95 52 bd
       -0.06091893 -0.036607917 -0.0030907297 -0.051411867

weight f4 [64, 1024]
000000 26 df c4 3c 5c 63 3e bb 78 e9 81 bc b6 c6 95 bc
       0.024032187 -0.0029050922 -0.015858397 -0.01828323
000010 44 46 18 3c 81 68 3c bc 8b ae 20 3d 0f 67 43 3c
       0.009294096 -0.011499525 0.039228957 0.011926427
000020 86 f1 9e 3c 4f 45 8d bc 4c 78 13 bc c6 56 27 3c
       0.019402277 -0.017244963 -0.009000849 0.0102135595
000030 9e 48 17 bd 1c 79 1f bc 7e 69 a0 bc 70 79 bf bc
       -0.036934488 -0.009733465 -0.019581553 -0.023373336
000040 ac 60 b8 3c d0 40 71 bc f0 00 ea bb 67 ea df bc
       0.022507034 -0.014724925 -0.007141225 -0.027333451
000050 c1 73 37 bc 2a f3 10 bc 5a 35 f2 3b b2 fe bc bc
       -0.0111970315 -0.008847037 0.007391614 -0.023070667
000060 5d 39 17 bd 3f 21 30 3c a8 a5 8a 3c 15 fd 13 bd
       -0.03691994 0.010750114 0.016924694 -0.03613003
000070 17 62 8d bb f8 99 b0 bb 68 66 c5 3b f0 22 6d 3c
       -0.0043146717 -0.0053894483 0.0060241707 0.014473662
000080 cc 4f 8c bc ec 85 11 bc c7 33 01 bb 56 19 86 bc
       -0.017127894 -0.008882027 -0.00197147 -0.016369503
000090 84 fa d4 bb f9 26 b0 3b 0e 72 98 b9 6b ee 35 bd
       -0.0064995904 0.0053757397 -0.00029076677 -0.044416826
0000a0 86 3a c6 3c fa 86 a8 bb 53 47 cd 3c 23 88 b7 bc
       0.024197828 -0.0051430436 0.025058424 -0.022403782
0000b0 a7 7c c0 3b c5 f3 1b bc 35 cc 45 3c 20 96 e6 bc
       0.0058742347 -0.009518568 0.0120726125 -0.028147757
0000c0 7b a3 41 bb 20 ed b9 bc 6a 8b 79 3b bd 0f 15 3c
       -0.0029546905 -0.022696078 0.0038077482 0.009097991
0000d0 23 49 ad 3b df d7 d0 3c 51 10 92 bc b2 dc 0e 3c
       0.0052882596 0.02549356 -0.017830046 0.00871961
0000e0 20 2b 46 3d 44 84 36 3c 72 bf 92 bb 0d e6 c9 3c
       0.04838097 0.011139933 -0.0044783885 0.02464583
0000f0 60 eb 55 bc a0 d5 97 bc 91 58 ac bc 36 6d de 3c
       -0.013056606 -0.018534482 -0.021038326 0.027151685
000100 44 25 97 ba 1e af 11 3d 1b ab a5 3c a8 ae c5 bc
       -0.0011531492 0.035567395 0.020223191 -0.024131134
000110 1a 86 e8 3c fb f7 6a bc a3 77 85 bb 04 47 c4 3b
       0.028384257 -0.01434135 -0.0040730997 0.005989911
000120 6b 74 cf 3b 74 75 9e 3b 4a bd 4e 3c 6b 73 8a 3b
       0.006331017 0.004835779 0.012618372 0.0042251847
000130 43 31 a4 3c 10 da fd bc bc 78 f2 bc 41 2d f7 bb
       0.020043021 -0.03098777 -0.029598586 -0.0075432365
000140 4e 28 66 3c a8 2e 1b ba a4 19 96 3c d9 df ae 3c
       0.014047695 -0.0005919733 0.018322773 0.021346973
000150 63 b5 09 bd f8 17 d3 bc f5 4f aa 3b c2 1c 3d 3c
       -0.03362025 -0.025768265 0.00519752 0.011542501
000160 48 00 b2 bc b0 32 d0 b9 4c a5 95 3c 30 7b 07 38
       -0.02172865 -0.00039710617 0.018267296 3.2301235e-05
000170 77 f9 96 3c 80 d7 06 3d 49 31 a8 3c fd 54 47 bc
       0.018429501 0.03292036 0.020531313 -0.012166259
000180 af 25 04 bd d0 fa 9b bc f4 31 c0 3b 6f 4b 17 bd
       -0.0322625 -0.019040495 0.00586533 -0.036937173
000190 8e 83 1a 3c 97 6a ca bb a0 02 bc bb fc 57 30 bd
       0.009430779 -0.0061772573 -0.0057376176 -0.04305266
0001a0 d6 45 ff 3a 0c 84 82 3a 21 c0 25 3a 5a 4c cf ba
       0.0019475769 0.0009957566 0.000632288 -0.0015815601
0001b0 12 91 73 3c 9d ec 5c 3c 9b 26 6c bc ab ba a8 3c
       0.01486613 0.013484147 -0.014413501 0.020596823
0001c0 e0 f4 01 bd 67 d6 10 3d 3d 4a d8 3c 16 a7 6a 3c
       -0.03172767 0.03536072 0.026402587 0.014322063
0001d0 d6 f1 21 bd 67 b2 a4 bc e2 b0 83 3c 91 4c 0f bd
       -0.039537273 -0.0201046 0.016075555 -0.03498513
0001e0 7a 4a 44 bd 72 5f 16 3c 38 50 52 bd 64 83 55 bd
       -0.04792259 0.009178029 -0.051346034 -0.052127257
0001f0 02 90 60 bc c7 68 1f 3c ff b7 19 bb cd 77 a3 3b
       -0.013706209 0.009729571 -0.0023455617 0.0049886466
000200 63 dd 60 3c e6 b1 62 3c 25 40 4e 3c 63 24 aa 3c
       0.013724658 0.01383636 0.012588535 0.020769304
000210 ec b7 98 3c fc 54 7a bc 57 ab 35 bc b6 a7 97 3c
       0.018642388 -0.015279051 -0.011088214 0.018512588
000220 5a 78 9f bc 0e e6 c1 3c 9b 37 16 bd a3 c3 aa bb
       -0.019466568 0.023669269 -0.036674123 -0.00521131
000230 ae 4d bf bc bd 47 1a bd 0c c3 17 bd da d3 6b bc
       -0.02335247 -0.03766607 -0.037051246 -0.014393771
000240 ad 3f c4 3c 7b 5d a4 bc 2e 56 55 bb d1 24 81 bc
       0.023956144 -0.020064106 -0.0032552588 -0.015764626
000250 83 6e 83 bc af bb 44 3c 72 c2 b1 ba 93 8a ea bc
       -0.016043907 0.012007638 -0.0013561978 -0.02863053
000260 44 7f 1c bd f3 04 cf bc 5d 0c f2 bc 3b 01 ce 3c
       -0.038207307 -0.025270915 -0.02954691 0.025147071
000270 9d 58 f8 3c aa a1 da bb 73 b1 42 bc 95 0b da 3c
       0.030315692 -0.006672104 -0.0118831275 0.02661685
000280 94 4c ae 3c 47 9d 82 3c 62 ac a1 bc 7a 9f e6 3c
       0.02127675 0.015944136 -0.019735519 0.028152216
000290 c4 63 c7 3c 53 88 fa 3c d7 6b 19 3d 7d cb 09 bc
       0.024339564 0.030582583 0.03745636 -0.008410332
0002a0 bb f5 fc ba 10 a8 d4 bc d4 ff ad bc bf eb 8c 3c
       -0.0019299308 -0.025959045 -0.021240152 0.017202256
0002b0 e4 03 5a 3c bb b2 99 ba bd 93 8c 3b d2 8b 30 3c
       0.013306592 -0.001172624 0.0042900727 0.010775523
0002c0 c6 f4 02 bd 6a 18 15 3b c1 98 bb bc b1 49 72 3b
       -0.031971715 0.0022750148 -0.022899987 0.0036970193
0002d0 64 c3 6e 3c 72 91 e6 3c cd fa 99 bb a6 ad b1 bc
       0.014572952 0.028145526 -0.0046990872 -0.021689247
0002e0 5f ee 03 bc c9 93 25 39 22 e3 01 3c 92 75 af 3c
       -0.008052438 0.0001579068 0.007927688 0.021418367
0002f0 b6 86 75 3c 73 da 98 3c cc e7 69 3b c9 a5 02 3d
       0.014985731 0.018658852 0.003569114 0.031896386
000300 d0 7d db 3c bb eb eb bb b3 36 37 3c 65 ae a1 3c
       0.02679339 -0.007199732 0.011182475 0.019736478
000310 06 68 e1 3c 1f 21 2f 3d ef b8 9f 3c 56 fc cc bc
       0.027515423 0.042756196 0.019497363 -0.025022667
000320 40 44 51 bc 1e 8e cf 3c 19 81 33 bc b6 b4 e3 bc
       -0.01277262 0.025336321 -0.010956072 -0.02779613
000330 c0 48 a4 bb 34 83 88 3c 73 1b b6 3b de 6f c5 bc
       -0.0050135553 0.016664125 0.0055574714 -0.024101194
000340 42 3c 7a 3b 4a f5 31 bc 46 5b ac 3c 24 41 b4 bc
       0.003818289 -0.010861704 0.021039616 -0.022003718
000350 71 7c 85 bc 38 92 de 3c ee cc d3 3b db 25 65 3c
       -0.01629469 0.027169332 0.0064636385 0.013986076
000360 58 d7 83 3c 19 14 2c bc ca a8 34 3c 42 97 97 bc
       0.016093895 -0.0105028385 0.011026571 -0.018504743
000370 44 b2 9d bb f2 91 f7 bc df 5b 33 bc 5a 61 12 3b
       -0.0048125107 -0.03022096 -0.010947197 0.0022335858
000380 e8 cd 6c 3c 6f 6f 6d 3c 7a 1e ea 3c 92 4a 8e 3c
       0.014453389 0.0144919 0.028578985 0.017369542
000390 6e 96 61 bc af 3a d6 3c 17 28 c3 39 2b 47 67 bb
       -0.013768775 0.02615103 0.00037223168 -0.0035290222
0003a0 68 66 b8 bc b6 89 9b bb 96 7f 67 39 41 23 ec 3c
       -0.022509769 -0.004746641 0.00022077406 0.028825404
0003b0 ff 79 61 3c d6 88 e7 bc a8 91 da bc 69 1f a2 bc
       0.013761996 -0.02826349 -0.026680782 -0.019790368
0003c0 23 90 9c 3c 27 87 3c 3c a0 82 e4 bc 81 f2 8b bc
       0.019111698 0.011506832 -0.027894318 -0.017083408
0003d0 2e 44 dc bc 61 6e a1 3c 3c 82 26 3c 40 66 4e 3c
       -0.02688798 0.019705953 0.010162886 0.0125976205
0003e0 fc 4f 2c 3b 47 62 7c ba 4a f2 b1 bc a0 e6 c3 bc
       0.0026292792 -0.00096276816 -0.021721978 -0.023913682
0003f0 35 2f 00 3d 89 ed 88 bc 9b 32 1b 3d c8 70 07 3c
       0.03129502 -0.016714828 0.037890058 0.008266635

bias f4 [64]
000000 68 b8 f8 3c 9a ef e9 38 f2 5f 38 3c 83 a7 78 3c
       0.03036137 0.00011154935 0.011253344 0.015176657
000010 b8 cc 1d 3d 41 58 95 bc af 79 9e 39 85 fb 32 bc
       0.038525313 -0.01823056 0.0003022677 -0.010924225
000020 78 11 e6 bc 94 9d 01 3b 4f 10 a7 3c 54 e2 a5 3c
       -0.028084502 0.0019777762 0.020393519 0.020249523
000030 c4 89 f3 3c ed 33 8f bb 18 e1 85 bc 37 79 62 bd
       0.029728778 -0.0043702037 -0.016342685 -0.05529138
000040 be 77 ee bc c0 5d 3a 3d a4 74 0e 3c c2 a8 6c bc
       -0.029109832 0.045499563 0.0086948015 -0.014444532
000050 6a 47 11 bc 64 2d 5d bc 46 09 a3 3c 3a ff 71 bc
       -0.008867124 -0.0134995915 0.019901883 -0.014770323
000060 ae e9 81 bb 7b eb 49 3d a4 ae 36 bd 5e e5 fc bc
       -0.0039646244 0.049296837 -0.044600144 -0.03087109
000070 52 c5 e6 bc 59 32 07 3d 89 b6 74 bc 87 1d 92 bd
       -0.028170262 0.033007 -0.014936098 -0.07134538
000080 13 77 82 bc 02 95 30 bd 69 7b a2 ba a5 3d 87 bc
       -0.01592592 -0.043110855 -0.0012396398 -0.016508887
000090 41 d7 72 bd 39 7f ef bb ef 1d 07 3d ce b0 58 3a
       -0.059287313 -0.0073088673 0.03298753 0.0008266092
0000a0 e1 ee 16 3c 42 fd f1 bc 0f 8b 1a bd 45 73 0d 3d
       0.009212227 -0.029539708 -0.037730273 0.034533758
0000b0 4d a7 21 bc 1a 37 d5 bc 1a 2c de bc 37 9f 9a bc
       -0.009866548 -0.026027251 -0.027120639 -0.018874748
0000c0 4b d8 15 3d 9e 1b 77 3b fa f2 23 3c 36 7d 35 3b
       0.036583226 0.003770567 0.010006661 0.002769304
0000d0 f1 ba e5 3c 6f 09 c7 bb 1a 2e 17 3d 3b 18 9c 3c
       0.028043242 -0.0060741226 0.0369092 0.019054523
0000e0 cc 0f 71 3d b1 aa 1b bc 6b aa 00 3c 7b 7a 7e bb
       0.058852956 -0.009501145 0.007853131 -0.0038830328
0000f0 26 00 3f bc 07 2f ec bc 8f cd 66 bc 93 f3 fb 3c
       -0.01165775 -0.028831018 -0.014087095 0.030755794

weight f4 [10, 64]
000000 02 2c 7d bd a1 f3 03 3e c7 7a 6c bd 32 47 43 3d
       -0.061809547 0.12885906 -0.057734277 0.04767532
000010 4a 17 64 3d 44 5a f5 bc bc c3 cc 3d 1e 87 de 3d
       0.055686273 -0.029950269 0.09998271 0.10865615
000020 08 ef 5c 3d ef 07 85 3d ed ea 56 be 85 11 02 3e
       0.053938895 0.06495654 -0.20988055 0.12701996
000030 bb 6d 04 bd 0c 63 0e 3e ce 28 ed 3b dd 44 98 bd
       -0.03233121 0.13904971 0.0072375303 -0.0743501
000040 fa 9a e4 bd 14 ff 72 bd 2a c1 88 bd 54 4e f5 3d
       -0.11162372 -0.059325293 -0.06677468 0.119778305
000050 9e 70 ec 3d 13 ad 20 3e 20 62 99 3b 59 57 a8 3d
       0.115449175 0.15691023 0.004680887 0.08219785
000060 d2 f2 20 bd 36 df 84 bd e4 25 e3 3d 23 df 70 3d
       -0.03929407 -0.064878866 0.110912114 0.05880655
000070 74 cb 10 3e ef a8 fd bb 7a 32 ad 3d ae 81 0c 3e
       0.14140111 -0.0077410857 0.08456893 0.13721344
000080 96 c7 70 3d cc 0f 3e 3e 3c b6 80 3d eb 8a 44 3d
       0.05878409 0.18560714 0.062847584 0.047984045
000090 ac 07 c0 3d aa 95 ec bd 51 73 46 be 66 ba 4d be
       0.09376463 -0.11551984 -0.19379927 -0.20090637
0000a0 87 12 8d 3d 29 60 35 3c c4 11 7a bd 7e 5a c7 bd
       0.068882994 0.01107029 -0.0610521 -0.09734057
0000b0 34 a6 04 bd 3f d7 ed 3d 31 fe eb 3d 8e 2c 09 3e
       -0.032385066 0.116133206 0.115230925 0.13395903
0000c0 7a 74 dc bd aa 92 14 be e0 df dd bd b9 1e 86 3d
       -0.10764404 -0.14509073 -0.108337164 0.06548829
0000d0 5a 0d ea bd 8b 69 fc bd 3d 0e 83 bc 46 e2 11 be
       -0.11428328 -0.12324818 -0.015998 -0.14246473
0000e0 37 71 83 bd 1c 21 3c 3e e9 ce 99 3c 1e 6f c1 bd
       -0.064180784 0.18372005 0.01877542 -0.09445022
0000f0 2b 16 0a be ef 6a d4 3d 71 dd 54 3d 53 7e fe bd
       -0.13485019 0.103719585 0.051968995 -0.12426438
000100 8b ac 3b bd 23 0a 16 bc b0 aa df bb d7 30 58 be
       -0.045818847 -0.00915769 -0.0068257675 -0.21112381
000110 2c 64 90 3d 0c ca 87 3d a3 d4 34 bd 98 78 ad 3d
       0.07050356 0.06630334 -0.0441481 0.08470267
000120 35 1f 3a be f0 76 14 be 2d 04 9a bd ab f1 2d be
       -0.18175967 -0.14498496 -0.07520328 -0.1698672
000130 30 43 a3 bd a6 0b 43 3d 80 fd c6 bc 3b 95 46 bb
       -0.079717994 0.04761853 -0.0242908 -0.003030135
000140 b8 7e 3f be ff d2 5f bd ff 69 0a be 9e 56 a7 3d
       -0.18700683 -0.05464458 -0.13516997 0.08170818
000150 a0 37 83 3e c4 a5 bb b9 dc cb 92 bd 86 29 5e 3e
       0.25628376 -0.00035790924 -0.07167789 0.21695527
000160 b3 00 16 bd c6 ef 14 3e 64 eb 2f be 56 e6 33 be
       -0.03662176 0.14544591 -0.17179638 -0.17568335
000170 da 95 7d 3e f5 33 5d bd dc 96 84 bd a4 a0 24 be
       0.24764195 -0.05400463 -0.06474087 -0.16076905
000180 08 aa 04 be 25 49 c2 bd 47 9d cf bd 00 66 09 be
       -0.12955487 -0.094866075 -0.1013742 -0.13417816
000190 3e 7d 68 bd fc 2e e4 bd a0 0a f8 bd fd a7 32 be
       -0.056760065 -0.11141774 -0.121114016 -0.17446895
0001a0 fe b8 f1 bd c0 cf 55 bd 8a 3b 50 be 8b 79 59 bd
       -0.118028626 -0.05220008 -0.20335212 -0.053094428
0001b0 df 36 1e be 97 8f 84 3e ce b1 96 bd 92 fd 87 bd
       -0.15450619 0.258908 -0.07358132 -0.066401616
0001c0 b2 16 e6 3c cd 99 35 3e ea 0c 0d be 5a e1 93 bd
       0.028086994 0.17734452 -0.13774458 -0.07220717
0001d0 ba 96 5a be db 96 54 3e 39 7d 36 be 05 55 65 bd
       -0.2134656 0.20760672 -0.17821206 -0.055989284
0001e0 aa 26 0f 3e 2a cf 41 3d 78 fe e4 3c 82 c8 2d 3e
       0.13979593 0.047316708 0.027953371 0.16971019
0001f0 0a d5 1f 3e 73 6d 04 be fa 69 11 be ad 4d c9 bc
       0.15608612 -0.12932377 -0.14200583 -0.024573172
000200 20 76 c3 3d fb 04 18 be 61 e4 b6 3d 92 1e 42 bb
       0.09544015 -0.1484565 0.089302786 -0.0029620272
000210 89 74 c6 3d 99 dd ba 3d 26 08 46 be 1e d8 38 bd
       0.09690196 0.09124298 -0.19339046 -0.04512798
000220 5d 73 16 3e 61 9e be 3d 6c 79 1a 3d 3b 5f 03 3c
       0.14692445 0.09307552 0.037713453 0.00801831
000230 67 b5 62 bd 6b f7 1f 3e 27 1f 0d be 0b 59 04 be
       -0.05534878 0.15621726 -0.13781415 -0.12924592
000240 54 69 90 bd 91 2c 9f 3d 0c 05 c1 3d 1d a6 d6 bd
       -0.0705134 0.07772172 0.09424791 -0.10480902
000250 11 a1 4e 3d cc b1 57 bd 44 68 eb 3d 84 67 f6 3d
       0.050446574 -0.052659795 0.114944965 0.12031463
000260 00 48 9c 3d 79 08 a3 bd 7e 59 29 be 53 2d 50 3d
       0.076309204 -0.079606004 -0.16538045 0.050824475
000270 b1 b3 1d 3d bc 41 2c 3c f8 9a 32 3e b7 14 1c 3d
       0.038501445 0.010513719 0.17441928 0.038105693
000280 5d eb 0b 3e 7c 07 20 bd 79 57 99 bd ba f2 af 3b
       0.13664003 -0.039069638 -0.07487387 0.0053695114
000290 4c 40 b9 3d a8 5b e1 bd 1d 4f cd 3d 67 58 f1 3d
       0.09045467 -0.1100381 0.10024855 0.117844395
0002a0 ba 46 aa bd ee f1 fb bd ca bd a1 3d 68 91 ba bd
       -0.08314271 -0.12302004 0.078975275 -0.09109765
0002b0 ba 92 2b be c0 ba 1c 3d bc 62 e9 bc 9b 8f 98 3d
       -0.1675519 0.038264036 -0.028489463 0.074492656
0002c0 29 19 fe 3d ef 4b 1a be 01 cc c2 3c 65 7e 99 3b
       0.12407143 -0.15068029 0.023778917 0.004684257
0002d0 96 6e 4b 3c 38 a8 7b be f1 56 e0 3d c1 75 ae bd
       0.012416502 -0.24575889 0.10954083 -0.085185535
0002e0 22 ea 69 3d 50 d3 a1 3d c7 92 e1 bc 54 b8 e1 bd
       0.057108052 0.07901633 -0.02753581 -0.11021486
0002f0 29 c4 a8 bd 69 6d 0c bc 73 62 d0 3d c1 f5 9f 3d
       -0.082405396 -0.008571007 0.10175028 0.07810546
000300 76 51 40 3d bd db 01 be 4d c3 18 be 63 28 fe 3d
       0.046952687 -0.1268148 -0.14918251 0.12410047
000310 ac f4 ff 3d 4e ef e8 3d c1 30 2f be 1d 38 d3 bd
       0.12497839 0.11373769 -0.17108442 -0.10313437
000320 2e 8f 4a 3e 4c fa 2f 3e 99 5c 25 bd 40 16 9c bc
       0.19781181 0.17185324 -0.04037151 -0.019053578
000330 9e 79 0f 3d 36 3f 24 3d 00 6f c9 bd 2d 31 2c bd
       0.035028093 0.040099345 -0.09835625 -0.042039085
000340 20 87 03 3d a0 63 0b bb 19 bd 3a 3d 76 a8 14 be
       0.032111287 -0.0021269098 0.045590494 -0.14517388
000350 4b 07 6d 3c 8a 1c b6 bb 17 14 c9 bd 89 62 07 be
       0.014467071 -0.0055576013 -0.09818285 -0.13221182
000360 36 90 8e bd ee af 07 be 6f 16 43 bd 41 e4 34 bd
       -0.069611 -0.13250706 -0.047628816 -0.044162992
000370 f3 cf 1b be 91 88 15 3d b2 92 2a bd 1a 3f d6 bd
       -0.15216045 0.036507193 -0.041643806 -0.104612544
000380 8a 72 1c be dc cb cd bd 20 3b ca 3d c7 5f c1 bd
       -0.15278068 -0.10048649 0.098745584 -0.09442096
000390 6e 06 c7 bd d4 72 c7 3d 4b e9 af 3c 28 2a 8c bd
       -0.09718023 0.097386986 0.021473547 -0.06843978
0003a0 b8 03 b2 3d ca 5c 93 3c af 55 ae bd d8 ff d7 3d
       0.086921155 0.017988581 -0.085124366 0.10546845
0003b0 76 2c b1 bd 8a cc 8e bc 33 11 0c be c2 67 16 ba
       -0.086510584 -0.017431516 -0.13678436 -0.0005737507
0003c0 d6 de 1d 3e f4 3c 24 3d 47 58 e9 3d 68 c8 52 3d
       0.15417036 0.040097192 0.11393791 0.051460654
0003d0 b6 d5 57 3d 6f 60 e0 bd 8a f8 55 bd 66 b8 88 3d
       0.052694045 -0.10955893 -0.05223898 0.06675796
0003e0 d0 6e 24 3d d9 84 af 3b 7c 18 9d 3d f4 df 03 3e
       0.04014474 0.005356413 0.07670686 0.128784
0003f0 f9 21 ac 3c f0 cd 24 3d eb 20 e3 3d 1e 71 7c 3d
       0.021012293 0.04023546 0.11090263 0.061631314

bias f4 [10]
000000 9b e3 38 be 82 08 c2 bd 34 27 40 3a 93 a1 69 bd
       -0.18055575 -0.09474279 0.00073300605 -0.057038855
000010 e7 c7 52 bc 62 b0 fb bd c3 f1 d9 3c 1d f7 e5 bd
       -0.012865043 -0.12289502 0.026604539 -0.11228774
000020 70 ce 4a bd ba 4a 7b bc
       -0.04951328 -0.01533764
